? "(16, 16, PreActBlock(\n  (bn1): BatchNorm2d(1000, eps=1e-05, momentum=0.1, affine=True,\
  \ track_running_stats=True)\n  (conv1): Conv2d(1000, 1000, kernel_size=(3, 3), stride=(1,\
  \ 1), padding=(1, 1), bias=False)\n  (bn2): BatchNorm2d(1000, eps=1e-05, momentum=0.1,\
  \ affine=True, track_running_stats=True)\n  (conv2): Conv2d(1000, 1000, kernel_size=(3,\
  \ 3), stride=(1, 1), padding=(1, 1), bias=False)\n))"
: count: 10
  value: 148178.36990000002
? "(16, 16, PreActBlock(\n  (bn1): BatchNorm2d(1024, eps=1e-05, momentum=0.1, affine=True,\
  \ track_running_stats=True)\n  (conv1): Conv2d(1024, 1024, kernel_size=(3, 3), stride=(1,\
  \ 1), padding=(1, 1), bias=False)\n  (bn2): BatchNorm2d(1024, eps=1e-05, momentum=0.1,\
  \ affine=True, track_running_stats=True)\n  (conv2): Conv2d(1024, 1024, kernel_size=(3,\
  \ 3), stride=(1, 1), padding=(1, 1), bias=False)\n))"
: count: 10
  value: 158637.5732
? "(16, 16, PreActBlock(\n  (bn1): BatchNorm2d(1048, eps=1e-05, momentum=0.1, affine=True,\
  \ track_running_stats=True)\n  (conv1): Conv2d(1048, 1048, kernel_size=(3, 3), stride=(1,\
  \ 1), padding=(1, 1), bias=False)\n  (bn2): BatchNorm2d(1048, eps=1e-05, momentum=0.1,\
  \ affine=True, track_running_stats=True)\n  (conv2): Conv2d(1048, 1048, kernel_size=(3,\
  \ 3), stride=(1, 1), padding=(1, 1), bias=False)\n))"
: count: 10
  value: 170579.50570000004
? "(16, 16, PreActBlock(\n  (bn1): BatchNorm2d(1072, eps=1e-05, momentum=0.1, affine=True,\
  \ track_running_stats=True)\n  (conv1): Conv2d(1072, 1072, kernel_size=(3, 3), stride=(1,\
  \ 1), padding=(1, 1), bias=False)\n  (bn2): BatchNorm2d(1072, eps=1e-05, momentum=0.1,\
  \ affine=True, track_running_stats=True)\n  (conv2): Conv2d(1072, 1072, kernel_size=(3,\
  \ 3), stride=(1, 1), padding=(1, 1), bias=False)\n))"
: count: 10
  value: 171676.249
? "(16, 16, PreActBlock(\n  (bn1): BatchNorm2d(1104, eps=1e-05, momentum=0.1, affine=True,\
  \ track_running_stats=True)\n  (conv1): Conv2d(1104, 1104, kernel_size=(3, 3), stride=(1,\
  \ 1), padding=(1, 1), bias=False)\n  (bn2): BatchNorm2d(1104, eps=1e-05, momentum=0.1,\
  \ affine=True, track_running_stats=True)\n  (conv2): Conv2d(1104, 1104, kernel_size=(3,\
  \ 3), stride=(1, 1), padding=(1, 1), bias=False)\n))"
: count: 10
  value: 172398.1563
? "(16, 16, PreActBlock(\n  (bn1): BatchNorm2d(1128, eps=1e-05, momentum=0.1, affine=True,\
  \ track_running_stats=True)\n  (conv1): Conv2d(1128, 1128, kernel_size=(3, 3), stride=(1,\
  \ 1), padding=(1, 1), bias=False)\n  (bn2): BatchNorm2d(1128, eps=1e-05, momentum=0.1,\
  \ affine=True, track_running_stats=True)\n  (conv2): Conv2d(1128, 1128, kernel_size=(3,\
  \ 3), stride=(1, 1), padding=(1, 1), bias=False)\n))"
: count: 10
  value: 184995.25030000004
? "(16, 16, PreActBlock(\n  (bn1): BatchNorm2d(1152, eps=1e-05, momentum=0.1, affine=True,\
  \ track_running_stats=True)\n  (conv1): Conv2d(1152, 1152, kernel_size=(3, 3), stride=(1,\
  \ 1), padding=(1, 1), bias=False)\n  (bn2): BatchNorm2d(1152, eps=1e-05, momentum=0.1,\
  \ affine=True, track_running_stats=True)\n  (conv2): Conv2d(1152, 1152, kernel_size=(3,\
  \ 3), stride=(1, 1), padding=(1, 1), bias=False)\n))"
: count: 10
  value: 191108.20970000004
? "(16, 16, PreActBlock(\n  (bn1): BatchNorm2d(1176, eps=1e-05, momentum=0.1, affine=True,\
  \ track_running_stats=True)\n  (conv1): Conv2d(1176, 1176, kernel_size=(3, 3), stride=(1,\
  \ 1), padding=(1, 1), bias=False)\n  (bn2): BatchNorm2d(1176, eps=1e-05, momentum=0.1,\
  \ affine=True, track_running_stats=True)\n  (conv2): Conv2d(1176, 1176, kernel_size=(3,\
  \ 3), stride=(1, 1), padding=(1, 1), bias=False)\n))"
: count: 10
  value: 198500.3965
? "(16, 16, PreActBlock(\n  (bn1): BatchNorm2d(1200, eps=1e-05, momentum=0.1, affine=True,\
  \ track_running_stats=True)\n  (conv1): Conv2d(1200, 1200, kernel_size=(3, 3), stride=(1,\
  \ 1), padding=(1, 1), bias=False)\n  (bn2): BatchNorm2d(1200, eps=1e-05, momentum=0.1,\
  \ affine=True, track_running_stats=True)\n  (conv2): Conv2d(1200, 1200, kernel_size=(3,\
  \ 3), stride=(1, 1), padding=(1, 1), bias=False)\n))"
: count: 10
  value: 201214.0692
? "(16, 16, PreActBlock(\n  (bn1): BatchNorm2d(1232, eps=1e-05, momentum=0.1, affine=True,\
  \ track_running_stats=True)\n  (conv1): Conv2d(1232, 1232, kernel_size=(3, 3), stride=(1,\
  \ 1), padding=(1, 1), bias=False)\n  (bn2): BatchNorm2d(1232, eps=1e-05, momentum=0.1,\
  \ affine=True, track_running_stats=True)\n  (conv2): Conv2d(1232, 1232, kernel_size=(3,\
  \ 3), stride=(1, 1), padding=(1, 1), bias=False)\n))"
: count: 10
  value: 212538.2897
? "(16, 16, PreActBlock(\n  (bn1): BatchNorm2d(1256, eps=1e-05, momentum=0.1, affine=True,\
  \ track_running_stats=True)\n  (conv1): Conv2d(1256, 1256, kernel_size=(3, 3), stride=(1,\
  \ 1), padding=(1, 1), bias=False)\n  (bn2): BatchNorm2d(1256, eps=1e-05, momentum=0.1,\
  \ affine=True, track_running_stats=True)\n  (conv2): Conv2d(1256, 1256, kernel_size=(3,\
  \ 3), stride=(1, 1), padding=(1, 1), bias=False)\n))"
: count: 10
  value: 222453.3522
? "(16, 16, PreActBlock(\n  (bn1): BatchNorm2d(1280, eps=1e-05, momentum=0.1, affine=True,\
  \ track_running_stats=True)\n  (conv1): Conv2d(1280, 1280, kernel_size=(3, 3), stride=(1,\
  \ 1), padding=(1, 1), bias=False)\n  (bn2): BatchNorm2d(1280, eps=1e-05, momentum=0.1,\
  \ affine=True, track_running_stats=True)\n  (conv2): Conv2d(1280, 1280, kernel_size=(3,\
  \ 3), stride=(1, 1), padding=(1, 1), bias=False)\n))"
: count: 10
  value: 233476.93049999996
? "(16, 16, PreActBlock(\n  (bn1): BatchNorm2d(256, eps=1e-05, momentum=0.1, affine=True,\
  \ track_running_stats=True)\n  (conv1): Conv2d(256, 256, kernel_size=(3, 3), stride=(1,\
  \ 1), padding=(1, 1), bias=False)\n  (bn2): BatchNorm2d(256, eps=1e-05, momentum=0.1,\
  \ affine=True, track_running_stats=True)\n  (conv2): Conv2d(256, 256, kernel_size=(3,\
  \ 3), stride=(1, 1), padding=(1, 1), bias=False)\n))"
: count: 10
  value: 8223.949299999998
? "(16, 16, PreActBlock(\n  (bn1): BatchNorm2d(280, eps=1e-05, momentum=0.1, affine=True,\
  \ track_running_stats=True)\n  (conv1): Conv2d(280, 280, kernel_size=(3, 3), stride=(1,\
  \ 1), padding=(1, 1), bias=False)\n  (bn2): BatchNorm2d(280, eps=1e-05, momentum=0.1,\
  \ affine=True, track_running_stats=True)\n  (conv2): Conv2d(280, 280, kernel_size=(3,\
  \ 3), stride=(1, 1), padding=(1, 1), bias=False)\n))"
: count: 10
  value: 9896.335200000001
? "(16, 16, PreActBlock(\n  (bn1): BatchNorm2d(304, eps=1e-05, momentum=0.1, affine=True,\
  \ track_running_stats=True)\n  (conv1): Conv2d(304, 304, kernel_size=(3, 3), stride=(1,\
  \ 1), padding=(1, 1), bias=False)\n  (bn2): BatchNorm2d(304, eps=1e-05, momentum=0.1,\
  \ affine=True, track_running_stats=True)\n  (conv2): Conv2d(304, 304, kernel_size=(3,\
  \ 3), stride=(1, 1), padding=(1, 1), bias=False)\n))"
: count: 10
  value: 12124.4418
? "(16, 16, PreActBlock(\n  (bn1): BatchNorm2d(336, eps=1e-05, momentum=0.1, affine=True,\
  \ track_running_stats=True)\n  (conv1): Conv2d(336, 336, kernel_size=(3, 3), stride=(1,\
  \ 1), padding=(1, 1), bias=False)\n  (bn2): BatchNorm2d(336, eps=1e-05, momentum=0.1,\
  \ affine=True, track_running_stats=True)\n  (conv2): Conv2d(336, 336, kernel_size=(3,\
  \ 3), stride=(1, 1), padding=(1, 1), bias=False)\n))"
: count: 10
  value: 15122.1354
? "(16, 16, PreActBlock(\n  (bn1): BatchNorm2d(360, eps=1e-05, momentum=0.1, affine=True,\
  \ track_running_stats=True)\n  (conv1): Conv2d(360, 360, kernel_size=(3, 3), stride=(1,\
  \ 1), padding=(1, 1), bias=False)\n  (bn2): BatchNorm2d(360, eps=1e-05, momentum=0.1,\
  \ affine=True, track_running_stats=True)\n  (conv2): Conv2d(360, 360, kernel_size=(3,\
  \ 3), stride=(1, 1), padding=(1, 1), bias=False)\n))"
: count: 10
  value: 18044.8132
? "(16, 16, PreActBlock(\n  (bn1): BatchNorm2d(384, eps=1e-05, momentum=0.1, affine=True,\
  \ track_running_stats=True)\n  (conv1): Conv2d(384, 384, kernel_size=(3, 3), stride=(1,\
  \ 1), padding=(1, 1), bias=False)\n  (bn2): BatchNorm2d(384, eps=1e-05, momentum=0.1,\
  \ affine=True, track_running_stats=True)\n  (conv2): Conv2d(384, 384, kernel_size=(3,\
  \ 3), stride=(1, 1), padding=(1, 1), bias=False)\n))"
: count: 10
  value: 20958.2293
? "(16, 16, PreActBlock(\n  (bn1): BatchNorm2d(408, eps=1e-05, momentum=0.1, affine=True,\
  \ track_running_stats=True)\n  (conv1): Conv2d(408, 408, kernel_size=(3, 3), stride=(1,\
  \ 1), padding=(1, 1), bias=False)\n  (bn2): BatchNorm2d(408, eps=1e-05, momentum=0.1,\
  \ affine=True, track_running_stats=True)\n  (conv2): Conv2d(408, 408, kernel_size=(3,\
  \ 3), stride=(1, 1), padding=(1, 1), bias=False)\n))"
: count: 10
  value: 24188.758300000005
? "(16, 16, PreActBlock(\n  (bn1): BatchNorm2d(432, eps=1e-05, momentum=0.1, affine=True,\
  \ track_running_stats=True)\n  (conv1): Conv2d(432, 432, kernel_size=(3, 3), stride=(1,\
  \ 1), padding=(1, 1), bias=False)\n  (bn2): BatchNorm2d(432, eps=1e-05, momentum=0.1,\
  \ affine=True, track_running_stats=True)\n  (conv2): Conv2d(432, 432, kernel_size=(3,\
  \ 3), stride=(1, 1), padding=(1, 1), bias=False)\n))"
: count: 10
  value: 28788.419299999998
? "(16, 16, PreActBlock(\n  (bn1): BatchNorm2d(464, eps=1e-05, momentum=0.1, affine=True,\
  \ track_running_stats=True)\n  (conv1): Conv2d(464, 464, kernel_size=(3, 3), stride=(1,\
  \ 1), padding=(1, 1), bias=False)\n  (bn2): BatchNorm2d(464, eps=1e-05, momentum=0.1,\
  \ affine=True, track_running_stats=True)\n  (conv2): Conv2d(464, 464, kernel_size=(3,\
  \ 3), stride=(1, 1), padding=(1, 1), bias=False)\n))"
: count: 10
  value: 31997.9625
? "(16, 16, PreActBlock(\n  (bn1): BatchNorm2d(488, eps=1e-05, momentum=0.1, affine=True,\
  \ track_running_stats=True)\n  (conv1): Conv2d(488, 488, kernel_size=(3, 3), stride=(1,\
  \ 1), padding=(1, 1), bias=False)\n  (bn2): BatchNorm2d(488, eps=1e-05, momentum=0.1,\
  \ affine=True, track_running_stats=True)\n  (conv2): Conv2d(488, 488, kernel_size=(3,\
  \ 3), stride=(1, 1), padding=(1, 1), bias=False)\n))"
: count: 10
  value: 35725.1462
? "(16, 16, PreActBlock(\n  (bn1): BatchNorm2d(512, eps=1e-05, momentum=0.1, affine=True,\
  \ track_running_stats=True)\n  (conv1): Conv2d(512, 512, kernel_size=(3, 3), stride=(1,\
  \ 1), padding=(1, 1), bias=False)\n  (bn2): BatchNorm2d(512, eps=1e-05, momentum=0.1,\
  \ affine=True, track_running_stats=True)\n  (conv2): Conv2d(512, 512, kernel_size=(3,\
  \ 3), stride=(1, 1), padding=(1, 1), bias=False)\n))"
: count: 10
  value: 38721.77049999999
? "(16, 16, PreActBlock(\n  (bn1): BatchNorm2d(536, eps=1e-05, momentum=0.1, affine=True,\
  \ track_running_stats=True)\n  (conv1): Conv2d(536, 536, kernel_size=(3, 3), stride=(1,\
  \ 1), padding=(1, 1), bias=False)\n  (bn2): BatchNorm2d(536, eps=1e-05, momentum=0.1,\
  \ affine=True, track_running_stats=True)\n  (conv2): Conv2d(536, 536, kernel_size=(3,\
  \ 3), stride=(1, 1), padding=(1, 1), bias=False)\n))"
: count: 10
  value: 41462.83
? "(16, 16, PreActBlock(\n  (bn1): BatchNorm2d(560, eps=1e-05, momentum=0.1, affine=True,\
  \ track_running_stats=True)\n  (conv1): Conv2d(560, 560, kernel_size=(3, 3), stride=(1,\
  \ 1), padding=(1, 1), bias=False)\n  (bn2): BatchNorm2d(560, eps=1e-05, momentum=0.1,\
  \ affine=True, track_running_stats=True)\n  (conv2): Conv2d(560, 560, kernel_size=(3,\
  \ 3), stride=(1, 1), padding=(1, 1), bias=False)\n))"
: count: 10
  value: 47390.92390000001
? "(16, 16, PreActBlock(\n  (bn1): BatchNorm2d(592, eps=1e-05, momentum=0.1, affine=True,\
  \ track_running_stats=True)\n  (conv1): Conv2d(592, 592, kernel_size=(3, 3), stride=(1,\
  \ 1), padding=(1, 1), bias=False)\n  (bn2): BatchNorm2d(592, eps=1e-05, momentum=0.1,\
  \ affine=True, track_running_stats=True)\n  (conv2): Conv2d(592, 592, kernel_size=(3,\
  \ 3), stride=(1, 1), padding=(1, 1), bias=False)\n))"
: count: 10
  value: 50766.2472
? "(16, 16, PreActBlock(\n  (bn1): BatchNorm2d(616, eps=1e-05, momentum=0.1, affine=True,\
  \ track_running_stats=True)\n  (conv1): Conv2d(616, 616, kernel_size=(3, 3), stride=(1,\
  \ 1), padding=(1, 1), bias=False)\n  (bn2): BatchNorm2d(616, eps=1e-05, momentum=0.1,\
  \ affine=True, track_running_stats=True)\n  (conv2): Conv2d(616, 616, kernel_size=(3,\
  \ 3), stride=(1, 1), padding=(1, 1), bias=False)\n))"
: count: 10
  value: 55105.0181
? "(16, 16, PreActBlock(\n  (bn1): BatchNorm2d(640, eps=1e-05, momentum=0.1, affine=True,\
  \ track_running_stats=True)\n  (conv1): Conv2d(640, 640, kernel_size=(3, 3), stride=(1,\
  \ 1), padding=(1, 1), bias=False)\n  (bn2): BatchNorm2d(640, eps=1e-05, momentum=0.1,\
  \ affine=True, track_running_stats=True)\n  (conv2): Conv2d(640, 640, kernel_size=(3,\
  \ 3), stride=(1, 1), padding=(1, 1), bias=False)\n))"
: count: 10
  value: 58648.63420000001
? "(16, 16, PreActBlock(\n  (bn1): BatchNorm2d(664, eps=1e-05, momentum=0.1, affine=True,\
  \ track_running_stats=True)\n  (conv1): Conv2d(664, 664, kernel_size=(3, 3), stride=(1,\
  \ 1), padding=(1, 1), bias=False)\n  (bn2): BatchNorm2d(664, eps=1e-05, momentum=0.1,\
  \ affine=True, track_running_stats=True)\n  (conv2): Conv2d(664, 664, kernel_size=(3,\
  \ 3), stride=(1, 1), padding=(1, 1), bias=False)\n))"
: count: 10
  value: 63583.315599999994
? "(16, 16, PreActBlock(\n  (bn1): BatchNorm2d(688, eps=1e-05, momentum=0.1, affine=True,\
  \ track_running_stats=True)\n  (conv1): Conv2d(688, 688, kernel_size=(3, 3), stride=(1,\
  \ 1), padding=(1, 1), bias=False)\n  (bn2): BatchNorm2d(688, eps=1e-05, momentum=0.1,\
  \ affine=True, track_running_stats=True)\n  (conv2): Conv2d(688, 688, kernel_size=(3,\
  \ 3), stride=(1, 1), padding=(1, 1), bias=False)\n))"
: count: 10
  value: 69961.2401
? "(16, 16, PreActBlock(\n  (bn1): BatchNorm2d(720, eps=1e-05, momentum=0.1, affine=True,\
  \ track_running_stats=True)\n  (conv1): Conv2d(720, 720, kernel_size=(3, 3), stride=(1,\
  \ 1), padding=(1, 1), bias=False)\n  (bn2): BatchNorm2d(720, eps=1e-05, momentum=0.1,\
  \ affine=True, track_running_stats=True)\n  (conv2): Conv2d(720, 720, kernel_size=(3,\
  \ 3), stride=(1, 1), padding=(1, 1), bias=False)\n))"
: count: 10
  value: 78234.0061
? "(16, 16, PreActBlock(\n  (bn1): BatchNorm2d(744, eps=1e-05, momentum=0.1, affine=True,\
  \ track_running_stats=True)\n  (conv1): Conv2d(744, 744, kernel_size=(3, 3), stride=(1,\
  \ 1), padding=(1, 1), bias=False)\n  (bn2): BatchNorm2d(744, eps=1e-05, momentum=0.1,\
  \ affine=True, track_running_stats=True)\n  (conv2): Conv2d(744, 744, kernel_size=(3,\
  \ 3), stride=(1, 1), padding=(1, 1), bias=False)\n))"
: count: 10
  value: 81544.95669999998
? "(16, 16, PreActBlock(\n  (bn1): BatchNorm2d(768, eps=1e-05, momentum=0.1, affine=True,\
  \ track_running_stats=True)\n  (conv1): Conv2d(768, 768, kernel_size=(3, 3), stride=(1,\
  \ 1), padding=(1, 1), bias=False)\n  (bn2): BatchNorm2d(768, eps=1e-05, momentum=0.1,\
  \ affine=True, track_running_stats=True)\n  (conv2): Conv2d(768, 768, kernel_size=(3,\
  \ 3), stride=(1, 1), padding=(1, 1), bias=False)\n))"
: count: 10
  value: 84675.22709999999
? "(16, 16, PreActBlock(\n  (bn1): BatchNorm2d(792, eps=1e-05, momentum=0.1, affine=True,\
  \ track_running_stats=True)\n  (conv1): Conv2d(792, 792, kernel_size=(3, 3), stride=(1,\
  \ 1), padding=(1, 1), bias=False)\n  (bn2): BatchNorm2d(792, eps=1e-05, momentum=0.1,\
  \ affine=True, track_running_stats=True)\n  (conv2): Conv2d(792, 792, kernel_size=(3,\
  \ 3), stride=(1, 1), padding=(1, 1), bias=False)\n))"
: count: 10
  value: 89860.06049999999
? "(16, 16, PreActBlock(\n  (bn1): BatchNorm2d(816, eps=1e-05, momentum=0.1, affine=True,\
  \ track_running_stats=True)\n  (conv1): Conv2d(816, 816, kernel_size=(3, 3), stride=(1,\
  \ 1), padding=(1, 1), bias=False)\n  (bn2): BatchNorm2d(816, eps=1e-05, momentum=0.1,\
  \ affine=True, track_running_stats=True)\n  (conv2): Conv2d(816, 816, kernel_size=(3,\
  \ 3), stride=(1, 1), padding=(1, 1), bias=False)\n))"
: count: 10
  value: 96352.92090000001
? "(16, 16, PreActBlock(\n  (bn1): BatchNorm2d(848, eps=1e-05, momentum=0.1, affine=True,\
  \ track_running_stats=True)\n  (conv1): Conv2d(848, 848, kernel_size=(3, 3), stride=(1,\
  \ 1), padding=(1, 1), bias=False)\n  (bn2): BatchNorm2d(848, eps=1e-05, momentum=0.1,\
  \ affine=True, track_running_stats=True)\n  (conv2): Conv2d(848, 848, kernel_size=(3,\
  \ 3), stride=(1, 1), padding=(1, 1), bias=False)\n))"
: count: 10
  value: 103994.62879999999
? "(16, 16, PreActBlock(\n  (bn1): BatchNorm2d(872, eps=1e-05, momentum=0.1, affine=True,\
  \ track_running_stats=True)\n  (conv1): Conv2d(872, 872, kernel_size=(3, 3), stride=(1,\
  \ 1), padding=(1, 1), bias=False)\n  (bn2): BatchNorm2d(872, eps=1e-05, momentum=0.1,\
  \ affine=True, track_running_stats=True)\n  (conv2): Conv2d(872, 872, kernel_size=(3,\
  \ 3), stride=(1, 1), padding=(1, 1), bias=False)\n))"
: count: 10
  value: 110321.04920000001
? "(16, 16, PreActBlock(\n  (bn1): BatchNorm2d(896, eps=1e-05, momentum=0.1, affine=True,\
  \ track_running_stats=True)\n  (conv1): Conv2d(896, 896, kernel_size=(3, 3), stride=(1,\
  \ 1), padding=(1, 1), bias=False)\n  (bn2): BatchNorm2d(896, eps=1e-05, momentum=0.1,\
  \ affine=True, track_running_stats=True)\n  (conv2): Conv2d(896, 896, kernel_size=(3,\
  \ 3), stride=(1, 1), padding=(1, 1), bias=False)\n))"
: count: 10
  value: 113846.72
? "(16, 16, PreActBlock(\n  (bn1): BatchNorm2d(920, eps=1e-05, momentum=0.1, affine=True,\
  \ track_running_stats=True)\n  (conv1): Conv2d(920, 920, kernel_size=(3, 3), stride=(1,\
  \ 1), padding=(1, 1), bias=False)\n  (bn2): BatchNorm2d(920, eps=1e-05, momentum=0.1,\
  \ affine=True, track_running_stats=True)\n  (conv2): Conv2d(920, 920, kernel_size=(3,\
  \ 3), stride=(1, 1), padding=(1, 1), bias=False)\n))"
: count: 10
  value: 119727.08420000001
? "(16, 16, PreActBlock(\n  (bn1): BatchNorm2d(944, eps=1e-05, momentum=0.1, affine=True,\
  \ track_running_stats=True)\n  (conv1): Conv2d(944, 944, kernel_size=(3, 3), stride=(1,\
  \ 1), padding=(1, 1), bias=False)\n  (bn2): BatchNorm2d(944, eps=1e-05, momentum=0.1,\
  \ affine=True, track_running_stats=True)\n  (conv2): Conv2d(944, 944, kernel_size=(3,\
  \ 3), stride=(1, 1), padding=(1, 1), bias=False)\n))"
: count: 10
  value: 126988.32270000002
? "(16, 16, PreActBlock(\n  (bn1): BatchNorm2d(976, eps=1e-05, momentum=0.1, affine=True,\
  \ track_running_stats=True)\n  (conv1): Conv2d(976, 976, kernel_size=(3, 3), stride=(1,\
  \ 1), padding=(1, 1), bias=False)\n  (bn2): BatchNorm2d(976, eps=1e-05, momentum=0.1,\
  \ affine=True, track_running_stats=True)\n  (conv2): Conv2d(976, 976, kernel_size=(3,\
  \ 3), stride=(1, 1), padding=(1, 1), bias=False)\n))"
: count: 10
  value: 135814.4191
? "(16, 8, PreActBlock(\n  (bn1): BatchNorm2d(1000, eps=1e-05, momentum=0.1, affine=True,\
  \ track_running_stats=True)\n  (conv1): Conv2d(1000, 2000, kernel_size=(3, 3), stride=(2,\
  \ 2), padding=(1, 1), bias=False)\n  (bn2): BatchNorm2d(2000, eps=1e-05, momentum=0.1,\
  \ affine=True, track_running_stats=True)\n  (conv2): Conv2d(2000, 2000, kernel_size=(3,\
  \ 3), stride=(1, 1), padding=(1, 1), bias=False)\n  (shortcut): Sequential(\n  \
  \  (0): Conv2d(1000, 2000, kernel_size=(1, 1), stride=(2, 2), bias=False)\n  )\n\
  ))"
: count: 10
  value: 226883.82179999998
? "(16, 8, PreActBlock(\n  (bn1): BatchNorm2d(1024, eps=1e-05, momentum=0.1, affine=True,\
  \ track_running_stats=True)\n  (conv1): Conv2d(1024, 2048, kernel_size=(3, 3), stride=(2,\
  \ 2), padding=(1, 1), bias=False)\n  (bn2): BatchNorm2d(2048, eps=1e-05, momentum=0.1,\
  \ affine=True, track_running_stats=True)\n  (conv2): Conv2d(2048, 2048, kernel_size=(3,\
  \ 3), stride=(1, 1), padding=(1, 1), bias=False)\n  (shortcut): Sequential(\n  \
  \  (0): Conv2d(1024, 2048, kernel_size=(1, 1), stride=(2, 2), bias=False)\n  )\n\
  ))"
: count: 10
  value: 245700.87879999998
? "(16, 8, PreActBlock(\n  (bn1): BatchNorm2d(1048, eps=1e-05, momentum=0.1, affine=True,\
  \ track_running_stats=True)\n  (conv1): Conv2d(1048, 2096, kernel_size=(3, 3), stride=(2,\
  \ 2), padding=(1, 1), bias=False)\n  (bn2): BatchNorm2d(2096, eps=1e-05, momentum=0.1,\
  \ affine=True, track_running_stats=True)\n  (conv2): Conv2d(2096, 2096, kernel_size=(3,\
  \ 3), stride=(1, 1), padding=(1, 1), bias=False)\n  (shortcut): Sequential(\n  \
  \  (0): Conv2d(1048, 2096, kernel_size=(1, 1), stride=(2, 2), bias=False)\n  )\n\
  ))"
: count: 10
  value: 256612.0806
? "(16, 8, PreActBlock(\n  (bn1): BatchNorm2d(1072, eps=1e-05, momentum=0.1, affine=True,\
  \ track_running_stats=True)\n  (conv1): Conv2d(1072, 2152, kernel_size=(3, 3), stride=(2,\
  \ 2), padding=(1, 1), bias=False)\n  (bn2): BatchNorm2d(2152, eps=1e-05, momentum=0.1,\
  \ affine=True, track_running_stats=True)\n  (conv2): Conv2d(2152, 2152, kernel_size=(3,\
  \ 3), stride=(1, 1), padding=(1, 1), bias=False)\n  (shortcut): Sequential(\n  \
  \  (0): Conv2d(1072, 2152, kernel_size=(1, 1), stride=(2, 2), bias=False)\n  )\n\
  ))"
: count: 10
  value: 265466.69860000006
? "(16, 8, PreActBlock(\n  (bn1): BatchNorm2d(1104, eps=1e-05, momentum=0.1, affine=True,\
  \ track_running_stats=True)\n  (conv1): Conv2d(1104, 2200, kernel_size=(3, 3), stride=(2,\
  \ 2), padding=(1, 1), bias=False)\n  (bn2): BatchNorm2d(2200, eps=1e-05, momentum=0.1,\
  \ affine=True, track_running_stats=True)\n  (conv2): Conv2d(2200, 2200, kernel_size=(3,\
  \ 3), stride=(1, 1), padding=(1, 1), bias=False)\n  (shortcut): Sequential(\n  \
  \  (0): Conv2d(1104, 2200, kernel_size=(1, 1), stride=(2, 2), bias=False)\n  )\n\
  ))"
: count: 10
  value: 267460.2633
? "(16, 8, PreActBlock(\n  (bn1): BatchNorm2d(1128, eps=1e-05, momentum=0.1, affine=True,\
  \ track_running_stats=True)\n  (conv1): Conv2d(1128, 2256, kernel_size=(3, 3), stride=(2,\
  \ 2), padding=(1, 1), bias=False)\n  (bn2): BatchNorm2d(2256, eps=1e-05, momentum=0.1,\
  \ affine=True, track_running_stats=True)\n  (conv2): Conv2d(2256, 2256, kernel_size=(3,\
  \ 3), stride=(1, 1), padding=(1, 1), bias=False)\n  (shortcut): Sequential(\n  \
  \  (0): Conv2d(1128, 2256, kernel_size=(1, 1), stride=(2, 2), bias=False)\n  )\n\
  ))"
: count: 10
  value: 287306.31549999997
? "(16, 8, PreActBlock(\n  (bn1): BatchNorm2d(1152, eps=1e-05, momentum=0.1, affine=True,\
  \ track_running_stats=True)\n  (conv1): Conv2d(1152, 2304, kernel_size=(3, 3), stride=(2,\
  \ 2), padding=(1, 1), bias=False)\n  (bn2): BatchNorm2d(2304, eps=1e-05, momentum=0.1,\
  \ affine=True, track_running_stats=True)\n  (conv2): Conv2d(2304, 2304, kernel_size=(3,\
  \ 3), stride=(1, 1), padding=(1, 1), bias=False)\n  (shortcut): Sequential(\n  \
  \  (0): Conv2d(1152, 2304, kernel_size=(1, 1), stride=(2, 2), bias=False)\n  )\n\
  ))"
: count: 10
  value: 301639.2695
? "(16, 8, PreActBlock(\n  (bn1): BatchNorm2d(1176, eps=1e-05, momentum=0.1, affine=True,\
  \ track_running_stats=True)\n  (conv1): Conv2d(1176, 2352, kernel_size=(3, 3), stride=(2,\
  \ 2), padding=(1, 1), bias=False)\n  (bn2): BatchNorm2d(2352, eps=1e-05, momentum=0.1,\
  \ affine=True, track_running_stats=True)\n  (conv2): Conv2d(2352, 2352, kernel_size=(3,\
  \ 3), stride=(1, 1), padding=(1, 1), bias=False)\n  (shortcut): Sequential(\n  \
  \  (0): Conv2d(1176, 2352, kernel_size=(1, 1), stride=(2, 2), bias=False)\n  )\n\
  ))"
: count: 10
  value: 315134.6971
? "(16, 8, PreActBlock(\n  (bn1): BatchNorm2d(1200, eps=1e-05, momentum=0.1, affine=True,\
  \ track_running_stats=True)\n  (conv1): Conv2d(1200, 2408, kernel_size=(3, 3), stride=(2,\
  \ 2), padding=(1, 1), bias=False)\n  (bn2): BatchNorm2d(2408, eps=1e-05, momentum=0.1,\
  \ affine=True, track_running_stats=True)\n  (conv2): Conv2d(2408, 2408, kernel_size=(3,\
  \ 3), stride=(1, 1), padding=(1, 1), bias=False)\n  (shortcut): Sequential(\n  \
  \  (0): Conv2d(1200, 2408, kernel_size=(1, 1), stride=(2, 2), bias=False)\n  )\n\
  ))"
: count: 10
  value: 323736.35160000005
? "(16, 8, PreActBlock(\n  (bn1): BatchNorm2d(1232, eps=1e-05, momentum=0.1, affine=True,\
  \ track_running_stats=True)\n  (conv1): Conv2d(1232, 2456, kernel_size=(3, 3), stride=(2,\
  \ 2), padding=(1, 1), bias=False)\n  (bn2): BatchNorm2d(2456, eps=1e-05, momentum=0.1,\
  \ affine=True, track_running_stats=True)\n  (conv2): Conv2d(2456, 2456, kernel_size=(3,\
  \ 3), stride=(1, 1), padding=(1, 1), bias=False)\n  (shortcut): Sequential(\n  \
  \  (0): Conv2d(1232, 2456, kernel_size=(1, 1), stride=(2, 2), bias=False)\n  )\n\
  ))"
: count: 10
  value: 334491.4565
? "(16, 8, PreActBlock(\n  (bn1): BatchNorm2d(1256, eps=1e-05, momentum=0.1, affine=True,\
  \ track_running_stats=True)\n  (conv1): Conv2d(1256, 2512, kernel_size=(3, 3), stride=(2,\
  \ 2), padding=(1, 1), bias=False)\n  (bn2): BatchNorm2d(2512, eps=1e-05, momentum=0.1,\
  \ affine=True, track_running_stats=True)\n  (conv2): Conv2d(2512, 2512, kernel_size=(3,\
  \ 3), stride=(1, 1), padding=(1, 1), bias=False)\n  (shortcut): Sequential(\n  \
  \  (0): Conv2d(1256, 2512, kernel_size=(1, 1), stride=(2, 2), bias=False)\n  )\n\
  ))"
: count: 10
  value: 352443.1431
? "(16, 8, PreActBlock(\n  (bn1): BatchNorm2d(1280, eps=1e-05, momentum=0.1, affine=True,\
  \ track_running_stats=True)\n  (conv1): Conv2d(1280, 2560, kernel_size=(3, 3), stride=(2,\
  \ 2), padding=(1, 1), bias=False)\n  (bn2): BatchNorm2d(2560, eps=1e-05, momentum=0.1,\
  \ affine=True, track_running_stats=True)\n  (conv2): Conv2d(2560, 2560, kernel_size=(3,\
  \ 3), stride=(1, 1), padding=(1, 1), bias=False)\n  (shortcut): Sequential(\n  \
  \  (0): Conv2d(1280, 2560, kernel_size=(1, 1), stride=(2, 2), bias=False)\n  )\n\
  ))"
: count: 10
  value: 365364.89229999995
? "(16, 8, PreActBlock(\n  (bn1): BatchNorm2d(256, eps=1e-05, momentum=0.1, affine=True,\
  \ track_running_stats=True)\n  (conv1): Conv2d(256, 512, kernel_size=(3, 3), stride=(2,\
  \ 2), padding=(1, 1), bias=False)\n  (bn2): BatchNorm2d(512, eps=1e-05, momentum=0.1,\
  \ affine=True, track_running_stats=True)\n  (conv2): Conv2d(512, 512, kernel_size=(3,\
  \ 3), stride=(1, 1), padding=(1, 1), bias=False)\n  (shortcut): Sequential(\n  \
  \  (0): Conv2d(256, 512, kernel_size=(1, 1), stride=(2, 2), bias=False)\n  )\n))"
: count: 10
  value: 17457.5574
? "(16, 8, PreActBlock(\n  (bn1): BatchNorm2d(280, eps=1e-05, momentum=0.1, affine=True,\
  \ track_running_stats=True)\n  (conv1): Conv2d(280, 560, kernel_size=(3, 3), stride=(2,\
  \ 2), padding=(1, 1), bias=False)\n  (bn2): BatchNorm2d(560, eps=1e-05, momentum=0.1,\
  \ affine=True, track_running_stats=True)\n  (conv2): Conv2d(560, 560, kernel_size=(3,\
  \ 3), stride=(1, 1), padding=(1, 1), bias=False)\n  (shortcut): Sequential(\n  \
  \  (0): Conv2d(280, 560, kernel_size=(1, 1), stride=(2, 2), bias=False)\n  )\n))"
: count: 10
  value: 20821.217699999997
? "(16, 8, PreActBlock(\n  (bn1): BatchNorm2d(304, eps=1e-05, momentum=0.1, affine=True,\
  \ track_running_stats=True)\n  (conv1): Conv2d(304, 616, kernel_size=(3, 3), stride=(2,\
  \ 2), padding=(1, 1), bias=False)\n  (bn2): BatchNorm2d(616, eps=1e-05, momentum=0.1,\
  \ affine=True, track_running_stats=True)\n  (conv2): Conv2d(616, 616, kernel_size=(3,\
  \ 3), stride=(1, 1), padding=(1, 1), bias=False)\n  (shortcut): Sequential(\n  \
  \  (0): Conv2d(304, 616, kernel_size=(1, 1), stride=(2, 2), bias=False)\n  )\n))"
: count: 10
  value: 25309.331400000003
? "(16, 8, PreActBlock(\n  (bn1): BatchNorm2d(336, eps=1e-05, momentum=0.1, affine=True,\
  \ track_running_stats=True)\n  (conv1): Conv2d(336, 664, kernel_size=(3, 3), stride=(2,\
  \ 2), padding=(1, 1), bias=False)\n  (bn2): BatchNorm2d(664, eps=1e-05, momentum=0.1,\
  \ affine=True, track_running_stats=True)\n  (conv2): Conv2d(664, 664, kernel_size=(3,\
  \ 3), stride=(1, 1), padding=(1, 1), bias=False)\n  (shortcut): Sequential(\n  \
  \  (0): Conv2d(336, 664, kernel_size=(1, 1), stride=(2, 2), bias=False)\n  )\n))"
: count: 10
  value: 29098.240899999997
? "(16, 8, PreActBlock(\n  (bn1): BatchNorm2d(360, eps=1e-05, momentum=0.1, affine=True,\
  \ track_running_stats=True)\n  (conv1): Conv2d(360, 720, kernel_size=(3, 3), stride=(2,\
  \ 2), padding=(1, 1), bias=False)\n  (bn2): BatchNorm2d(720, eps=1e-05, momentum=0.1,\
  \ affine=True, track_running_stats=True)\n  (conv2): Conv2d(720, 720, kernel_size=(3,\
  \ 3), stride=(1, 1), padding=(1, 1), bias=False)\n  (shortcut): Sequential(\n  \
  \  (0): Conv2d(360, 720, kernel_size=(1, 1), stride=(2, 2), bias=False)\n  )\n))"
: count: 10
  value: 34822.8848
? "(16, 8, PreActBlock(\n  (bn1): BatchNorm2d(384, eps=1e-05, momentum=0.1, affine=True,\
  \ track_running_stats=True)\n  (conv1): Conv2d(384, 768, kernel_size=(3, 3), stride=(2,\
  \ 2), padding=(1, 1), bias=False)\n  (bn2): BatchNorm2d(768, eps=1e-05, momentum=0.1,\
  \ affine=True, track_running_stats=True)\n  (conv2): Conv2d(768, 768, kernel_size=(3,\
  \ 3), stride=(1, 1), padding=(1, 1), bias=False)\n  (shortcut): Sequential(\n  \
  \  (0): Conv2d(384, 768, kernel_size=(1, 1), stride=(2, 2), bias=False)\n  )\n))"
: count: 10
  value: 38347.0326
? "(16, 8, PreActBlock(\n  (bn1): BatchNorm2d(408, eps=1e-05, momentum=0.1, affine=True,\
  \ track_running_stats=True)\n  (conv1): Conv2d(408, 816, kernel_size=(3, 3), stride=(2,\
  \ 2), padding=(1, 1), bias=False)\n  (bn2): BatchNorm2d(816, eps=1e-05, momentum=0.1,\
  \ affine=True, track_running_stats=True)\n  (conv2): Conv2d(816, 816, kernel_size=(3,\
  \ 3), stride=(1, 1), padding=(1, 1), bias=False)\n  (shortcut): Sequential(\n  \
  \  (0): Conv2d(408, 816, kernel_size=(1, 1), stride=(2, 2), bias=False)\n  )\n))"
: count: 10
  value: 42434.9473
? "(16, 8, PreActBlock(\n  (bn1): BatchNorm2d(432, eps=1e-05, momentum=0.1, affine=True,\
  \ track_running_stats=True)\n  (conv1): Conv2d(432, 872, kernel_size=(3, 3), stride=(2,\
  \ 2), padding=(1, 1), bias=False)\n  (bn2): BatchNorm2d(872, eps=1e-05, momentum=0.1,\
  \ affine=True, track_running_stats=True)\n  (conv2): Conv2d(872, 872, kernel_size=(3,\
  \ 3), stride=(1, 1), padding=(1, 1), bias=False)\n  (shortcut): Sequential(\n  \
  \  (0): Conv2d(432, 872, kernel_size=(1, 1), stride=(2, 2), bias=False)\n  )\n))"
: count: 10
  value: 48864.96220000001
? "(16, 8, PreActBlock(\n  (bn1): BatchNorm2d(464, eps=1e-05, momentum=0.1, affine=True,\
  \ track_running_stats=True)\n  (conv1): Conv2d(464, 920, kernel_size=(3, 3), stride=(2,\
  \ 2), padding=(1, 1), bias=False)\n  (bn2): BatchNorm2d(920, eps=1e-05, momentum=0.1,\
  \ affine=True, track_running_stats=True)\n  (conv2): Conv2d(920, 920, kernel_size=(3,\
  \ 3), stride=(1, 1), padding=(1, 1), bias=False)\n  (shortcut): Sequential(\n  \
  \  (0): Conv2d(464, 920, kernel_size=(1, 1), stride=(2, 2), bias=False)\n  )\n))"
: count: 10
  value: 49462.8349
? "(16, 8, PreActBlock(\n  (bn1): BatchNorm2d(488, eps=1e-05, momentum=0.1, affine=True,\
  \ track_running_stats=True)\n  (conv1): Conv2d(488, 976, kernel_size=(3, 3), stride=(2,\
  \ 2), padding=(1, 1), bias=False)\n  (bn2): BatchNorm2d(976, eps=1e-05, momentum=0.1,\
  \ affine=True, track_running_stats=True)\n  (conv2): Conv2d(976, 976, kernel_size=(3,\
  \ 3), stride=(1, 1), padding=(1, 1), bias=False)\n  (shortcut): Sequential(\n  \
  \  (0): Conv2d(488, 976, kernel_size=(1, 1), stride=(2, 2), bias=False)\n  )\n))"
: count: 10
  value: 55861.132
? "(16, 8, PreActBlock(\n  (bn1): BatchNorm2d(512, eps=1e-05, momentum=0.1, affine=True,\
  \ track_running_stats=True)\n  (conv1): Conv2d(512, 1024, kernel_size=(3, 3), stride=(2,\
  \ 2), padding=(1, 1), bias=False)\n  (bn2): BatchNorm2d(1024, eps=1e-05, momentum=0.1,\
  \ affine=True, track_running_stats=True)\n  (conv2): Conv2d(1024, 1024, kernel_size=(3,\
  \ 3), stride=(1, 1), padding=(1, 1), bias=False)\n  (shortcut): Sequential(\n  \
  \  (0): Conv2d(512, 1024, kernel_size=(1, 1), stride=(2, 2), bias=False)\n  )\n\
  ))"
: count: 10
  value: 62190.017700000004
? "(16, 8, PreActBlock(\n  (bn1): BatchNorm2d(536, eps=1e-05, momentum=0.1, affine=True,\
  \ track_running_stats=True)\n  (conv1): Conv2d(536, 1072, kernel_size=(3, 3), stride=(2,\
  \ 2), padding=(1, 1), bias=False)\n  (bn2): BatchNorm2d(1072, eps=1e-05, momentum=0.1,\
  \ affine=True, track_running_stats=True)\n  (conv2): Conv2d(1072, 1072, kernel_size=(3,\
  \ 3), stride=(1, 1), padding=(1, 1), bias=False)\n  (shortcut): Sequential(\n  \
  \  (0): Conv2d(536, 1072, kernel_size=(1, 1), stride=(2, 2), bias=False)\n  )\n\
  ))"
: count: 10
  value: 69510.8722
? "(16, 8, PreActBlock(\n  (bn1): BatchNorm2d(560, eps=1e-05, momentum=0.1, affine=True,\
  \ track_running_stats=True)\n  (conv1): Conv2d(560, 1128, kernel_size=(3, 3), stride=(2,\
  \ 2), padding=(1, 1), bias=False)\n  (bn2): BatchNorm2d(1128, eps=1e-05, momentum=0.1,\
  \ affine=True, track_running_stats=True)\n  (conv2): Conv2d(1128, 1128, kernel_size=(3,\
  \ 3), stride=(1, 1), padding=(1, 1), bias=False)\n  (shortcut): Sequential(\n  \
  \  (0): Conv2d(560, 1128, kernel_size=(1, 1), stride=(2, 2), bias=False)\n  )\n\
  ))"
: count: 10
  value: 77058.13680000001
? "(16, 8, PreActBlock(\n  (bn1): BatchNorm2d(592, eps=1e-05, momentum=0.1, affine=True,\
  \ track_running_stats=True)\n  (conv1): Conv2d(592, 1176, kernel_size=(3, 3), stride=(2,\
  \ 2), padding=(1, 1), bias=False)\n  (bn2): BatchNorm2d(1176, eps=1e-05, momentum=0.1,\
  \ affine=True, track_running_stats=True)\n  (conv2): Conv2d(1176, 1176, kernel_size=(3,\
  \ 3), stride=(1, 1), padding=(1, 1), bias=False)\n  (shortcut): Sequential(\n  \
  \  (0): Conv2d(592, 1176, kernel_size=(1, 1), stride=(2, 2), bias=False)\n  )\n\
  ))"
: count: 10
  value: 82124.06739999999
? "(16, 8, PreActBlock(\n  (bn1): BatchNorm2d(616, eps=1e-05, momentum=0.1, affine=True,\
  \ track_running_stats=True)\n  (conv1): Conv2d(616, 1232, kernel_size=(3, 3), stride=(2,\
  \ 2), padding=(1, 1), bias=False)\n  (bn2): BatchNorm2d(1232, eps=1e-05, momentum=0.1,\
  \ affine=True, track_running_stats=True)\n  (conv2): Conv2d(1232, 1232, kernel_size=(3,\
  \ 3), stride=(1, 1), padding=(1, 1), bias=False)\n  (shortcut): Sequential(\n  \
  \  (0): Conv2d(616, 1232, kernel_size=(1, 1), stride=(2, 2), bias=False)\n  )\n\
  ))"
: count: 10
  value: 87465.5152
? "(16, 8, PreActBlock(\n  (bn1): BatchNorm2d(640, eps=1e-05, momentum=0.1, affine=True,\
  \ track_running_stats=True)\n  (conv1): Conv2d(640, 1280, kernel_size=(3, 3), stride=(2,\
  \ 2), padding=(1, 1), bias=False)\n  (bn2): BatchNorm2d(1280, eps=1e-05, momentum=0.1,\
  \ affine=True, track_running_stats=True)\n  (conv2): Conv2d(1280, 1280, kernel_size=(3,\
  \ 3), stride=(1, 1), padding=(1, 1), bias=False)\n  (shortcut): Sequential(\n  \
  \  (0): Conv2d(640, 1280, kernel_size=(1, 1), stride=(2, 2), bias=False)\n  )\n\
  ))"
: count: 10
  value: 97382.6507
? "(16, 8, PreActBlock(\n  (bn1): BatchNorm2d(664, eps=1e-05, momentum=0.1, affine=True,\
  \ track_running_stats=True)\n  (conv1): Conv2d(664, 1328, kernel_size=(3, 3), stride=(2,\
  \ 2), padding=(1, 1), bias=False)\n  (bn2): BatchNorm2d(1328, eps=1e-05, momentum=0.1,\
  \ affine=True, track_running_stats=True)\n  (conv2): Conv2d(1328, 1328, kernel_size=(3,\
  \ 3), stride=(1, 1), padding=(1, 1), bias=False)\n  (shortcut): Sequential(\n  \
  \  (0): Conv2d(664, 1328, kernel_size=(1, 1), stride=(2, 2), bias=False)\n  )\n\
  ))"
: count: 10
  value: 102201.37269999999
? "(16, 8, PreActBlock(\n  (bn1): BatchNorm2d(688, eps=1e-05, momentum=0.1, affine=True,\
  \ track_running_stats=True)\n  (conv1): Conv2d(688, 1384, kernel_size=(3, 3), stride=(2,\
  \ 2), padding=(1, 1), bias=False)\n  (bn2): BatchNorm2d(1384, eps=1e-05, momentum=0.1,\
  \ affine=True, track_running_stats=True)\n  (conv2): Conv2d(1384, 1384, kernel_size=(3,\
  \ 3), stride=(1, 1), padding=(1, 1), bias=False)\n  (shortcut): Sequential(\n  \
  \  (0): Conv2d(688, 1384, kernel_size=(1, 1), stride=(2, 2), bias=False)\n  )\n\
  ))"
: count: 10
  value: 114618.65239999999
? "(16, 8, PreActBlock(\n  (bn1): BatchNorm2d(720, eps=1e-05, momentum=0.1, affine=True,\
  \ track_running_stats=True)\n  (conv1): Conv2d(720, 1432, kernel_size=(3, 3), stride=(2,\
  \ 2), padding=(1, 1), bias=False)\n  (bn2): BatchNorm2d(1432, eps=1e-05, momentum=0.1,\
  \ affine=True, track_running_stats=True)\n  (conv2): Conv2d(1432, 1432, kernel_size=(3,\
  \ 3), stride=(1, 1), padding=(1, 1), bias=False)\n  (shortcut): Sequential(\n  \
  \  (0): Conv2d(720, 1432, kernel_size=(1, 1), stride=(2, 2), bias=False)\n  )\n\
  ))"
: count: 10
  value: 119438.656
? "(16, 8, PreActBlock(\n  (bn1): BatchNorm2d(744, eps=1e-05, momentum=0.1, affine=True,\
  \ track_running_stats=True)\n  (conv1): Conv2d(744, 1488, kernel_size=(3, 3), stride=(2,\
  \ 2), padding=(1, 1), bias=False)\n  (bn2): BatchNorm2d(1488, eps=1e-05, momentum=0.1,\
  \ affine=True, track_running_stats=True)\n  (conv2): Conv2d(1488, 1488, kernel_size=(3,\
  \ 3), stride=(1, 1), padding=(1, 1), bias=False)\n  (shortcut): Sequential(\n  \
  \  (0): Conv2d(744, 1488, kernel_size=(1, 1), stride=(2, 2), bias=False)\n  )\n\
  ))"
: count: 10
  value: 131686.6251
? "(16, 8, PreActBlock(\n  (bn1): BatchNorm2d(768, eps=1e-05, momentum=0.1, affine=True,\
  \ track_running_stats=True)\n  (conv1): Conv2d(768, 1536, kernel_size=(3, 3), stride=(2,\
  \ 2), padding=(1, 1), bias=False)\n  (bn2): BatchNorm2d(1536, eps=1e-05, momentum=0.1,\
  \ affine=True, track_running_stats=True)\n  (conv2): Conv2d(1536, 1536, kernel_size=(3,\
  \ 3), stride=(1, 1), padding=(1, 1), bias=False)\n  (shortcut): Sequential(\n  \
  \  (0): Conv2d(768, 1536, kernel_size=(1, 1), stride=(2, 2), bias=False)\n  )\n\
  ))"
: count: 10
  value: 136943.4702
? "(16, 8, PreActBlock(\n  (bn1): BatchNorm2d(792, eps=1e-05, momentum=0.1, affine=True,\
  \ track_running_stats=True)\n  (conv1): Conv2d(792, 1584, kernel_size=(3, 3), stride=(2,\
  \ 2), padding=(1, 1), bias=False)\n  (bn2): BatchNorm2d(1584, eps=1e-05, momentum=0.1,\
  \ affine=True, track_running_stats=True)\n  (conv2): Conv2d(1584, 1584, kernel_size=(3,\
  \ 3), stride=(1, 1), padding=(1, 1), bias=False)\n  (shortcut): Sequential(\n  \
  \  (0): Conv2d(792, 1584, kernel_size=(1, 1), stride=(2, 2), bias=False)\n  )\n\
  ))"
: count: 10
  value: 142979.62660000002
? "(16, 8, PreActBlock(\n  (bn1): BatchNorm2d(816, eps=1e-05, momentum=0.1, affine=True,\
  \ track_running_stats=True)\n  (conv1): Conv2d(816, 1640, kernel_size=(3, 3), stride=(2,\
  \ 2), padding=(1, 1), bias=False)\n  (bn2): BatchNorm2d(1640, eps=1e-05, momentum=0.1,\
  \ affine=True, track_running_stats=True)\n  (conv2): Conv2d(1640, 1640, kernel_size=(3,\
  \ 3), stride=(1, 1), padding=(1, 1), bias=False)\n  (shortcut): Sequential(\n  \
  \  (0): Conv2d(816, 1640, kernel_size=(1, 1), stride=(2, 2), bias=False)\n  )\n\
  ))"
: count: 10
  value: 152793.27180000002
? "(16, 8, PreActBlock(\n  (bn1): BatchNorm2d(848, eps=1e-05, momentum=0.1, affine=True,\
  \ track_running_stats=True)\n  (conv1): Conv2d(848, 1688, kernel_size=(3, 3), stride=(2,\
  \ 2), padding=(1, 1), bias=False)\n  (bn2): BatchNorm2d(1688, eps=1e-05, momentum=0.1,\
  \ affine=True, track_running_stats=True)\n  (conv2): Conv2d(1688, 1688, kernel_size=(3,\
  \ 3), stride=(1, 1), padding=(1, 1), bias=False)\n  (shortcut): Sequential(\n  \
  \  (0): Conv2d(848, 1688, kernel_size=(1, 1), stride=(2, 2), bias=False)\n  )\n\
  ))"
: count: 10
  value: 161949.08930000002
? "(16, 8, PreActBlock(\n  (bn1): BatchNorm2d(872, eps=1e-05, momentum=0.1, affine=True,\
  \ track_running_stats=True)\n  (conv1): Conv2d(872, 1744, kernel_size=(3, 3), stride=(2,\
  \ 2), padding=(1, 1), bias=False)\n  (bn2): BatchNorm2d(1744, eps=1e-05, momentum=0.1,\
  \ affine=True, track_running_stats=True)\n  (conv2): Conv2d(1744, 1744, kernel_size=(3,\
  \ 3), stride=(1, 1), padding=(1, 1), bias=False)\n  (shortcut): Sequential(\n  \
  \  (0): Conv2d(872, 1744, kernel_size=(1, 1), stride=(2, 2), bias=False)\n  )\n\
  ))"
: count: 10
  value: 171603.53379999998
? "(16, 8, PreActBlock(\n  (bn1): BatchNorm2d(896, eps=1e-05, momentum=0.1, affine=True,\
  \ track_running_stats=True)\n  (conv1): Conv2d(896, 1792, kernel_size=(3, 3), stride=(2,\
  \ 2), padding=(1, 1), bias=False)\n  (bn2): BatchNorm2d(1792, eps=1e-05, momentum=0.1,\
  \ affine=True, track_running_stats=True)\n  (conv2): Conv2d(1792, 1792, kernel_size=(3,\
  \ 3), stride=(1, 1), padding=(1, 1), bias=False)\n  (shortcut): Sequential(\n  \
  \  (0): Conv2d(896, 1792, kernel_size=(1, 1), stride=(2, 2), bias=False)\n  )\n\
  ))"
: count: 10
  value: 182619.67209999997
? "(16, 8, PreActBlock(\n  (bn1): BatchNorm2d(920, eps=1e-05, momentum=0.1, affine=True,\
  \ track_running_stats=True)\n  (conv1): Conv2d(920, 1840, kernel_size=(3, 3), stride=(2,\
  \ 2), padding=(1, 1), bias=False)\n  (bn2): BatchNorm2d(1840, eps=1e-05, momentum=0.1,\
  \ affine=True, track_running_stats=True)\n  (conv2): Conv2d(1840, 1840, kernel_size=(3,\
  \ 3), stride=(1, 1), padding=(1, 1), bias=False)\n  (shortcut): Sequential(\n  \
  \  (0): Conv2d(920, 1840, kernel_size=(1, 1), stride=(2, 2), bias=False)\n  )\n\
  ))"
: count: 10
  value: 190881.26160000003
? "(16, 8, PreActBlock(\n  (bn1): BatchNorm2d(944, eps=1e-05, momentum=0.1, affine=True,\
  \ track_running_stats=True)\n  (conv1): Conv2d(944, 1896, kernel_size=(3, 3), stride=(2,\
  \ 2), padding=(1, 1), bias=False)\n  (bn2): BatchNorm2d(1896, eps=1e-05, momentum=0.1,\
  \ affine=True, track_running_stats=True)\n  (conv2): Conv2d(1896, 1896, kernel_size=(3,\
  \ 3), stride=(1, 1), padding=(1, 1), bias=False)\n  (shortcut): Sequential(\n  \
  \  (0): Conv2d(944, 1896, kernel_size=(1, 1), stride=(2, 2), bias=False)\n  )\n\
  ))"
: count: 10
  value: 203929.80399999997
? "(16, 8, PreActBlock(\n  (bn1): BatchNorm2d(976, eps=1e-05, momentum=0.1, affine=True,\
  \ track_running_stats=True)\n  (conv1): Conv2d(976, 1944, kernel_size=(3, 3), stride=(2,\
  \ 2), padding=(1, 1), bias=False)\n  (bn2): BatchNorm2d(1944, eps=1e-05, momentum=0.1,\
  \ affine=True, track_running_stats=True)\n  (conv2): Conv2d(1944, 1944, kernel_size=(3,\
  \ 3), stride=(1, 1), padding=(1, 1), bias=False)\n  (shortcut): Sequential(\n  \
  \  (0): Conv2d(976, 1944, kernel_size=(1, 1), stride=(2, 2), bias=False)\n  )\n\
  ))"
: count: 10
  value: 211842.66150000002
? "(32, 16, PreActBlock(\n  (bn1): BatchNorm2d(128, eps=1e-05, momentum=0.1, affine=True,\
  \ track_running_stats=True)\n  (conv1): Conv2d(128, 256, kernel_size=(3, 3), stride=(2,\
  \ 2), padding=(1, 1), bias=False)\n  (bn2): BatchNorm2d(256, eps=1e-05, momentum=0.1,\
  \ affine=True, track_running_stats=True)\n  (conv2): Conv2d(256, 256, kernel_size=(3,\
  \ 3), stride=(1, 1), padding=(1, 1), bias=False)\n  (shortcut): Sequential(\n  \
  \  (0): Conv2d(128, 256, kernel_size=(1, 1), stride=(2, 2), bias=False)\n  )\n))"
: count: 10
  value: 9738.9984
? "(32, 16, PreActBlock(\n  (bn1): BatchNorm2d(144, eps=1e-05, momentum=0.1, affine=True,\
  \ track_running_stats=True)\n  (conv1): Conv2d(144, 280, kernel_size=(3, 3), stride=(2,\
  \ 2), padding=(1, 1), bias=False)\n  (bn2): BatchNorm2d(280, eps=1e-05, momentum=0.1,\
  \ affine=True, track_running_stats=True)\n  (conv2): Conv2d(280, 280, kernel_size=(3,\
  \ 3), stride=(1, 1), padding=(1, 1), bias=False)\n  (shortcut): Sequential(\n  \
  \  (0): Conv2d(144, 280, kernel_size=(1, 1), stride=(2, 2), bias=False)\n  )\n))"
: count: 10
  value: 11537.6133
? "(32, 16, PreActBlock(\n  (bn1): BatchNorm2d(152, eps=1e-05, momentum=0.1, affine=True,\
  \ track_running_stats=True)\n  (conv1): Conv2d(152, 304, kernel_size=(3, 3), stride=(2,\
  \ 2), padding=(1, 1), bias=False)\n  (bn2): BatchNorm2d(304, eps=1e-05, momentum=0.1,\
  \ affine=True, track_running_stats=True)\n  (conv2): Conv2d(304, 304, kernel_size=(3,\
  \ 3), stride=(1, 1), padding=(1, 1), bias=False)\n  (shortcut): Sequential(\n  \
  \  (0): Conv2d(152, 304, kernel_size=(1, 1), stride=(2, 2), bias=False)\n  )\n))"
: count: 10
  value: 13994.104800000001
? "(32, 16, PreActBlock(\n  (bn1): BatchNorm2d(168, eps=1e-05, momentum=0.1, affine=True,\
  \ track_running_stats=True)\n  (conv1): Conv2d(168, 336, kernel_size=(3, 3), stride=(2,\
  \ 2), padding=(1, 1), bias=False)\n  (bn2): BatchNorm2d(336, eps=1e-05, momentum=0.1,\
  \ affine=True, track_running_stats=True)\n  (conv2): Conv2d(336, 336, kernel_size=(3,\
  \ 3), stride=(1, 1), padding=(1, 1), bias=False)\n  (shortcut): Sequential(\n  \
  \  (0): Conv2d(168, 336, kernel_size=(1, 1), stride=(2, 2), bias=False)\n  )\n))"
: count: 10
  value: 17055.831100000003
? "(32, 16, PreActBlock(\n  (bn1): BatchNorm2d(176, eps=1e-05, momentum=0.1, affine=True,\
  \ track_running_stats=True)\n  (conv1): Conv2d(176, 360, kernel_size=(3, 3), stride=(2,\
  \ 2), padding=(1, 1), bias=False)\n  (bn2): BatchNorm2d(360, eps=1e-05, momentum=0.1,\
  \ affine=True, track_running_stats=True)\n  (conv2): Conv2d(360, 360, kernel_size=(3,\
  \ 3), stride=(1, 1), padding=(1, 1), bias=False)\n  (shortcut): Sequential(\n  \
  \  (0): Conv2d(176, 360, kernel_size=(1, 1), stride=(2, 2), bias=False)\n  )\n))"
: count: 10
  value: 19567.8373
? "(32, 16, PreActBlock(\n  (bn1): BatchNorm2d(192, eps=1e-05, momentum=0.1, affine=True,\
  \ track_running_stats=True)\n  (conv1): Conv2d(192, 384, kernel_size=(3, 3), stride=(2,\
  \ 2), padding=(1, 1), bias=False)\n  (bn2): BatchNorm2d(384, eps=1e-05, momentum=0.1,\
  \ affine=True, track_running_stats=True)\n  (conv2): Conv2d(384, 384, kernel_size=(3,\
  \ 3), stride=(1, 1), padding=(1, 1), bias=False)\n  (shortcut): Sequential(\n  \
  \  (0): Conv2d(192, 384, kernel_size=(1, 1), stride=(2, 2), bias=False)\n  )\n))"
: count: 10
  value: 20475.269200000006
? "(32, 16, PreActBlock(\n  (bn1): BatchNorm2d(208, eps=1e-05, momentum=0.1, affine=True,\
  \ track_running_stats=True)\n  (conv1): Conv2d(208, 408, kernel_size=(3, 3), stride=(2,\
  \ 2), padding=(1, 1), bias=False)\n  (bn2): BatchNorm2d(408, eps=1e-05, momentum=0.1,\
  \ affine=True, track_running_stats=True)\n  (conv2): Conv2d(408, 408, kernel_size=(3,\
  \ 3), stride=(1, 1), padding=(1, 1), bias=False)\n  (shortcut): Sequential(\n  \
  \  (0): Conv2d(208, 408, kernel_size=(1, 1), stride=(2, 2), bias=False)\n  )\n))"
: count: 10
  value: 23053.4336
? "(32, 16, PreActBlock(\n  (bn1): BatchNorm2d(216, eps=1e-05, momentum=0.1, affine=True,\
  \ track_running_stats=True)\n  (conv1): Conv2d(216, 432, kernel_size=(3, 3), stride=(2,\
  \ 2), padding=(1, 1), bias=False)\n  (bn2): BatchNorm2d(432, eps=1e-05, momentum=0.1,\
  \ affine=True, track_running_stats=True)\n  (conv2): Conv2d(432, 432, kernel_size=(3,\
  \ 3), stride=(1, 1), padding=(1, 1), bias=False)\n  (shortcut): Sequential(\n  \
  \  (0): Conv2d(216, 432, kernel_size=(1, 1), stride=(2, 2), bias=False)\n  )\n))"
: count: 10
  value: 25758.2438
? "(32, 16, PreActBlock(\n  (bn1): BatchNorm2d(232, eps=1e-05, momentum=0.1, affine=True,\
  \ track_running_stats=True)\n  (conv1): Conv2d(232, 464, kernel_size=(3, 3), stride=(2,\
  \ 2), padding=(1, 1), bias=False)\n  (bn2): BatchNorm2d(464, eps=1e-05, momentum=0.1,\
  \ affine=True, track_running_stats=True)\n  (conv2): Conv2d(464, 464, kernel_size=(3,\
  \ 3), stride=(1, 1), padding=(1, 1), bias=False)\n  (shortcut): Sequential(\n  \
  \  (0): Conv2d(232, 464, kernel_size=(1, 1), stride=(2, 2), bias=False)\n  )\n))"
: count: 10
  value: 30836.394399999997
? "(32, 16, PreActBlock(\n  (bn1): BatchNorm2d(240, eps=1e-05, momentum=0.1, affine=True,\
  \ track_running_stats=True)\n  (conv1): Conv2d(240, 488, kernel_size=(3, 3), stride=(2,\
  \ 2), padding=(1, 1), bias=False)\n  (bn2): BatchNorm2d(488, eps=1e-05, momentum=0.1,\
  \ affine=True, track_running_stats=True)\n  (conv2): Conv2d(488, 488, kernel_size=(3,\
  \ 3), stride=(1, 1), padding=(1, 1), bias=False)\n  (shortcut): Sequential(\n  \
  \  (0): Conv2d(240, 488, kernel_size=(1, 1), stride=(2, 2), bias=False)\n  )\n))"
: count: 10
  value: 31814.4228
? "(32, 16, PreActBlock(\n  (bn1): BatchNorm2d(256, eps=1e-05, momentum=0.1, affine=True,\
  \ track_running_stats=True)\n  (conv1): Conv2d(256, 512, kernel_size=(3, 3), stride=(2,\
  \ 2), padding=(1, 1), bias=False)\n  (bn2): BatchNorm2d(512, eps=1e-05, momentum=0.1,\
  \ affine=True, track_running_stats=True)\n  (conv2): Conv2d(512, 512, kernel_size=(3,\
  \ 3), stride=(1, 1), padding=(1, 1), bias=False)\n  (shortcut): Sequential(\n  \
  \  (0): Conv2d(256, 512, kernel_size=(1, 1), stride=(2, 2), bias=False)\n  )\n))"
: count: 10
  value: 33796.9967
? "(32, 16, PreActBlock(\n  (bn1): BatchNorm2d(272, eps=1e-05, momentum=0.1, affine=True,\
  \ track_running_stats=True)\n  (conv1): Conv2d(272, 536, kernel_size=(3, 3), stride=(2,\
  \ 2), padding=(1, 1), bias=False)\n  (bn2): BatchNorm2d(536, eps=1e-05, momentum=0.1,\
  \ affine=True, track_running_stats=True)\n  (conv2): Conv2d(536, 536, kernel_size=(3,\
  \ 3), stride=(1, 1), padding=(1, 1), bias=False)\n  (shortcut): Sequential(\n  \
  \  (0): Conv2d(272, 536, kernel_size=(1, 1), stride=(2, 2), bias=False)\n  )\n))"
: count: 10
  value: 37872.88619999999
? "(32, 16, PreActBlock(\n  (bn1): BatchNorm2d(280, eps=1e-05, momentum=0.1, affine=True,\
  \ track_running_stats=True)\n  (conv1): Conv2d(280, 560, kernel_size=(3, 3), stride=(2,\
  \ 2), padding=(1, 1), bias=False)\n  (bn2): BatchNorm2d(560, eps=1e-05, momentum=0.1,\
  \ affine=True, track_running_stats=True)\n  (conv2): Conv2d(560, 560, kernel_size=(3,\
  \ 3), stride=(1, 1), padding=(1, 1), bias=False)\n  (shortcut): Sequential(\n  \
  \  (0): Conv2d(280, 560, kernel_size=(1, 1), stride=(2, 2), bias=False)\n  )\n))"
: count: 10
  value: 41180.997
? "(32, 16, PreActBlock(\n  (bn1): BatchNorm2d(296, eps=1e-05, momentum=0.1, affine=True,\
  \ track_running_stats=True)\n  (conv1): Conv2d(296, 592, kernel_size=(3, 3), stride=(2,\
  \ 2), padding=(1, 1), bias=False)\n  (bn2): BatchNorm2d(592, eps=1e-05, momentum=0.1,\
  \ affine=True, track_running_stats=True)\n  (conv2): Conv2d(592, 592, kernel_size=(3,\
  \ 3), stride=(1, 1), padding=(1, 1), bias=False)\n  (shortcut): Sequential(\n  \
  \  (0): Conv2d(296, 592, kernel_size=(1, 1), stride=(2, 2), bias=False)\n  )\n))"
: count: 10
  value: 44409.167700000005
? "(32, 16, PreActBlock(\n  (bn1): BatchNorm2d(304, eps=1e-05, momentum=0.1, affine=True,\
  \ track_running_stats=True)\n  (conv1): Conv2d(304, 616, kernel_size=(3, 3), stride=(2,\
  \ 2), padding=(1, 1), bias=False)\n  (bn2): BatchNorm2d(616, eps=1e-05, momentum=0.1,\
  \ affine=True, track_running_stats=True)\n  (conv2): Conv2d(616, 616, kernel_size=(3,\
  \ 3), stride=(1, 1), padding=(1, 1), bias=False)\n  (shortcut): Sequential(\n  \
  \  (0): Conv2d(304, 616, kernel_size=(1, 1), stride=(2, 2), bias=False)\n  )\n))"
: count: 10
  value: 47379.43659999999
? "(32, 16, PreActBlock(\n  (bn1): BatchNorm2d(320, eps=1e-05, momentum=0.1, affine=True,\
  \ track_running_stats=True)\n  (conv1): Conv2d(320, 640, kernel_size=(3, 3), stride=(2,\
  \ 2), padding=(1, 1), bias=False)\n  (bn2): BatchNorm2d(640, eps=1e-05, momentum=0.1,\
  \ affine=True, track_running_stats=True)\n  (conv2): Conv2d(640, 640, kernel_size=(3,\
  \ 3), stride=(1, 1), padding=(1, 1), bias=False)\n  (shortcut): Sequential(\n  \
  \  (0): Conv2d(320, 640, kernel_size=(1, 1), stride=(2, 2), bias=False)\n  )\n))"
: count: 10
  value: 50399.42349999999
? "(32, 16, PreActBlock(\n  (bn1): BatchNorm2d(336, eps=1e-05, momentum=0.1, affine=True,\
  \ track_running_stats=True)\n  (conv1): Conv2d(336, 664, kernel_size=(3, 3), stride=(2,\
  \ 2), padding=(1, 1), bias=False)\n  (bn2): BatchNorm2d(664, eps=1e-05, momentum=0.1,\
  \ affine=True, track_running_stats=True)\n  (conv2): Conv2d(664, 664, kernel_size=(3,\
  \ 3), stride=(1, 1), padding=(1, 1), bias=False)\n  (shortcut): Sequential(\n  \
  \  (0): Conv2d(336, 664, kernel_size=(1, 1), stride=(2, 2), bias=False)\n  )\n))"
: count: 10
  value: 54747.3723
? "(32, 16, PreActBlock(\n  (bn1): BatchNorm2d(344, eps=1e-05, momentum=0.1, affine=True,\
  \ track_running_stats=True)\n  (conv1): Conv2d(344, 688, kernel_size=(3, 3), stride=(2,\
  \ 2), padding=(1, 1), bias=False)\n  (bn2): BatchNorm2d(688, eps=1e-05, momentum=0.1,\
  \ affine=True, track_running_stats=True)\n  (conv2): Conv2d(688, 688, kernel_size=(3,\
  \ 3), stride=(1, 1), padding=(1, 1), bias=False)\n  (shortcut): Sequential(\n  \
  \  (0): Conv2d(344, 688, kernel_size=(1, 1), stride=(2, 2), bias=False)\n  )\n))"
: count: 10
  value: 60971.65989999999
? "(32, 16, PreActBlock(\n  (bn1): BatchNorm2d(360, eps=1e-05, momentum=0.1, affine=True,\
  \ track_running_stats=True)\n  (conv1): Conv2d(360, 720, kernel_size=(3, 3), stride=(2,\
  \ 2), padding=(1, 1), bias=False)\n  (bn2): BatchNorm2d(720, eps=1e-05, momentum=0.1,\
  \ affine=True, track_running_stats=True)\n  (conv2): Conv2d(720, 720, kernel_size=(3,\
  \ 3), stride=(1, 1), padding=(1, 1), bias=False)\n  (shortcut): Sequential(\n  \
  \  (0): Conv2d(360, 720, kernel_size=(1, 1), stride=(2, 2), bias=False)\n  )\n))"
: count: 10
  value: 67682.9167
? "(32, 16, PreActBlock(\n  (bn1): BatchNorm2d(368, eps=1e-05, momentum=0.1, affine=True,\
  \ track_running_stats=True)\n  (conv1): Conv2d(368, 744, kernel_size=(3, 3), stride=(2,\
  \ 2), padding=(1, 1), bias=False)\n  (bn2): BatchNorm2d(744, eps=1e-05, momentum=0.1,\
  \ affine=True, track_running_stats=True)\n  (conv2): Conv2d(744, 744, kernel_size=(3,\
  \ 3), stride=(1, 1), padding=(1, 1), bias=False)\n  (shortcut): Sequential(\n  \
  \  (0): Conv2d(368, 744, kernel_size=(1, 1), stride=(2, 2), bias=False)\n  )\n))"
: count: 10
  value: 68252.6899
? "(32, 16, PreActBlock(\n  (bn1): BatchNorm2d(384, eps=1e-05, momentum=0.1, affine=True,\
  \ track_running_stats=True)\n  (conv1): Conv2d(384, 768, kernel_size=(3, 3), stride=(2,\
  \ 2), padding=(1, 1), bias=False)\n  (bn2): BatchNorm2d(768, eps=1e-05, momentum=0.1,\
  \ affine=True, track_running_stats=True)\n  (conv2): Conv2d(768, 768, kernel_size=(3,\
  \ 3), stride=(1, 1), padding=(1, 1), bias=False)\n  (shortcut): Sequential(\n  \
  \  (0): Conv2d(384, 768, kernel_size=(1, 1), stride=(2, 2), bias=False)\n  )\n))"
: count: 10
  value: 71130.2141
? "(32, 16, PreActBlock(\n  (bn1): BatchNorm2d(400, eps=1e-05, momentum=0.1, affine=True,\
  \ track_running_stats=True)\n  (conv1): Conv2d(400, 792, kernel_size=(3, 3), stride=(2,\
  \ 2), padding=(1, 1), bias=False)\n  (bn2): BatchNorm2d(792, eps=1e-05, momentum=0.1,\
  \ affine=True, track_running_stats=True)\n  (conv2): Conv2d(792, 792, kernel_size=(3,\
  \ 3), stride=(1, 1), padding=(1, 1), bias=False)\n  (shortcut): Sequential(\n  \
  \  (0): Conv2d(400, 792, kernel_size=(1, 1), stride=(2, 2), bias=False)\n  )\n))"
: count: 10
  value: 75808.7801
? "(32, 16, PreActBlock(\n  (bn1): BatchNorm2d(408, eps=1e-05, momentum=0.1, affine=True,\
  \ track_running_stats=True)\n  (conv1): Conv2d(408, 816, kernel_size=(3, 3), stride=(2,\
  \ 2), padding=(1, 1), bias=False)\n  (bn2): BatchNorm2d(816, eps=1e-05, momentum=0.1,\
  \ affine=True, track_running_stats=True)\n  (conv2): Conv2d(816, 816, kernel_size=(3,\
  \ 3), stride=(1, 1), padding=(1, 1), bias=False)\n  (shortcut): Sequential(\n  \
  \  (0): Conv2d(408, 816, kernel_size=(1, 1), stride=(2, 2), bias=False)\n  )\n))"
: count: 10
  value: 81841.50429999999
? "(32, 16, PreActBlock(\n  (bn1): BatchNorm2d(424, eps=1e-05, momentum=0.1, affine=True,\
  \ track_running_stats=True)\n  (conv1): Conv2d(424, 848, kernel_size=(3, 3), stride=(2,\
  \ 2), padding=(1, 1), bias=False)\n  (bn2): BatchNorm2d(848, eps=1e-05, momentum=0.1,\
  \ affine=True, track_running_stats=True)\n  (conv2): Conv2d(848, 848, kernel_size=(3,\
  \ 3), stride=(1, 1), padding=(1, 1), bias=False)\n  (shortcut): Sequential(\n  \
  \  (0): Conv2d(424, 848, kernel_size=(1, 1), stride=(2, 2), bias=False)\n  )\n))"
: count: 10
  value: 88150.47839999999
? "(32, 16, PreActBlock(\n  (bn1): BatchNorm2d(432, eps=1e-05, momentum=0.1, affine=True,\
  \ track_running_stats=True)\n  (conv1): Conv2d(432, 872, kernel_size=(3, 3), stride=(2,\
  \ 2), padding=(1, 1), bias=False)\n  (bn2): BatchNorm2d(872, eps=1e-05, momentum=0.1,\
  \ affine=True, track_running_stats=True)\n  (conv2): Conv2d(872, 872, kernel_size=(3,\
  \ 3), stride=(1, 1), padding=(1, 1), bias=False)\n  (shortcut): Sequential(\n  \
  \  (0): Conv2d(432, 872, kernel_size=(1, 1), stride=(2, 2), bias=False)\n  )\n))"
: count: 10
  value: 93647.01600000002
? "(32, 16, PreActBlock(\n  (bn1): BatchNorm2d(448, eps=1e-05, momentum=0.1, affine=True,\
  \ track_running_stats=True)\n  (conv1): Conv2d(448, 896, kernel_size=(3, 3), stride=(2,\
  \ 2), padding=(1, 1), bias=False)\n  (bn2): BatchNorm2d(896, eps=1e-05, momentum=0.1,\
  \ affine=True, track_running_stats=True)\n  (conv2): Conv2d(896, 896, kernel_size=(3,\
  \ 3), stride=(1, 1), padding=(1, 1), bias=False)\n  (shortcut): Sequential(\n  \
  \  (0): Conv2d(448, 896, kernel_size=(1, 1), stride=(2, 2), bias=False)\n  )\n))"
: count: 10
  value: 95344.9768
? "(32, 16, PreActBlock(\n  (bn1): BatchNorm2d(464, eps=1e-05, momentum=0.1, affine=True,\
  \ track_running_stats=True)\n  (conv1): Conv2d(464, 920, kernel_size=(3, 3), stride=(2,\
  \ 2), padding=(1, 1), bias=False)\n  (bn2): BatchNorm2d(920, eps=1e-05, momentum=0.1,\
  \ affine=True, track_running_stats=True)\n  (conv2): Conv2d(920, 920, kernel_size=(3,\
  \ 3), stride=(1, 1), padding=(1, 1), bias=False)\n  (shortcut): Sequential(\n  \
  \  (0): Conv2d(464, 920, kernel_size=(1, 1), stride=(2, 2), bias=False)\n  )\n))"
: count: 10
  value: 104432.1527
? "(32, 16, PreActBlock(\n  (bn1): BatchNorm2d(472, eps=1e-05, momentum=0.1, affine=True,\
  \ track_running_stats=True)\n  (conv1): Conv2d(472, 944, kernel_size=(3, 3), stride=(2,\
  \ 2), padding=(1, 1), bias=False)\n  (bn2): BatchNorm2d(944, eps=1e-05, momentum=0.1,\
  \ affine=True, track_running_stats=True)\n  (conv2): Conv2d(944, 944, kernel_size=(3,\
  \ 3), stride=(1, 1), padding=(1, 1), bias=False)\n  (shortcut): Sequential(\n  \
  \  (0): Conv2d(472, 944, kernel_size=(1, 1), stride=(2, 2), bias=False)\n  )\n))"
: count: 10
  value: 105463.0537
? "(32, 16, PreActBlock(\n  (bn1): BatchNorm2d(488, eps=1e-05, momentum=0.1, affine=True,\
  \ track_running_stats=True)\n  (conv1): Conv2d(488, 976, kernel_size=(3, 3), stride=(2,\
  \ 2), padding=(1, 1), bias=False)\n  (bn2): BatchNorm2d(976, eps=1e-05, momentum=0.1,\
  \ affine=True, track_running_stats=True)\n  (conv2): Conv2d(976, 976, kernel_size=(3,\
  \ 3), stride=(1, 1), padding=(1, 1), bias=False)\n  (shortcut): Sequential(\n  \
  \  (0): Conv2d(488, 976, kernel_size=(1, 1), stride=(2, 2), bias=False)\n  )\n))"
: count: 10
  value: 114404.6189
? "(32, 16, PreActBlock(\n  (bn1): BatchNorm2d(496, eps=1e-05, momentum=0.1, affine=True,\
  \ track_running_stats=True)\n  (conv1): Conv2d(496, 1000, kernel_size=(3, 3), stride=(2,\
  \ 2), padding=(1, 1), bias=False)\n  (bn2): BatchNorm2d(1000, eps=1e-05, momentum=0.1,\
  \ affine=True, track_running_stats=True)\n  (conv2): Conv2d(1000, 1000, kernel_size=(3,\
  \ 3), stride=(1, 1), padding=(1, 1), bias=False)\n  (shortcut): Sequential(\n  \
  \  (0): Conv2d(496, 1000, kernel_size=(1, 1), stride=(2, 2), bias=False)\n  )\n\
  ))"
: count: 10
  value: 122458.25649999999
? "(32, 16, PreActBlock(\n  (bn1): BatchNorm2d(512, eps=1e-05, momentum=0.1, affine=True,\
  \ track_running_stats=True)\n  (conv1): Conv2d(512, 1024, kernel_size=(3, 3), stride=(2,\
  \ 2), padding=(1, 1), bias=False)\n  (bn2): BatchNorm2d(1024, eps=1e-05, momentum=0.1,\
  \ affine=True, track_running_stats=True)\n  (conv2): Conv2d(1024, 1024, kernel_size=(3,\
  \ 3), stride=(1, 1), padding=(1, 1), bias=False)\n  (shortcut): Sequential(\n  \
  \  (0): Conv2d(512, 1024, kernel_size=(1, 1), stride=(2, 2), bias=False)\n  )\n\
  ))"
: count: 10
  value: 131499.7708
? "(32, 16, PreActBlock(\n  (bn1): BatchNorm2d(528, eps=1e-05, momentum=0.1, affine=True,\
  \ track_running_stats=True)\n  (conv1): Conv2d(528, 1048, kernel_size=(3, 3), stride=(2,\
  \ 2), padding=(1, 1), bias=False)\n  (bn2): BatchNorm2d(1048, eps=1e-05, momentum=0.1,\
  \ affine=True, track_running_stats=True)\n  (conv2): Conv2d(1048, 1048, kernel_size=(3,\
  \ 3), stride=(1, 1), padding=(1, 1), bias=False)\n  (shortcut): Sequential(\n  \
  \  (0): Conv2d(528, 1048, kernel_size=(1, 1), stride=(2, 2), bias=False)\n  )\n\
  ))"
: count: 10
  value: 133610.19360000003
? "(32, 16, PreActBlock(\n  (bn1): BatchNorm2d(536, eps=1e-05, momentum=0.1, affine=True,\
  \ track_running_stats=True)\n  (conv1): Conv2d(536, 1072, kernel_size=(3, 3), stride=(2,\
  \ 2), padding=(1, 1), bias=False)\n  (bn2): BatchNorm2d(1072, eps=1e-05, momentum=0.1,\
  \ affine=True, track_running_stats=True)\n  (conv2): Conv2d(1072, 1072, kernel_size=(3,\
  \ 3), stride=(1, 1), padding=(1, 1), bias=False)\n  (shortcut): Sequential(\n  \
  \  (0): Conv2d(536, 1072, kernel_size=(1, 1), stride=(2, 2), bias=False)\n  )\n\
  ))"
: count: 10
  value: 141516.945
? "(32, 16, PreActBlock(\n  (bn1): BatchNorm2d(552, eps=1e-05, momentum=0.1, affine=True,\
  \ track_running_stats=True)\n  (conv1): Conv2d(552, 1104, kernel_size=(3, 3), stride=(2,\
  \ 2), padding=(1, 1), bias=False)\n  (bn2): BatchNorm2d(1104, eps=1e-05, momentum=0.1,\
  \ affine=True, track_running_stats=True)\n  (conv2): Conv2d(1104, 1104, kernel_size=(3,\
  \ 3), stride=(1, 1), padding=(1, 1), bias=False)\n  (shortcut): Sequential(\n  \
  \  (0): Conv2d(552, 1104, kernel_size=(1, 1), stride=(2, 2), bias=False)\n  )\n\
  ))"
: count: 10
  value: 146041.6871
? "(32, 16, PreActBlock(\n  (bn1): BatchNorm2d(560, eps=1e-05, momentum=0.1, affine=True,\
  \ track_running_stats=True)\n  (conv1): Conv2d(560, 1128, kernel_size=(3, 3), stride=(2,\
  \ 2), padding=(1, 1), bias=False)\n  (bn2): BatchNorm2d(1128, eps=1e-05, momentum=0.1,\
  \ affine=True, track_running_stats=True)\n  (conv2): Conv2d(1128, 1128, kernel_size=(3,\
  \ 3), stride=(1, 1), padding=(1, 1), bias=False)\n  (shortcut): Sequential(\n  \
  \  (0): Conv2d(560, 1128, kernel_size=(1, 1), stride=(2, 2), bias=False)\n  )\n\
  ))"
: count: 10
  value: 154813.6566
? "(32, 16, PreActBlock(\n  (bn1): BatchNorm2d(576, eps=1e-05, momentum=0.1, affine=True,\
  \ track_running_stats=True)\n  (conv1): Conv2d(576, 1152, kernel_size=(3, 3), stride=(2,\
  \ 2), padding=(1, 1), bias=False)\n  (bn2): BatchNorm2d(1152, eps=1e-05, momentum=0.1,\
  \ affine=True, track_running_stats=True)\n  (conv2): Conv2d(1152, 1152, kernel_size=(3,\
  \ 3), stride=(1, 1), padding=(1, 1), bias=False)\n  (shortcut): Sequential(\n  \
  \  (0): Conv2d(576, 1152, kernel_size=(1, 1), stride=(2, 2), bias=False)\n  )\n\
  ))"
: count: 10
  value: 156729.6808
? "(32, 16, PreActBlock(\n  (bn1): BatchNorm2d(592, eps=1e-05, momentum=0.1, affine=True,\
  \ track_running_stats=True)\n  (conv1): Conv2d(592, 1176, kernel_size=(3, 3), stride=(2,\
  \ 2), padding=(1, 1), bias=False)\n  (bn2): BatchNorm2d(1176, eps=1e-05, momentum=0.1,\
  \ affine=True, track_running_stats=True)\n  (conv2): Conv2d(1176, 1176, kernel_size=(3,\
  \ 3), stride=(1, 1), padding=(1, 1), bias=False)\n  (shortcut): Sequential(\n  \
  \  (0): Conv2d(592, 1176, kernel_size=(1, 1), stride=(2, 2), bias=False)\n  )\n\
  ))"
: count: 10
  value: 166590.2424
? "(32, 16, PreActBlock(\n  (bn1): BatchNorm2d(600, eps=1e-05, momentum=0.1, affine=True,\
  \ track_running_stats=True)\n  (conv1): Conv2d(600, 1200, kernel_size=(3, 3), stride=(2,\
  \ 2), padding=(1, 1), bias=False)\n  (bn2): BatchNorm2d(1200, eps=1e-05, momentum=0.1,\
  \ affine=True, track_running_stats=True)\n  (conv2): Conv2d(1200, 1200, kernel_size=(3,\
  \ 3), stride=(1, 1), padding=(1, 1), bias=False)\n  (shortcut): Sequential(\n  \
  \  (0): Conv2d(600, 1200, kernel_size=(1, 1), stride=(2, 2), bias=False)\n  )\n\
  ))"
: count: 10
  value: 167634.31530000002
? "(32, 16, PreActBlock(\n  (bn1): BatchNorm2d(616, eps=1e-05, momentum=0.1, affine=True,\
  \ track_running_stats=True)\n  (conv1): Conv2d(616, 1232, kernel_size=(3, 3), stride=(2,\
  \ 2), padding=(1, 1), bias=False)\n  (bn2): BatchNorm2d(1232, eps=1e-05, momentum=0.1,\
  \ affine=True, track_running_stats=True)\n  (conv2): Conv2d(1232, 1232, kernel_size=(3,\
  \ 3), stride=(1, 1), padding=(1, 1), bias=False)\n  (shortcut): Sequential(\n  \
  \  (0): Conv2d(616, 1232, kernel_size=(1, 1), stride=(2, 2), bias=False)\n  )\n\
  ))"
: count: 10
  value: 176896.86650000003
? "(32, 16, PreActBlock(\n  (bn1): BatchNorm2d(624, eps=1e-05, momentum=0.1, affine=True,\
  \ track_running_stats=True)\n  (conv1): Conv2d(624, 1256, kernel_size=(3, 3), stride=(2,\
  \ 2), padding=(1, 1), bias=False)\n  (bn2): BatchNorm2d(1256, eps=1e-05, momentum=0.1,\
  \ affine=True, track_running_stats=True)\n  (conv2): Conv2d(1256, 1256, kernel_size=(3,\
  \ 3), stride=(1, 1), padding=(1, 1), bias=False)\n  (shortcut): Sequential(\n  \
  \  (0): Conv2d(624, 1256, kernel_size=(1, 1), stride=(2, 2), bias=False)\n  )\n\
  ))"
: count: 10
  value: 185079.7403
? "(32, 16, PreActBlock(\n  (bn1): BatchNorm2d(640, eps=1e-05, momentum=0.1, affine=True,\
  \ track_running_stats=True)\n  (conv1): Conv2d(640, 1280, kernel_size=(3, 3), stride=(2,\
  \ 2), padding=(1, 1), bias=False)\n  (bn2): BatchNorm2d(1280, eps=1e-05, momentum=0.1,\
  \ affine=True, track_running_stats=True)\n  (conv2): Conv2d(1280, 1280, kernel_size=(3,\
  \ 3), stride=(1, 1), padding=(1, 1), bias=False)\n  (shortcut): Sequential(\n  \
  \  (0): Conv2d(640, 1280, kernel_size=(1, 1), stride=(2, 2), bias=False)\n  )\n\
  ))"
: count: 10
  value: 194052.457
? "(32, 32, PreActBlock(\n  (bn1): BatchNorm2d(128, eps=1e-05, momentum=0.1, affine=True,\
  \ track_running_stats=True)\n  (conv1): Conv2d(128, 128, kernel_size=(3, 3), stride=(1,\
  \ 1), padding=(1, 1), bias=False)\n  (bn2): BatchNorm2d(128, eps=1e-05, momentum=0.1,\
  \ affine=True, track_running_stats=True)\n  (conv2): Conv2d(128, 128, kernel_size=(3,\
  \ 3), stride=(1, 1), padding=(1, 1), bias=False)\n))"
: count: 10
  value: 7344.167700000001
? "(32, 32, PreActBlock(\n  (bn1): BatchNorm2d(144, eps=1e-05, momentum=0.1, affine=True,\
  \ track_running_stats=True)\n  (conv1): Conv2d(144, 144, kernel_size=(3, 3), stride=(1,\
  \ 1), padding=(1, 1), bias=False)\n  (bn2): BatchNorm2d(144, eps=1e-05, momentum=0.1,\
  \ affine=True, track_running_stats=True)\n  (conv2): Conv2d(144, 144, kernel_size=(3,\
  \ 3), stride=(1, 1), padding=(1, 1), bias=False)\n))"
: count: 10
  value: 9871.6185
? "(32, 32, PreActBlock(\n  (bn1): BatchNorm2d(152, eps=1e-05, momentum=0.1, affine=True,\
  \ track_running_stats=True)\n  (conv1): Conv2d(152, 152, kernel_size=(3, 3), stride=(1,\
  \ 1), padding=(1, 1), bias=False)\n  (bn2): BatchNorm2d(152, eps=1e-05, momentum=0.1,\
  \ affine=True, track_running_stats=True)\n  (conv2): Conv2d(152, 152, kernel_size=(3,\
  \ 3), stride=(1, 1), padding=(1, 1), bias=False)\n))"
: count: 10
  value: 10551.7471
? "(32, 32, PreActBlock(\n  (bn1): BatchNorm2d(168, eps=1e-05, momentum=0.1, affine=True,\
  \ track_running_stats=True)\n  (conv1): Conv2d(168, 168, kernel_size=(3, 3), stride=(1,\
  \ 1), padding=(1, 1), bias=False)\n  (bn2): BatchNorm2d(168, eps=1e-05, momentum=0.1,\
  \ affine=True, track_running_stats=True)\n  (conv2): Conv2d(168, 168, kernel_size=(3,\
  \ 3), stride=(1, 1), padding=(1, 1), bias=False)\n))"
: count: 10
  value: 13388.672799999997
? "(32, 32, PreActBlock(\n  (bn1): BatchNorm2d(176, eps=1e-05, momentum=0.1, affine=True,\
  \ track_running_stats=True)\n  (conv1): Conv2d(176, 176, kernel_size=(3, 3), stride=(1,\
  \ 1), padding=(1, 1), bias=False)\n  (bn2): BatchNorm2d(176, eps=1e-05, momentum=0.1,\
  \ affine=True, track_running_stats=True)\n  (conv2): Conv2d(176, 176, kernel_size=(3,\
  \ 3), stride=(1, 1), padding=(1, 1), bias=False)\n))"
: count: 10
  value: 14275.191900000002
? "(32, 32, PreActBlock(\n  (bn1): BatchNorm2d(192, eps=1e-05, momentum=0.1, affine=True,\
  \ track_running_stats=True)\n  (conv1): Conv2d(192, 192, kernel_size=(3, 3), stride=(1,\
  \ 1), padding=(1, 1), bias=False)\n  (bn2): BatchNorm2d(192, eps=1e-05, momentum=0.1,\
  \ affine=True, track_running_stats=True)\n  (conv2): Conv2d(192, 192, kernel_size=(3,\
  \ 3), stride=(1, 1), padding=(1, 1), bias=False)\n))"
: count: 10
  value: 15481.4389
? "(32, 32, PreActBlock(\n  (bn1): BatchNorm2d(208, eps=1e-05, momentum=0.1, affine=True,\
  \ track_running_stats=True)\n  (conv1): Conv2d(208, 208, kernel_size=(3, 3), stride=(1,\
  \ 1), padding=(1, 1), bias=False)\n  (bn2): BatchNorm2d(208, eps=1e-05, momentum=0.1,\
  \ affine=True, track_running_stats=True)\n  (conv2): Conv2d(208, 208, kernel_size=(3,\
  \ 3), stride=(1, 1), padding=(1, 1), bias=False)\n))"
: count: 10
  value: 19577.320700000004
? "(32, 32, PreActBlock(\n  (bn1): BatchNorm2d(216, eps=1e-05, momentum=0.1, affine=True,\
  \ track_running_stats=True)\n  (conv1): Conv2d(216, 216, kernel_size=(3, 3), stride=(1,\
  \ 1), padding=(1, 1), bias=False)\n  (bn2): BatchNorm2d(216, eps=1e-05, momentum=0.1,\
  \ affine=True, track_running_stats=True)\n  (conv2): Conv2d(216, 216, kernel_size=(3,\
  \ 3), stride=(1, 1), padding=(1, 1), bias=False)\n))"
: count: 10
  value: 20180.1985
? "(32, 32, PreActBlock(\n  (bn1): BatchNorm2d(232, eps=1e-05, momentum=0.1, affine=True,\
  \ track_running_stats=True)\n  (conv1): Conv2d(232, 232, kernel_size=(3, 3), stride=(1,\
  \ 1), padding=(1, 1), bias=False)\n  (bn2): BatchNorm2d(232, eps=1e-05, momentum=0.1,\
  \ affine=True, track_running_stats=True)\n  (conv2): Conv2d(232, 232, kernel_size=(3,\
  \ 3), stride=(1, 1), padding=(1, 1), bias=False)\n))"
: count: 10
  value: 24675.327
? "(32, 32, PreActBlock(\n  (bn1): BatchNorm2d(240, eps=1e-05, momentum=0.1, affine=True,\
  \ track_running_stats=True)\n  (conv1): Conv2d(240, 240, kernel_size=(3, 3), stride=(1,\
  \ 1), padding=(1, 1), bias=False)\n  (bn2): BatchNorm2d(240, eps=1e-05, momentum=0.1,\
  \ affine=True, track_running_stats=True)\n  (conv2): Conv2d(240, 240, kernel_size=(3,\
  \ 3), stride=(1, 1), padding=(1, 1), bias=False)\n))"
: count: 10
  value: 26229.823800000002
? "(32, 32, PreActBlock(\n  (bn1): BatchNorm2d(256, eps=1e-05, momentum=0.1, affine=True,\
  \ track_running_stats=True)\n  (conv1): Conv2d(256, 256, kernel_size=(3, 3), stride=(1,\
  \ 1), padding=(1, 1), bias=False)\n  (bn2): BatchNorm2d(256, eps=1e-05, momentum=0.1,\
  \ affine=True, track_running_stats=True)\n  (conv2): Conv2d(256, 256, kernel_size=(3,\
  \ 3), stride=(1, 1), padding=(1, 1), bias=False)\n))"
: count: 10
  value: 28996.99
? "(32, 32, PreActBlock(\n  (bn1): BatchNorm2d(272, eps=1e-05, momentum=0.1, affine=True,\
  \ track_running_stats=True)\n  (conv1): Conv2d(272, 272, kernel_size=(3, 3), stride=(1,\
  \ 1), padding=(1, 1), bias=False)\n  (bn2): BatchNorm2d(272, eps=1e-05, momentum=0.1,\
  \ affine=True, track_running_stats=True)\n  (conv2): Conv2d(272, 272, kernel_size=(3,\
  \ 3), stride=(1, 1), padding=(1, 1), bias=False)\n))"
: count: 10
  value: 33691.23149999999
? "(32, 32, PreActBlock(\n  (bn1): BatchNorm2d(280, eps=1e-05, momentum=0.1, affine=True,\
  \ track_running_stats=True)\n  (conv1): Conv2d(280, 280, kernel_size=(3, 3), stride=(1,\
  \ 1), padding=(1, 1), bias=False)\n  (bn2): BatchNorm2d(280, eps=1e-05, momentum=0.1,\
  \ affine=True, track_running_stats=True)\n  (conv2): Conv2d(280, 280, kernel_size=(3,\
  \ 3), stride=(1, 1), padding=(1, 1), bias=False)\n))"
: count: 10
  value: 34909.6453
? "(32, 32, PreActBlock(\n  (bn1): BatchNorm2d(296, eps=1e-05, momentum=0.1, affine=True,\
  \ track_running_stats=True)\n  (conv1): Conv2d(296, 296, kernel_size=(3, 3), stride=(1,\
  \ 1), padding=(1, 1), bias=False)\n  (bn2): BatchNorm2d(296, eps=1e-05, momentum=0.1,\
  \ affine=True, track_running_stats=True)\n  (conv2): Conv2d(296, 296, kernel_size=(3,\
  \ 3), stride=(1, 1), padding=(1, 1), bias=False)\n))"
: count: 10
  value: 41130.19740000001
? "(32, 32, PreActBlock(\n  (bn1): BatchNorm2d(304, eps=1e-05, momentum=0.1, affine=True,\
  \ track_running_stats=True)\n  (conv1): Conv2d(304, 304, kernel_size=(3, 3), stride=(1,\
  \ 1), padding=(1, 1), bias=False)\n  (bn2): BatchNorm2d(304, eps=1e-05, momentum=0.1,\
  \ affine=True, track_running_stats=True)\n  (conv2): Conv2d(304, 304, kernel_size=(3,\
  \ 3), stride=(1, 1), padding=(1, 1), bias=False)\n))"
: count: 10
  value: 42236.2929
? "(32, 32, PreActBlock(\n  (bn1): BatchNorm2d(320, eps=1e-05, momentum=0.1, affine=True,\
  \ track_running_stats=True)\n  (conv1): Conv2d(320, 320, kernel_size=(3, 3), stride=(1,\
  \ 1), padding=(1, 1), bias=False)\n  (bn2): BatchNorm2d(320, eps=1e-05, momentum=0.1,\
  \ affine=True, track_running_stats=True)\n  (conv2): Conv2d(320, 320, kernel_size=(3,\
  \ 3), stride=(1, 1), padding=(1, 1), bias=False)\n))"
: count: 10
  value: 44098.321700000015
? "(32, 32, PreActBlock(\n  (bn1): BatchNorm2d(336, eps=1e-05, momentum=0.1, affine=True,\
  \ track_running_stats=True)\n  (conv1): Conv2d(336, 336, kernel_size=(3, 3), stride=(1,\
  \ 1), padding=(1, 1), bias=False)\n  (bn2): BatchNorm2d(336, eps=1e-05, momentum=0.1,\
  \ affine=True, track_running_stats=True)\n  (conv2): Conv2d(336, 336, kernel_size=(3,\
  \ 3), stride=(1, 1), padding=(1, 1), bias=False)\n))"
: count: 10
  value: 51078.8137
? "(32, 32, PreActBlock(\n  (bn1): BatchNorm2d(344, eps=1e-05, momentum=0.1, affine=True,\
  \ track_running_stats=True)\n  (conv1): Conv2d(344, 344, kernel_size=(3, 3), stride=(1,\
  \ 1), padding=(1, 1), bias=False)\n  (bn2): BatchNorm2d(344, eps=1e-05, momentum=0.1,\
  \ affine=True, track_running_stats=True)\n  (conv2): Conv2d(344, 344, kernel_size=(3,\
  \ 3), stride=(1, 1), padding=(1, 1), bias=False)\n))"
: count: 10
  value: 52508.3713
? "(32, 32, PreActBlock(\n  (bn1): BatchNorm2d(360, eps=1e-05, momentum=0.1, affine=True,\
  \ track_running_stats=True)\n  (conv1): Conv2d(360, 360, kernel_size=(3, 3), stride=(1,\
  \ 1), padding=(1, 1), bias=False)\n  (bn2): BatchNorm2d(360, eps=1e-05, momentum=0.1,\
  \ affine=True, track_running_stats=True)\n  (conv2): Conv2d(360, 360, kernel_size=(3,\
  \ 3), stride=(1, 1), padding=(1, 1), bias=False)\n))"
: count: 10
  value: 59195.8292
? "(32, 32, PreActBlock(\n  (bn1): BatchNorm2d(368, eps=1e-05, momentum=0.1, affine=True,\
  \ track_running_stats=True)\n  (conv1): Conv2d(368, 368, kernel_size=(3, 3), stride=(1,\
  \ 1), padding=(1, 1), bias=False)\n  (bn2): BatchNorm2d(368, eps=1e-05, momentum=0.1,\
  \ affine=True, track_running_stats=True)\n  (conv2): Conv2d(368, 368, kernel_size=(3,\
  \ 3), stride=(1, 1), padding=(1, 1), bias=False)\n))"
: count: 10
  value: 61616.225600000005
? "(32, 32, PreActBlock(\n  (bn1): BatchNorm2d(384, eps=1e-05, momentum=0.1, affine=True,\
  \ track_running_stats=True)\n  (conv1): Conv2d(384, 384, kernel_size=(3, 3), stride=(1,\
  \ 1), padding=(1, 1), bias=False)\n  (bn2): BatchNorm2d(384, eps=1e-05, momentum=0.1,\
  \ affine=True, track_running_stats=True)\n  (conv2): Conv2d(384, 384, kernel_size=(3,\
  \ 3), stride=(1, 1), padding=(1, 1), bias=False)\n))"
: count: 10
  value: 64184.04110000001
? "(32, 32, PreActBlock(\n  (bn1): BatchNorm2d(400, eps=1e-05, momentum=0.1, affine=True,\
  \ track_running_stats=True)\n  (conv1): Conv2d(400, 400, kernel_size=(3, 3), stride=(1,\
  \ 1), padding=(1, 1), bias=False)\n  (bn2): BatchNorm2d(400, eps=1e-05, momentum=0.1,\
  \ affine=True, track_running_stats=True)\n  (conv2): Conv2d(400, 400, kernel_size=(3,\
  \ 3), stride=(1, 1), padding=(1, 1), bias=False)\n))"
: count: 10
  value: 71202.73479999999
? "(32, 32, PreActBlock(\n  (bn1): BatchNorm2d(408, eps=1e-05, momentum=0.1, affine=True,\
  \ track_running_stats=True)\n  (conv1): Conv2d(408, 408, kernel_size=(3, 3), stride=(1,\
  \ 1), padding=(1, 1), bias=False)\n  (bn2): BatchNorm2d(408, eps=1e-05, momentum=0.1,\
  \ affine=True, track_running_stats=True)\n  (conv2): Conv2d(408, 408, kernel_size=(3,\
  \ 3), stride=(1, 1), padding=(1, 1), bias=False)\n))"
: count: 10
  value: 73747.8588
? "(32, 32, PreActBlock(\n  (bn1): BatchNorm2d(424, eps=1e-05, momentum=0.1, affine=True,\
  \ track_running_stats=True)\n  (conv1): Conv2d(424, 424, kernel_size=(3, 3), stride=(1,\
  \ 1), padding=(1, 1), bias=False)\n  (bn2): BatchNorm2d(424, eps=1e-05, momentum=0.1,\
  \ affine=True, track_running_stats=True)\n  (conv2): Conv2d(424, 424, kernel_size=(3,\
  \ 3), stride=(1, 1), padding=(1, 1), bias=False)\n))"
: count: 10
  value: 82123.2309
? "(32, 32, PreActBlock(\n  (bn1): BatchNorm2d(432, eps=1e-05, momentum=0.1, affine=True,\
  \ track_running_stats=True)\n  (conv1): Conv2d(432, 432, kernel_size=(3, 3), stride=(1,\
  \ 1), padding=(1, 1), bias=False)\n  (bn2): BatchNorm2d(432, eps=1e-05, momentum=0.1,\
  \ affine=True, track_running_stats=True)\n  (conv2): Conv2d(432, 432, kernel_size=(3,\
  \ 3), stride=(1, 1), padding=(1, 1), bias=False)\n))"
: count: 10
  value: 83415.26019999999
? "(32, 32, PreActBlock(\n  (bn1): BatchNorm2d(448, eps=1e-05, momentum=0.1, affine=True,\
  \ track_running_stats=True)\n  (conv1): Conv2d(448, 448, kernel_size=(3, 3), stride=(1,\
  \ 1), padding=(1, 1), bias=False)\n  (bn2): BatchNorm2d(448, eps=1e-05, momentum=0.1,\
  \ affine=True, track_running_stats=True)\n  (conv2): Conv2d(448, 448, kernel_size=(3,\
  \ 3), stride=(1, 1), padding=(1, 1), bias=False)\n))"
: count: 10
  value: 87049.87250000001
? "(32, 32, PreActBlock(\n  (bn1): BatchNorm2d(464, eps=1e-05, momentum=0.1, affine=True,\
  \ track_running_stats=True)\n  (conv1): Conv2d(464, 464, kernel_size=(3, 3), stride=(1,\
  \ 1), padding=(1, 1), bias=False)\n  (bn2): BatchNorm2d(464, eps=1e-05, momentum=0.1,\
  \ affine=True, track_running_stats=True)\n  (conv2): Conv2d(464, 464, kernel_size=(3,\
  \ 3), stride=(1, 1), padding=(1, 1), bias=False)\n))"
: count: 10
  value: 96219.5993
? "(32, 32, PreActBlock(\n  (bn1): BatchNorm2d(472, eps=1e-05, momentum=0.1, affine=True,\
  \ track_running_stats=True)\n  (conv1): Conv2d(472, 472, kernel_size=(3, 3), stride=(1,\
  \ 1), padding=(1, 1), bias=False)\n  (bn2): BatchNorm2d(472, eps=1e-05, momentum=0.1,\
  \ affine=True, track_running_stats=True)\n  (conv2): Conv2d(472, 472, kernel_size=(3,\
  \ 3), stride=(1, 1), padding=(1, 1), bias=False)\n))"
: count: 10
  value: 97974.10269999999
? "(32, 32, PreActBlock(\n  (bn1): BatchNorm2d(488, eps=1e-05, momentum=0.1, affine=True,\
  \ track_running_stats=True)\n  (conv1): Conv2d(488, 488, kernel_size=(3, 3), stride=(1,\
  \ 1), padding=(1, 1), bias=False)\n  (bn2): BatchNorm2d(488, eps=1e-05, momentum=0.1,\
  \ affine=True, track_running_stats=True)\n  (conv2): Conv2d(488, 488, kernel_size=(3,\
  \ 3), stride=(1, 1), padding=(1, 1), bias=False)\n))"
: count: 10
  value: 106806.1962
? "(32, 32, PreActBlock(\n  (bn1): BatchNorm2d(496, eps=1e-05, momentum=0.1, affine=True,\
  \ track_running_stats=True)\n  (conv1): Conv2d(496, 496, kernel_size=(3, 3), stride=(1,\
  \ 1), padding=(1, 1), bias=False)\n  (bn2): BatchNorm2d(496, eps=1e-05, momentum=0.1,\
  \ affine=True, track_running_stats=True)\n  (conv2): Conv2d(496, 496, kernel_size=(3,\
  \ 3), stride=(1, 1), padding=(1, 1), bias=False)\n))"
: count: 10
  value: 111859.46040000001
? "(32, 32, PreActBlock(\n  (bn1): BatchNorm2d(512, eps=1e-05, momentum=0.1, affine=True,\
  \ track_running_stats=True)\n  (conv1): Conv2d(512, 512, kernel_size=(3, 3), stride=(1,\
  \ 1), padding=(1, 1), bias=False)\n  (bn2): BatchNorm2d(512, eps=1e-05, momentum=0.1,\
  \ affine=True, track_running_stats=True)\n  (conv2): Conv2d(512, 512, kernel_size=(3,\
  \ 3), stride=(1, 1), padding=(1, 1), bias=False)\n))"
: count: 10
  value: 120220.1986
? "(32, 32, PreActBlock(\n  (bn1): BatchNorm2d(528, eps=1e-05, momentum=0.1, affine=True,\
  \ track_running_stats=True)\n  (conv1): Conv2d(528, 528, kernel_size=(3, 3), stride=(1,\
  \ 1), padding=(1, 1), bias=False)\n  (bn2): BatchNorm2d(528, eps=1e-05, momentum=0.1,\
  \ affine=True, track_running_stats=True)\n  (conv2): Conv2d(528, 528, kernel_size=(3,\
  \ 3), stride=(1, 1), padding=(1, 1), bias=False)\n))"
: count: 10
  value: 124677.80069999999
? "(32, 32, PreActBlock(\n  (bn1): BatchNorm2d(536, eps=1e-05, momentum=0.1, affine=True,\
  \ track_running_stats=True)\n  (conv1): Conv2d(536, 536, kernel_size=(3, 3), stride=(1,\
  \ 1), padding=(1, 1), bias=False)\n  (bn2): BatchNorm2d(536, eps=1e-05, momentum=0.1,\
  \ affine=True, track_running_stats=True)\n  (conv2): Conv2d(536, 536, kernel_size=(3,\
  \ 3), stride=(1, 1), padding=(1, 1), bias=False)\n))"
: count: 10
  value: 130014.8169
? "(32, 32, PreActBlock(\n  (bn1): BatchNorm2d(552, eps=1e-05, momentum=0.1, affine=True,\
  \ track_running_stats=True)\n  (conv1): Conv2d(552, 552, kernel_size=(3, 3), stride=(1,\
  \ 1), padding=(1, 1), bias=False)\n  (bn2): BatchNorm2d(552, eps=1e-05, momentum=0.1,\
  \ affine=True, track_running_stats=True)\n  (conv2): Conv2d(552, 552, kernel_size=(3,\
  \ 3), stride=(1, 1), padding=(1, 1), bias=False)\n))"
: count: 10
  value: 136010.9977
? "(32, 32, PreActBlock(\n  (bn1): BatchNorm2d(560, eps=1e-05, momentum=0.1, affine=True,\
  \ track_running_stats=True)\n  (conv1): Conv2d(560, 560, kernel_size=(3, 3), stride=(1,\
  \ 1), padding=(1, 1), bias=False)\n  (bn2): BatchNorm2d(560, eps=1e-05, momentum=0.1,\
  \ affine=True, track_running_stats=True)\n  (conv2): Conv2d(560, 560, kernel_size=(3,\
  \ 3), stride=(1, 1), padding=(1, 1), bias=False)\n))"
: count: 10
  value: 137876.1298
? "(32, 32, PreActBlock(\n  (bn1): BatchNorm2d(576, eps=1e-05, momentum=0.1, affine=True,\
  \ track_running_stats=True)\n  (conv1): Conv2d(576, 576, kernel_size=(3, 3), stride=(1,\
  \ 1), padding=(1, 1), bias=False)\n  (bn2): BatchNorm2d(576, eps=1e-05, momentum=0.1,\
  \ affine=True, track_running_stats=True)\n  (conv2): Conv2d(576, 576, kernel_size=(3,\
  \ 3), stride=(1, 1), padding=(1, 1), bias=False)\n))"
: count: 10
  value: 141959.0907
? "(32, 32, PreActBlock(\n  (bn1): BatchNorm2d(592, eps=1e-05, momentum=0.1, affine=True,\
  \ track_running_stats=True)\n  (conv1): Conv2d(592, 592, kernel_size=(3, 3), stride=(1,\
  \ 1), padding=(1, 1), bias=False)\n  (bn2): BatchNorm2d(592, eps=1e-05, momentum=0.1,\
  \ affine=True, track_running_stats=True)\n  (conv2): Conv2d(592, 592, kernel_size=(3,\
  \ 3), stride=(1, 1), padding=(1, 1), bias=False)\n))"
: count: 10
  value: 155108.2523
? "(32, 32, PreActBlock(\n  (bn1): BatchNorm2d(600, eps=1e-05, momentum=0.1, affine=True,\
  \ track_running_stats=True)\n  (conv1): Conv2d(600, 600, kernel_size=(3, 3), stride=(1,\
  \ 1), padding=(1, 1), bias=False)\n  (bn2): BatchNorm2d(600, eps=1e-05, momentum=0.1,\
  \ affine=True, track_running_stats=True)\n  (conv2): Conv2d(600, 600, kernel_size=(3,\
  \ 3), stride=(1, 1), padding=(1, 1), bias=False)\n))"
: count: 10
  value: 154506.3851
? "(32, 32, PreActBlock(\n  (bn1): BatchNorm2d(616, eps=1e-05, momentum=0.1, affine=True,\
  \ track_running_stats=True)\n  (conv1): Conv2d(616, 616, kernel_size=(3, 3), stride=(1,\
  \ 1), padding=(1, 1), bias=False)\n  (bn2): BatchNorm2d(616, eps=1e-05, momentum=0.1,\
  \ affine=True, track_running_stats=True)\n  (conv2): Conv2d(616, 616, kernel_size=(3,\
  \ 3), stride=(1, 1), padding=(1, 1), bias=False)\n))"
: count: 10
  value: 164820.4078
? "(32, 32, PreActBlock(\n  (bn1): BatchNorm2d(624, eps=1e-05, momentum=0.1, affine=True,\
  \ track_running_stats=True)\n  (conv1): Conv2d(624, 624, kernel_size=(3, 3), stride=(1,\
  \ 1), padding=(1, 1), bias=False)\n  (bn2): BatchNorm2d(624, eps=1e-05, momentum=0.1,\
  \ affine=True, track_running_stats=True)\n  (conv2): Conv2d(624, 624, kernel_size=(3,\
  \ 3), stride=(1, 1), padding=(1, 1), bias=False)\n))"
: count: 10
  value: 168274.66890000002
? "(32, 32, PreActBlock(\n  (bn1): BatchNorm2d(640, eps=1e-05, momentum=0.1, affine=True,\
  \ track_running_stats=True)\n  (conv1): Conv2d(640, 640, kernel_size=(3, 3), stride=(1,\
  \ 1), padding=(1, 1), bias=False)\n  (bn2): BatchNorm2d(640, eps=1e-05, momentum=0.1,\
  \ affine=True, track_running_stats=True)\n  (conv2): Conv2d(640, 640, kernel_size=(3,\
  \ 3), stride=(1, 1), padding=(1, 1), bias=False)\n))"
: count: 10
  value: 177621.77620000002
? "(64, 32, PreActBlock(\n  (bn1): BatchNorm2d(104, eps=1e-05, momentum=0.1, affine=True,\
  \ track_running_stats=True)\n  (conv1): Conv2d(104, 208, kernel_size=(3, 3), stride=(2,\
  \ 2), padding=(1, 1), bias=False)\n  (bn2): BatchNorm2d(208, eps=1e-05, momentum=0.1,\
  \ affine=True, track_running_stats=True)\n  (conv2): Conv2d(208, 208, kernel_size=(3,\
  \ 3), stride=(1, 1), padding=(1, 1), bias=False)\n  (shortcut): Sequential(\n  \
  \  (0): Conv2d(104, 208, kernel_size=(1, 1), stride=(2, 2), bias=False)\n  )\n))"
: count: 10
  value: 21391.068600000002
? "(64, 32, PreActBlock(\n  (bn1): BatchNorm2d(112, eps=1e-05, momentum=0.1, affine=True,\
  \ track_running_stats=True)\n  (conv1): Conv2d(112, 216, kernel_size=(3, 3), stride=(2,\
  \ 2), padding=(1, 1), bias=False)\n  (bn2): BatchNorm2d(216, eps=1e-05, momentum=0.1,\
  \ affine=True, track_running_stats=True)\n  (conv2): Conv2d(216, 216, kernel_size=(3,\
  \ 3), stride=(1, 1), padding=(1, 1), bias=False)\n  (shortcut): Sequential(\n  \
  \  (0): Conv2d(112, 216, kernel_size=(1, 1), stride=(2, 2), bias=False)\n  )\n))"
: count: 10
  value: 22386.881999999998
? "(64, 32, PreActBlock(\n  (bn1): BatchNorm2d(112, eps=1e-05, momentum=0.1, affine=True,\
  \ track_running_stats=True)\n  (conv1): Conv2d(112, 232, kernel_size=(3, 3), stride=(2,\
  \ 2), padding=(1, 1), bias=False)\n  (bn2): BatchNorm2d(232, eps=1e-05, momentum=0.1,\
  \ affine=True, track_running_stats=True)\n  (conv2): Conv2d(232, 232, kernel_size=(3,\
  \ 3), stride=(1, 1), padding=(1, 1), bias=False)\n  (shortcut): Sequential(\n  \
  \  (0): Conv2d(112, 232, kernel_size=(1, 1), stride=(2, 2), bias=False)\n  )\n))"
: count: 10
  value: 24154.016900000002
? "(64, 32, PreActBlock(\n  (bn1): BatchNorm2d(120, eps=1e-05, momentum=0.1, affine=True,\
  \ track_running_stats=True)\n  (conv1): Conv2d(120, 240, kernel_size=(3, 3), stride=(2,\
  \ 2), padding=(1, 1), bias=False)\n  (bn2): BatchNorm2d(240, eps=1e-05, momentum=0.1,\
  \ affine=True, track_running_stats=True)\n  (conv2): Conv2d(240, 240, kernel_size=(3,\
  \ 3), stride=(1, 1), padding=(1, 1), bias=False)\n  (shortcut): Sequential(\n  \
  \  (0): Conv2d(120, 240, kernel_size=(1, 1), stride=(2, 2), bias=False)\n  )\n))"
: count: 10
  value: 25798.3519
? "(64, 32, PreActBlock(\n  (bn1): BatchNorm2d(128, eps=1e-05, momentum=0.1, affine=True,\
  \ track_running_stats=True)\n  (conv1): Conv2d(128, 256, kernel_size=(3, 3), stride=(2,\
  \ 2), padding=(1, 1), bias=False)\n  (bn2): BatchNorm2d(256, eps=1e-05, momentum=0.1,\
  \ affine=True, track_running_stats=True)\n  (conv2): Conv2d(256, 256, kernel_size=(3,\
  \ 3), stride=(1, 1), padding=(1, 1), bias=False)\n  (shortcut): Sequential(\n  \
  \  (0): Conv2d(128, 256, kernel_size=(1, 1), stride=(2, 2), bias=False)\n  )\n))"
: count: 10
  value: 27725.562800000003
? "(64, 32, PreActBlock(\n  (bn1): BatchNorm2d(136, eps=1e-05, momentum=0.1, affine=True,\
  \ track_running_stats=True)\n  (conv1): Conv2d(136, 272, kernel_size=(3, 3), stride=(2,\
  \ 2), padding=(1, 1), bias=False)\n  (bn2): BatchNorm2d(272, eps=1e-05, momentum=0.1,\
  \ affine=True, track_running_stats=True)\n  (conv2): Conv2d(272, 272, kernel_size=(3,\
  \ 3), stride=(1, 1), padding=(1, 1), bias=False)\n  (shortcut): Sequential(\n  \
  \  (0): Conv2d(136, 272, kernel_size=(1, 1), stride=(2, 2), bias=False)\n  )\n))"
: count: 10
  value: 32705.746000000003
? "(64, 32, PreActBlock(\n  (bn1): BatchNorm2d(144, eps=1e-05, momentum=0.1, affine=True,\
  \ track_running_stats=True)\n  (conv1): Conv2d(144, 280, kernel_size=(3, 3), stride=(2,\
  \ 2), padding=(1, 1), bias=False)\n  (bn2): BatchNorm2d(280, eps=1e-05, momentum=0.1,\
  \ affine=True, track_running_stats=True)\n  (conv2): Conv2d(280, 280, kernel_size=(3,\
  \ 3), stride=(1, 1), padding=(1, 1), bias=False)\n  (shortcut): Sequential(\n  \
  \  (0): Conv2d(144, 280, kernel_size=(1, 1), stride=(2, 2), bias=False)\n  )\n))"
: count: 10
  value: 34535.89050000001
? "(64, 32, PreActBlock(\n  (bn1): BatchNorm2d(144, eps=1e-05, momentum=0.1, affine=True,\
  \ track_running_stats=True)\n  (conv1): Conv2d(144, 296, kernel_size=(3, 3), stride=(2,\
  \ 2), padding=(1, 1), bias=False)\n  (bn2): BatchNorm2d(296, eps=1e-05, momentum=0.1,\
  \ affine=True, track_running_stats=True)\n  (conv2): Conv2d(296, 296, kernel_size=(3,\
  \ 3), stride=(1, 1), padding=(1, 1), bias=False)\n  (shortcut): Sequential(\n  \
  \  (0): Conv2d(144, 296, kernel_size=(1, 1), stride=(2, 2), bias=False)\n  )\n))"
: count: 10
  value: 37755.318400000004
? "(64, 32, PreActBlock(\n  (bn1): BatchNorm2d(152, eps=1e-05, momentum=0.1, affine=True,\
  \ track_running_stats=True)\n  (conv1): Conv2d(152, 304, kernel_size=(3, 3), stride=(2,\
  \ 2), padding=(1, 1), bias=False)\n  (bn2): BatchNorm2d(304, eps=1e-05, momentum=0.1,\
  \ affine=True, track_running_stats=True)\n  (conv2): Conv2d(304, 304, kernel_size=(3,\
  \ 3), stride=(1, 1), padding=(1, 1), bias=False)\n  (shortcut): Sequential(\n  \
  \  (0): Conv2d(152, 304, kernel_size=(1, 1), stride=(2, 2), bias=False)\n  )\n))"
: count: 10
  value: 38880.8649
? "(64, 32, PreActBlock(\n  (bn1): BatchNorm2d(160, eps=1e-05, momentum=0.1, affine=True,\
  \ track_running_stats=True)\n  (conv1): Conv2d(160, 320, kernel_size=(3, 3), stride=(2,\
  \ 2), padding=(1, 1), bias=False)\n  (bn2): BatchNorm2d(320, eps=1e-05, momentum=0.1,\
  \ affine=True, track_running_stats=True)\n  (conv2): Conv2d(320, 320, kernel_size=(3,\
  \ 3), stride=(1, 1), padding=(1, 1), bias=False)\n  (shortcut): Sequential(\n  \
  \  (0): Conv2d(160, 320, kernel_size=(1, 1), stride=(2, 2), bias=False)\n  )\n))"
: count: 10
  value: 42016.9734
? "(64, 32, PreActBlock(\n  (bn1): BatchNorm2d(168, eps=1e-05, momentum=0.1, affine=True,\
  \ track_running_stats=True)\n  (conv1): Conv2d(168, 336, kernel_size=(3, 3), stride=(2,\
  \ 2), padding=(1, 1), bias=False)\n  (bn2): BatchNorm2d(336, eps=1e-05, momentum=0.1,\
  \ affine=True, track_running_stats=True)\n  (conv2): Conv2d(336, 336, kernel_size=(3,\
  \ 3), stride=(1, 1), padding=(1, 1), bias=False)\n  (shortcut): Sequential(\n  \
  \  (0): Conv2d(168, 336, kernel_size=(1, 1), stride=(2, 2), bias=False)\n  )\n))"
: count: 10
  value: 46977.1772
? "(64, 32, PreActBlock(\n  (bn1): BatchNorm2d(176, eps=1e-05, momentum=0.1, affine=True,\
  \ track_running_stats=True)\n  (conv1): Conv2d(176, 344, kernel_size=(3, 3), stride=(2,\
  \ 2), padding=(1, 1), bias=False)\n  (bn2): BatchNorm2d(344, eps=1e-05, momentum=0.1,\
  \ affine=True, track_running_stats=True)\n  (conv2): Conv2d(344, 344, kernel_size=(3,\
  \ 3), stride=(1, 1), padding=(1, 1), bias=False)\n  (shortcut): Sequential(\n  \
  \  (0): Conv2d(176, 344, kernel_size=(1, 1), stride=(2, 2), bias=False)\n  )\n))"
: count: 10
  value: 49112.6086
? "(64, 32, PreActBlock(\n  (bn1): BatchNorm2d(176, eps=1e-05, momentum=0.1, affine=True,\
  \ track_running_stats=True)\n  (conv1): Conv2d(176, 360, kernel_size=(3, 3), stride=(2,\
  \ 2), padding=(1, 1), bias=False)\n  (bn2): BatchNorm2d(360, eps=1e-05, momentum=0.1,\
  \ affine=True, track_running_stats=True)\n  (conv2): Conv2d(360, 360, kernel_size=(3,\
  \ 3), stride=(1, 1), padding=(1, 1), bias=False)\n  (shortcut): Sequential(\n  \
  \  (0): Conv2d(176, 360, kernel_size=(1, 1), stride=(2, 2), bias=False)\n  )\n))"
: count: 10
  value: 53880.6439
? "(64, 32, PreActBlock(\n  (bn1): BatchNorm2d(184, eps=1e-05, momentum=0.1, affine=True,\
  \ track_running_stats=True)\n  (conv1): Conv2d(184, 368, kernel_size=(3, 3), stride=(2,\
  \ 2), padding=(1, 1), bias=False)\n  (bn2): BatchNorm2d(368, eps=1e-05, momentum=0.1,\
  \ affine=True, track_running_stats=True)\n  (conv2): Conv2d(368, 368, kernel_size=(3,\
  \ 3), stride=(1, 1), padding=(1, 1), bias=False)\n  (shortcut): Sequential(\n  \
  \  (0): Conv2d(184, 368, kernel_size=(1, 1), stride=(2, 2), bias=False)\n  )\n))"
: count: 10
  value: 55588.8375
? "(64, 32, PreActBlock(\n  (bn1): BatchNorm2d(192, eps=1e-05, momentum=0.1, affine=True,\
  \ track_running_stats=True)\n  (conv1): Conv2d(192, 384, kernel_size=(3, 3), stride=(2,\
  \ 2), padding=(1, 1), bias=False)\n  (bn2): BatchNorm2d(384, eps=1e-05, momentum=0.1,\
  \ affine=True, track_running_stats=True)\n  (conv2): Conv2d(384, 384, kernel_size=(3,\
  \ 3), stride=(1, 1), padding=(1, 1), bias=False)\n  (shortcut): Sequential(\n  \
  \  (0): Conv2d(192, 384, kernel_size=(1, 1), stride=(2, 2), bias=False)\n  )\n))"
: count: 10
  value: 57532.33349999999
? "(64, 32, PreActBlock(\n  (bn1): BatchNorm2d(200, eps=1e-05, momentum=0.1, affine=True,\
  \ track_running_stats=True)\n  (conv1): Conv2d(200, 400, kernel_size=(3, 3), stride=(2,\
  \ 2), padding=(1, 1), bias=False)\n  (bn2): BatchNorm2d(400, eps=1e-05, momentum=0.1,\
  \ affine=True, track_running_stats=True)\n  (conv2): Conv2d(400, 400, kernel_size=(3,\
  \ 3), stride=(1, 1), padding=(1, 1), bias=False)\n  (shortcut): Sequential(\n  \
  \  (0): Conv2d(200, 400, kernel_size=(1, 1), stride=(2, 2), bias=False)\n  )\n))"
: count: 10
  value: 64028.971699999995
? "(64, 32, PreActBlock(\n  (bn1): BatchNorm2d(208, eps=1e-05, momentum=0.1, affine=True,\
  \ track_running_stats=True)\n  (conv1): Conv2d(208, 408, kernel_size=(3, 3), stride=(2,\
  \ 2), padding=(1, 1), bias=False)\n  (bn2): BatchNorm2d(408, eps=1e-05, momentum=0.1,\
  \ affine=True, track_running_stats=True)\n  (conv2): Conv2d(408, 408, kernel_size=(3,\
  \ 3), stride=(1, 1), padding=(1, 1), bias=False)\n  (shortcut): Sequential(\n  \
  \  (0): Conv2d(208, 408, kernel_size=(1, 1), stride=(2, 2), bias=False)\n  )\n))"
: count: 10
  value: 66831.177
? "(64, 32, PreActBlock(\n  (bn1): BatchNorm2d(208, eps=1e-05, momentum=0.1, affine=True,\
  \ track_running_stats=True)\n  (conv1): Conv2d(208, 424, kernel_size=(3, 3), stride=(2,\
  \ 2), padding=(1, 1), bias=False)\n  (bn2): BatchNorm2d(424, eps=1e-05, momentum=0.1,\
  \ affine=True, track_running_stats=True)\n  (conv2): Conv2d(424, 424, kernel_size=(3,\
  \ 3), stride=(1, 1), padding=(1, 1), bias=False)\n  (shortcut): Sequential(\n  \
  \  (0): Conv2d(208, 424, kernel_size=(1, 1), stride=(2, 2), bias=False)\n  )\n))"
: count: 10
  value: 71792.6612
? "(64, 32, PreActBlock(\n  (bn1): BatchNorm2d(216, eps=1e-05, momentum=0.1, affine=True,\
  \ track_running_stats=True)\n  (conv1): Conv2d(216, 432, kernel_size=(3, 3), stride=(2,\
  \ 2), padding=(1, 1), bias=False)\n  (bn2): BatchNorm2d(432, eps=1e-05, momentum=0.1,\
  \ affine=True, track_running_stats=True)\n  (conv2): Conv2d(432, 432, kernel_size=(3,\
  \ 3), stride=(1, 1), padding=(1, 1), bias=False)\n  (shortcut): Sequential(\n  \
  \  (0): Conv2d(216, 432, kernel_size=(1, 1), stride=(2, 2), bias=False)\n  )\n))"
: count: 10
  value: 74032.1796
? "(64, 32, PreActBlock(\n  (bn1): BatchNorm2d(224, eps=1e-05, momentum=0.1, affine=True,\
  \ track_running_stats=True)\n  (conv1): Conv2d(224, 448, kernel_size=(3, 3), stride=(2,\
  \ 2), padding=(1, 1), bias=False)\n  (bn2): BatchNorm2d(448, eps=1e-05, momentum=0.1,\
  \ affine=True, track_running_stats=True)\n  (conv2): Conv2d(448, 448, kernel_size=(3,\
  \ 3), stride=(1, 1), padding=(1, 1), bias=False)\n  (shortcut): Sequential(\n  \
  \  (0): Conv2d(224, 448, kernel_size=(1, 1), stride=(2, 2), bias=False)\n  )\n))"
: count: 10
  value: 77809.47829999999
? "(64, 32, PreActBlock(\n  (bn1): BatchNorm2d(232, eps=1e-05, momentum=0.1, affine=True,\
  \ track_running_stats=True)\n  (conv1): Conv2d(232, 464, kernel_size=(3, 3), stride=(2,\
  \ 2), padding=(1, 1), bias=False)\n  (bn2): BatchNorm2d(464, eps=1e-05, momentum=0.1,\
  \ affine=True, track_running_stats=True)\n  (conv2): Conv2d(464, 464, kernel_size=(3,\
  \ 3), stride=(1, 1), padding=(1, 1), bias=False)\n  (shortcut): Sequential(\n  \
  \  (0): Conv2d(232, 464, kernel_size=(1, 1), stride=(2, 2), bias=False)\n  )\n))"
: count: 10
  value: 86061.01709999998
? "(64, 32, PreActBlock(\n  (bn1): BatchNorm2d(240, eps=1e-05, momentum=0.1, affine=True,\
  \ track_running_stats=True)\n  (conv1): Conv2d(240, 472, kernel_size=(3, 3), stride=(2,\
  \ 2), padding=(1, 1), bias=False)\n  (bn2): BatchNorm2d(472, eps=1e-05, momentum=0.1,\
  \ affine=True, track_running_stats=True)\n  (conv2): Conv2d(472, 472, kernel_size=(3,\
  \ 3), stride=(1, 1), padding=(1, 1), bias=False)\n  (shortcut): Sequential(\n  \
  \  (0): Conv2d(240, 472, kernel_size=(1, 1), stride=(2, 2), bias=False)\n  )\n))"
: count: 10
  value: 86984.1478
? "(64, 32, PreActBlock(\n  (bn1): BatchNorm2d(240, eps=1e-05, momentum=0.1, affine=True,\
  \ track_running_stats=True)\n  (conv1): Conv2d(240, 488, kernel_size=(3, 3), stride=(2,\
  \ 2), padding=(1, 1), bias=False)\n  (bn2): BatchNorm2d(488, eps=1e-05, momentum=0.1,\
  \ affine=True, track_running_stats=True)\n  (conv2): Conv2d(488, 488, kernel_size=(3,\
  \ 3), stride=(1, 1), padding=(1, 1), bias=False)\n  (shortcut): Sequential(\n  \
  \  (0): Conv2d(240, 488, kernel_size=(1, 1), stride=(2, 2), bias=False)\n  )\n))"
: count: 10
  value: 94532.1737
? "(64, 32, PreActBlock(\n  (bn1): BatchNorm2d(248, eps=1e-05, momentum=0.1, affine=True,\
  \ track_running_stats=True)\n  (conv1): Conv2d(248, 496, kernel_size=(3, 3), stride=(2,\
  \ 2), padding=(1, 1), bias=False)\n  (bn2): BatchNorm2d(496, eps=1e-05, momentum=0.1,\
  \ affine=True, track_running_stats=True)\n  (conv2): Conv2d(496, 496, kernel_size=(3,\
  \ 3), stride=(1, 1), padding=(1, 1), bias=False)\n  (shortcut): Sequential(\n  \
  \  (0): Conv2d(248, 496, kernel_size=(1, 1), stride=(2, 2), bias=False)\n  )\n))"
: count: 10
  value: 99233.8278
? "(64, 32, PreActBlock(\n  (bn1): BatchNorm2d(256, eps=1e-05, momentum=0.1, affine=True,\
  \ track_running_stats=True)\n  (conv1): Conv2d(256, 512, kernel_size=(3, 3), stride=(2,\
  \ 2), padding=(1, 1), bias=False)\n  (bn2): BatchNorm2d(512, eps=1e-05, momentum=0.1,\
  \ affine=True, track_running_stats=True)\n  (conv2): Conv2d(512, 512, kernel_size=(3,\
  \ 3), stride=(1, 1), padding=(1, 1), bias=False)\n  (shortcut): Sequential(\n  \
  \  (0): Conv2d(256, 512, kernel_size=(1, 1), stride=(2, 2), bias=False)\n  )\n))"
: count: 10
  value: 103664.6809
? "(64, 32, PreActBlock(\n  (bn1): BatchNorm2d(264, eps=1e-05, momentum=0.1, affine=True,\
  \ track_running_stats=True)\n  (conv1): Conv2d(264, 528, kernel_size=(3, 3), stride=(2,\
  \ 2), padding=(1, 1), bias=False)\n  (bn2): BatchNorm2d(528, eps=1e-05, momentum=0.1,\
  \ affine=True, track_running_stats=True)\n  (conv2): Conv2d(528, 528, kernel_size=(3,\
  \ 3), stride=(1, 1), padding=(1, 1), bias=False)\n  (shortcut): Sequential(\n  \
  \  (0): Conv2d(264, 528, kernel_size=(1, 1), stride=(2, 2), bias=False)\n  )\n))"
: count: 10
  value: 116235.58219999999
? "(64, 32, PreActBlock(\n  (bn1): BatchNorm2d(272, eps=1e-05, momentum=0.1, affine=True,\
  \ track_running_stats=True)\n  (conv1): Conv2d(272, 536, kernel_size=(3, 3), stride=(2,\
  \ 2), padding=(1, 1), bias=False)\n  (bn2): BatchNorm2d(536, eps=1e-05, momentum=0.1,\
  \ affine=True, track_running_stats=True)\n  (conv2): Conv2d(536, 536, kernel_size=(3,\
  \ 3), stride=(1, 1), padding=(1, 1), bias=False)\n  (shortcut): Sequential(\n  \
  \  (0): Conv2d(272, 536, kernel_size=(1, 1), stride=(2, 2), bias=False)\n  )\n))"
: count: 10
  value: 117792.27309999999
? "(64, 32, PreActBlock(\n  (bn1): BatchNorm2d(272, eps=1e-05, momentum=0.1, affine=True,\
  \ track_running_stats=True)\n  (conv1): Conv2d(272, 552, kernel_size=(3, 3), stride=(2,\
  \ 2), padding=(1, 1), bias=False)\n  (bn2): BatchNorm2d(552, eps=1e-05, momentum=0.1,\
  \ affine=True, track_running_stats=True)\n  (conv2): Conv2d(552, 552, kernel_size=(3,\
  \ 3), stride=(1, 1), padding=(1, 1), bias=False)\n  (shortcut): Sequential(\n  \
  \  (0): Conv2d(272, 552, kernel_size=(1, 1), stride=(2, 2), bias=False)\n  )\n))"
: count: 10
  value: 118705.11220000002
? "(64, 32, PreActBlock(\n  (bn1): BatchNorm2d(280, eps=1e-05, momentum=0.1, affine=True,\
  \ track_running_stats=True)\n  (conv1): Conv2d(280, 560, kernel_size=(3, 3), stride=(2,\
  \ 2), padding=(1, 1), bias=False)\n  (bn2): BatchNorm2d(560, eps=1e-05, momentum=0.1,\
  \ affine=True, track_running_stats=True)\n  (conv2): Conv2d(560, 560, kernel_size=(3,\
  \ 3), stride=(1, 1), padding=(1, 1), bias=False)\n  (shortcut): Sequential(\n  \
  \  (0): Conv2d(280, 560, kernel_size=(1, 1), stride=(2, 2), bias=False)\n  )\n))"
: count: 10
  value: 121268.0683
? "(64, 32, PreActBlock(\n  (bn1): BatchNorm2d(288, eps=1e-05, momentum=0.1, affine=True,\
  \ track_running_stats=True)\n  (conv1): Conv2d(288, 576, kernel_size=(3, 3), stride=(2,\
  \ 2), padding=(1, 1), bias=False)\n  (bn2): BatchNorm2d(576, eps=1e-05, momentum=0.1,\
  \ affine=True, track_running_stats=True)\n  (conv2): Conv2d(576, 576, kernel_size=(3,\
  \ 3), stride=(1, 1), padding=(1, 1), bias=False)\n  (shortcut): Sequential(\n  \
  \  (0): Conv2d(288, 576, kernel_size=(1, 1), stride=(2, 2), bias=False)\n  )\n))"
: count: 10
  value: 124508.9889
? "(64, 32, PreActBlock(\n  (bn1): BatchNorm2d(296, eps=1e-05, momentum=0.1, affine=True,\
  \ track_running_stats=True)\n  (conv1): Conv2d(296, 592, kernel_size=(3, 3), stride=(2,\
  \ 2), padding=(1, 1), bias=False)\n  (bn2): BatchNorm2d(592, eps=1e-05, momentum=0.1,\
  \ affine=True, track_running_stats=True)\n  (conv2): Conv2d(592, 592, kernel_size=(3,\
  \ 3), stride=(1, 1), padding=(1, 1), bias=False)\n  (shortcut): Sequential(\n  \
  \  (0): Conv2d(296, 592, kernel_size=(1, 1), stride=(2, 2), bias=False)\n  )\n))"
: count: 10
  value: 134124.4714
? "(64, 32, PreActBlock(\n  (bn1): BatchNorm2d(304, eps=1e-05, momentum=0.1, affine=True,\
  \ track_running_stats=True)\n  (conv1): Conv2d(304, 600, kernel_size=(3, 3), stride=(2,\
  \ 2), padding=(1, 1), bias=False)\n  (bn2): BatchNorm2d(600, eps=1e-05, momentum=0.1,\
  \ affine=True, track_running_stats=True)\n  (conv2): Conv2d(600, 600, kernel_size=(3,\
  \ 3), stride=(1, 1), padding=(1, 1), bias=False)\n  (shortcut): Sequential(\n  \
  \  (0): Conv2d(304, 600, kernel_size=(1, 1), stride=(2, 2), bias=False)\n  )\n))"
: count: 10
  value: 134569.63539999997
? "(64, 32, PreActBlock(\n  (bn1): BatchNorm2d(304, eps=1e-05, momentum=0.1, affine=True,\
  \ track_running_stats=True)\n  (conv1): Conv2d(304, 616, kernel_size=(3, 3), stride=(2,\
  \ 2), padding=(1, 1), bias=False)\n  (bn2): BatchNorm2d(616, eps=1e-05, momentum=0.1,\
  \ affine=True, track_running_stats=True)\n  (conv2): Conv2d(616, 616, kernel_size=(3,\
  \ 3), stride=(1, 1), padding=(1, 1), bias=False)\n  (shortcut): Sequential(\n  \
  \  (0): Conv2d(304, 616, kernel_size=(1, 1), stride=(2, 2), bias=False)\n  )\n))"
: count: 10
  value: 142999.93829999998
? "(64, 32, PreActBlock(\n  (bn1): BatchNorm2d(312, eps=1e-05, momentum=0.1, affine=True,\
  \ track_running_stats=True)\n  (conv1): Conv2d(312, 624, kernel_size=(3, 3), stride=(2,\
  \ 2), padding=(1, 1), bias=False)\n  (bn2): BatchNorm2d(624, eps=1e-05, momentum=0.1,\
  \ affine=True, track_running_stats=True)\n  (conv2): Conv2d(624, 624, kernel_size=(3,\
  \ 3), stride=(1, 1), padding=(1, 1), bias=False)\n  (shortcut): Sequential(\n  \
  \  (0): Conv2d(312, 624, kernel_size=(1, 1), stride=(2, 2), bias=False)\n  )\n))"
: count: 10
  value: 144690.3288
? "(64, 32, PreActBlock(\n  (bn1): BatchNorm2d(320, eps=1e-05, momentum=0.1, affine=True,\
  \ track_running_stats=True)\n  (conv1): Conv2d(320, 640, kernel_size=(3, 3), stride=(2,\
  \ 2), padding=(1, 1), bias=False)\n  (bn2): BatchNorm2d(640, eps=1e-05, momentum=0.1,\
  \ affine=True, track_running_stats=True)\n  (conv2): Conv2d(640, 640, kernel_size=(3,\
  \ 3), stride=(1, 1), padding=(1, 1), bias=False)\n  (shortcut): Sequential(\n  \
  \  (0): Conv2d(320, 640, kernel_size=(1, 1), stride=(2, 2), bias=False)\n  )\n))"
: count: 10
  value: 151181.07069999998
? "(64, 32, PreActBlock(\n  (bn1): BatchNorm2d(64, eps=1e-05, momentum=0.1, affine=True,\
  \ track_running_stats=True)\n  (conv1): Conv2d(64, 128, kernel_size=(3, 3), stride=(2,\
  \ 2), padding=(1, 1), bias=False)\n  (bn2): BatchNorm2d(128, eps=1e-05, momentum=0.1,\
  \ affine=True, track_running_stats=True)\n  (conv2): Conv2d(128, 128, kernel_size=(3,\
  \ 3), stride=(1, 1), padding=(1, 1), bias=False)\n  (shortcut): Sequential(\n  \
  \  (0): Conv2d(64, 128, kernel_size=(1, 1), stride=(2, 2), bias=False)\n  )\n))"
: count: 10
  value: 9731.6173
? "(64, 32, PreActBlock(\n  (bn1): BatchNorm2d(72, eps=1e-05, momentum=0.1, affine=True,\
  \ track_running_stats=True)\n  (conv1): Conv2d(72, 144, kernel_size=(3, 3), stride=(2,\
  \ 2), padding=(1, 1), bias=False)\n  (bn2): BatchNorm2d(144, eps=1e-05, momentum=0.1,\
  \ affine=True, track_running_stats=True)\n  (conv2): Conv2d(144, 144, kernel_size=(3,\
  \ 3), stride=(1, 1), padding=(1, 1), bias=False)\n  (shortcut): Sequential(\n  \
  \  (0): Conv2d(72, 144, kernel_size=(1, 1), stride=(2, 2), bias=False)\n  )\n))"
: count: 10
  value: 12091.2122
? "(64, 32, PreActBlock(\n  (bn1): BatchNorm2d(80, eps=1e-05, momentum=0.1, affine=True,\
  \ track_running_stats=True)\n  (conv1): Conv2d(80, 152, kernel_size=(3, 3), stride=(2,\
  \ 2), padding=(1, 1), bias=False)\n  (bn2): BatchNorm2d(152, eps=1e-05, momentum=0.1,\
  \ affine=True, track_running_stats=True)\n  (conv2): Conv2d(152, 152, kernel_size=(3,\
  \ 3), stride=(1, 1), padding=(1, 1), bias=False)\n  (shortcut): Sequential(\n  \
  \  (0): Conv2d(80, 152, kernel_size=(1, 1), stride=(2, 2), bias=False)\n  )\n))"
: count: 10
  value: 13250.488499999998
? "(64, 32, PreActBlock(\n  (bn1): BatchNorm2d(80, eps=1e-05, momentum=0.1, affine=True,\
  \ track_running_stats=True)\n  (conv1): Conv2d(80, 168, kernel_size=(3, 3), stride=(2,\
  \ 2), padding=(1, 1), bias=False)\n  (bn2): BatchNorm2d(168, eps=1e-05, momentum=0.1,\
  \ affine=True, track_running_stats=True)\n  (conv2): Conv2d(168, 168, kernel_size=(3,\
  \ 3), stride=(1, 1), padding=(1, 1), bias=False)\n  (shortcut): Sequential(\n  \
  \  (0): Conv2d(80, 168, kernel_size=(1, 1), stride=(2, 2), bias=False)\n  )\n))"
: count: 10
  value: 14554.7968
? "(64, 32, PreActBlock(\n  (bn1): BatchNorm2d(88, eps=1e-05, momentum=0.1, affine=True,\
  \ track_running_stats=True)\n  (conv1): Conv2d(88, 176, kernel_size=(3, 3), stride=(2,\
  \ 2), padding=(1, 1), bias=False)\n  (bn2): BatchNorm2d(176, eps=1e-05, momentum=0.1,\
  \ affine=True, track_running_stats=True)\n  (conv2): Conv2d(176, 176, kernel_size=(3,\
  \ 3), stride=(1, 1), padding=(1, 1), bias=False)\n  (shortcut): Sequential(\n  \
  \  (0): Conv2d(88, 176, kernel_size=(1, 1), stride=(2, 2), bias=False)\n  )\n))"
: count: 10
  value: 16053.6962
? "(64, 32, PreActBlock(\n  (bn1): BatchNorm2d(96, eps=1e-05, momentum=0.1, affine=True,\
  \ track_running_stats=True)\n  (conv1): Conv2d(96, 192, kernel_size=(3, 3), stride=(2,\
  \ 2), padding=(1, 1), bias=False)\n  (bn2): BatchNorm2d(192, eps=1e-05, momentum=0.1,\
  \ affine=True, track_running_stats=True)\n  (conv2): Conv2d(192, 192, kernel_size=(3,\
  \ 3), stride=(1, 1), padding=(1, 1), bias=False)\n  (shortcut): Sequential(\n  \
  \  (0): Conv2d(96, 192, kernel_size=(1, 1), stride=(2, 2), bias=False)\n  )\n))"
: count: 10
  value: 18277.3329
(64, 64, Conv2d(3, 64, kernel_size=(3, 3), stride=(1, 1), padding=(1, 1), bias=False)):
  count: 410
  value: 1197.716804878048
? "(64, 64, PreActBlock(\n  (bn1): BatchNorm2d(104, eps=1e-05, momentum=0.1, affine=True,\
  \ track_running_stats=True)\n  (conv1): Conv2d(104, 104, kernel_size=(3, 3), stride=(1,\
  \ 1), padding=(1, 1), bias=False)\n  (bn2): BatchNorm2d(104, eps=1e-05, momentum=0.1,\
  \ affine=True, track_running_stats=True)\n  (conv2): Conv2d(104, 104, kernel_size=(3,\
  \ 3), stride=(1, 1), padding=(1, 1), bias=False)\n))"
: count: 10
  value: 23087.4883
? "(64, 64, PreActBlock(\n  (bn1): BatchNorm2d(112, eps=1e-05, momentum=0.1, affine=True,\
  \ track_running_stats=True)\n  (conv1): Conv2d(112, 112, kernel_size=(3, 3), stride=(1,\
  \ 1), padding=(1, 1), bias=False)\n  (bn2): BatchNorm2d(112, eps=1e-05, momentum=0.1,\
  \ affine=True, track_running_stats=True)\n  (conv2): Conv2d(112, 112, kernel_size=(3,\
  \ 3), stride=(1, 1), padding=(1, 1), bias=False)\n))"
: count: 20
  value: 24640.663799999995
? "(64, 64, PreActBlock(\n  (bn1): BatchNorm2d(120, eps=1e-05, momentum=0.1, affine=True,\
  \ track_running_stats=True)\n  (conv1): Conv2d(120, 120, kernel_size=(3, 3), stride=(1,\
  \ 1), padding=(1, 1), bias=False)\n  (bn2): BatchNorm2d(120, eps=1e-05, momentum=0.1,\
  \ affine=True, track_running_stats=True)\n  (conv2): Conv2d(120, 120, kernel_size=(3,\
  \ 3), stride=(1, 1), padding=(1, 1), bias=False)\n))"
: count: 10
  value: 27560.5037
? "(64, 64, PreActBlock(\n  (bn1): BatchNorm2d(128, eps=1e-05, momentum=0.1, affine=True,\
  \ track_running_stats=True)\n  (conv1): Conv2d(128, 128, kernel_size=(3, 3), stride=(1,\
  \ 1), padding=(1, 1), bias=False)\n  (bn2): BatchNorm2d(128, eps=1e-05, momentum=0.1,\
  \ affine=True, track_running_stats=True)\n  (conv2): Conv2d(128, 128, kernel_size=(3,\
  \ 3), stride=(1, 1), padding=(1, 1), bias=False)\n))"
: count: 10
  value: 28972.051199999998
? "(64, 64, PreActBlock(\n  (bn1): BatchNorm2d(136, eps=1e-05, momentum=0.1, affine=True,\
  \ track_running_stats=True)\n  (conv1): Conv2d(136, 136, kernel_size=(3, 3), stride=(1,\
  \ 1), padding=(1, 1), bias=False)\n  (bn2): BatchNorm2d(136, eps=1e-05, momentum=0.1,\
  \ affine=True, track_running_stats=True)\n  (conv2): Conv2d(136, 136, kernel_size=(3,\
  \ 3), stride=(1, 1), padding=(1, 1), bias=False)\n))"
: count: 10
  value: 36928.0679
? "(64, 64, PreActBlock(\n  (bn1): BatchNorm2d(144, eps=1e-05, momentum=0.1, affine=True,\
  \ track_running_stats=True)\n  (conv1): Conv2d(144, 144, kernel_size=(3, 3), stride=(1,\
  \ 1), padding=(1, 1), bias=False)\n  (bn2): BatchNorm2d(144, eps=1e-05, momentum=0.1,\
  \ affine=True, track_running_stats=True)\n  (conv2): Conv2d(144, 144, kernel_size=(3,\
  \ 3), stride=(1, 1), padding=(1, 1), bias=False)\n))"
: count: 20
  value: 39065.604999999996
? "(64, 64, PreActBlock(\n  (bn1): BatchNorm2d(152, eps=1e-05, momentum=0.1, affine=True,\
  \ track_running_stats=True)\n  (conv1): Conv2d(152, 152, kernel_size=(3, 3), stride=(1,\
  \ 1), padding=(1, 1), bias=False)\n  (bn2): BatchNorm2d(152, eps=1e-05, momentum=0.1,\
  \ affine=True, track_running_stats=True)\n  (conv2): Conv2d(152, 152, kernel_size=(3,\
  \ 3), stride=(1, 1), padding=(1, 1), bias=False)\n))"
: count: 10
  value: 41965.692200000005
? "(64, 64, PreActBlock(\n  (bn1): BatchNorm2d(160, eps=1e-05, momentum=0.1, affine=True,\
  \ track_running_stats=True)\n  (conv1): Conv2d(160, 160, kernel_size=(3, 3), stride=(1,\
  \ 1), padding=(1, 1), bias=False)\n  (bn2): BatchNorm2d(160, eps=1e-05, momentum=0.1,\
  \ affine=True, track_running_stats=True)\n  (conv2): Conv2d(160, 160, kernel_size=(3,\
  \ 3), stride=(1, 1), padding=(1, 1), bias=False)\n))"
: count: 10
  value: 44649.465899999996
? "(64, 64, PreActBlock(\n  (bn1): BatchNorm2d(168, eps=1e-05, momentum=0.1, affine=True,\
  \ track_running_stats=True)\n  (conv1): Conv2d(168, 168, kernel_size=(3, 3), stride=(1,\
  \ 1), padding=(1, 1), bias=False)\n  (bn2): BatchNorm2d(168, eps=1e-05, momentum=0.1,\
  \ affine=True, track_running_stats=True)\n  (conv2): Conv2d(168, 168, kernel_size=(3,\
  \ 3), stride=(1, 1), padding=(1, 1), bias=False)\n))"
: count: 10
  value: 54127.1782
? "(64, 64, PreActBlock(\n  (bn1): BatchNorm2d(176, eps=1e-05, momentum=0.1, affine=True,\
  \ track_running_stats=True)\n  (conv1): Conv2d(176, 176, kernel_size=(3, 3), stride=(1,\
  \ 1), padding=(1, 1), bias=False)\n  (bn2): BatchNorm2d(176, eps=1e-05, momentum=0.1,\
  \ affine=True, track_running_stats=True)\n  (conv2): Conv2d(176, 176, kernel_size=(3,\
  \ 3), stride=(1, 1), padding=(1, 1), bias=False)\n))"
: count: 20
  value: 57804.902449999994
? "(64, 64, PreActBlock(\n  (bn1): BatchNorm2d(184, eps=1e-05, momentum=0.1, affine=True,\
  \ track_running_stats=True)\n  (conv1): Conv2d(184, 184, kernel_size=(3, 3), stride=(1,\
  \ 1), padding=(1, 1), bias=False)\n  (bn2): BatchNorm2d(184, eps=1e-05, momentum=0.1,\
  \ affine=True, track_running_stats=True)\n  (conv2): Conv2d(184, 184, kernel_size=(3,\
  \ 3), stride=(1, 1), padding=(1, 1), bias=False)\n))"
: count: 10
  value: 59720.24269999999
? "(64, 64, PreActBlock(\n  (bn1): BatchNorm2d(192, eps=1e-05, momentum=0.1, affine=True,\
  \ track_running_stats=True)\n  (conv1): Conv2d(192, 192, kernel_size=(3, 3), stride=(1,\
  \ 1), padding=(1, 1), bias=False)\n  (bn2): BatchNorm2d(192, eps=1e-05, momentum=0.1,\
  \ affine=True, track_running_stats=True)\n  (conv2): Conv2d(192, 192, kernel_size=(3,\
  \ 3), stride=(1, 1), padding=(1, 1), bias=False)\n))"
: count: 10
  value: 62435.4702
? "(64, 64, PreActBlock(\n  (bn1): BatchNorm2d(200, eps=1e-05, momentum=0.1, affine=True,\
  \ track_running_stats=True)\n  (conv1): Conv2d(200, 200, kernel_size=(3, 3), stride=(1,\
  \ 1), padding=(1, 1), bias=False)\n  (bn2): BatchNorm2d(200, eps=1e-05, momentum=0.1,\
  \ affine=True, track_running_stats=True)\n  (conv2): Conv2d(200, 200, kernel_size=(3,\
  \ 3), stride=(1, 1), padding=(1, 1), bias=False)\n))"
: count: 10
  value: 75156.0798
? "(64, 64, PreActBlock(\n  (bn1): BatchNorm2d(208, eps=1e-05, momentum=0.1, affine=True,\
  \ track_running_stats=True)\n  (conv1): Conv2d(208, 208, kernel_size=(3, 3), stride=(1,\
  \ 1), padding=(1, 1), bias=False)\n  (bn2): BatchNorm2d(208, eps=1e-05, momentum=0.1,\
  \ affine=True, track_running_stats=True)\n  (conv2): Conv2d(208, 208, kernel_size=(3,\
  \ 3), stride=(1, 1), padding=(1, 1), bias=False)\n))"
: count: 20
  value: 78664.116
? "(64, 64, PreActBlock(\n  (bn1): BatchNorm2d(216, eps=1e-05, momentum=0.1, affine=True,\
  \ track_running_stats=True)\n  (conv1): Conv2d(216, 216, kernel_size=(3, 3), stride=(1,\
  \ 1), padding=(1, 1), bias=False)\n  (bn2): BatchNorm2d(216, eps=1e-05, momentum=0.1,\
  \ affine=True, track_running_stats=True)\n  (conv2): Conv2d(216, 216, kernel_size=(3,\
  \ 3), stride=(1, 1), padding=(1, 1), bias=False)\n))"
: count: 10
  value: 82723.10500000001
? "(64, 64, PreActBlock(\n  (bn1): BatchNorm2d(224, eps=1e-05, momentum=0.1, affine=True,\
  \ track_running_stats=True)\n  (conv1): Conv2d(224, 224, kernel_size=(3, 3), stride=(1,\
  \ 1), padding=(1, 1), bias=False)\n  (bn2): BatchNorm2d(224, eps=1e-05, momentum=0.1,\
  \ affine=True, track_running_stats=True)\n  (conv2): Conv2d(224, 224, kernel_size=(3,\
  \ 3), stride=(1, 1), padding=(1, 1), bias=False)\n))"
: count: 10
  value: 85137.54690000002
? "(64, 64, PreActBlock(\n  (bn1): BatchNorm2d(232, eps=1e-05, momentum=0.1, affine=True,\
  \ track_running_stats=True)\n  (conv1): Conv2d(232, 232, kernel_size=(3, 3), stride=(1,\
  \ 1), padding=(1, 1), bias=False)\n  (bn2): BatchNorm2d(232, eps=1e-05, momentum=0.1,\
  \ affine=True, track_running_stats=True)\n  (conv2): Conv2d(232, 232, kernel_size=(3,\
  \ 3), stride=(1, 1), padding=(1, 1), bias=False)\n))"
: count: 10
  value: 97350.30350000001
? "(64, 64, PreActBlock(\n  (bn1): BatchNorm2d(240, eps=1e-05, momentum=0.1, affine=True,\
  \ track_running_stats=True)\n  (conv1): Conv2d(240, 240, kernel_size=(3, 3), stride=(1,\
  \ 1), padding=(1, 1), bias=False)\n  (bn2): BatchNorm2d(240, eps=1e-05, momentum=0.1,\
  \ affine=True, track_running_stats=True)\n  (conv2): Conv2d(240, 240, kernel_size=(3,\
  \ 3), stride=(1, 1), padding=(1, 1), bias=False)\n))"
: count: 20
  value: 101441.07815000002
? "(64, 64, PreActBlock(\n  (bn1): BatchNorm2d(248, eps=1e-05, momentum=0.1, affine=True,\
  \ track_running_stats=True)\n  (conv1): Conv2d(248, 248, kernel_size=(3, 3), stride=(1,\
  \ 1), padding=(1, 1), bias=False)\n  (bn2): BatchNorm2d(248, eps=1e-05, momentum=0.1,\
  \ affine=True, track_running_stats=True)\n  (conv2): Conv2d(248, 248, kernel_size=(3,\
  \ 3), stride=(1, 1), padding=(1, 1), bias=False)\n))"
: count: 10
  value: 106130.26539999999
? "(64, 64, PreActBlock(\n  (bn1): BatchNorm2d(256, eps=1e-05, momentum=0.1, affine=True,\
  \ track_running_stats=True)\n  (conv1): Conv2d(256, 256, kernel_size=(3, 3), stride=(1,\
  \ 1), padding=(1, 1), bias=False)\n  (bn2): BatchNorm2d(256, eps=1e-05, momentum=0.1,\
  \ affine=True, track_running_stats=True)\n  (conv2): Conv2d(256, 256, kernel_size=(3,\
  \ 3), stride=(1, 1), padding=(1, 1), bias=False)\n))"
: count: 10
  value: 115388.5678
? "(64, 64, PreActBlock(\n  (bn1): BatchNorm2d(264, eps=1e-05, momentum=0.1, affine=True,\
  \ track_running_stats=True)\n  (conv1): Conv2d(264, 264, kernel_size=(3, 3), stride=(1,\
  \ 1), padding=(1, 1), bias=False)\n  (bn2): BatchNorm2d(264, eps=1e-05, momentum=0.1,\
  \ affine=True, track_running_stats=True)\n  (conv2): Conv2d(264, 264, kernel_size=(3,\
  \ 3), stride=(1, 1), padding=(1, 1), bias=False)\n))"
: count: 10
  value: 131201.72060000003
? "(64, 64, PreActBlock(\n  (bn1): BatchNorm2d(272, eps=1e-05, momentum=0.1, affine=True,\
  \ track_running_stats=True)\n  (conv1): Conv2d(272, 272, kernel_size=(3, 3), stride=(1,\
  \ 1), padding=(1, 1), bias=False)\n  (bn2): BatchNorm2d(272, eps=1e-05, momentum=0.1,\
  \ affine=True, track_running_stats=True)\n  (conv2): Conv2d(272, 272, kernel_size=(3,\
  \ 3), stride=(1, 1), padding=(1, 1), bias=False)\n))"
: count: 20
  value: 134869.94744999998
? "(64, 64, PreActBlock(\n  (bn1): BatchNorm2d(280, eps=1e-05, momentum=0.1, affine=True,\
  \ track_running_stats=True)\n  (conv1): Conv2d(280, 280, kernel_size=(3, 3), stride=(1,\
  \ 1), padding=(1, 1), bias=False)\n  (bn2): BatchNorm2d(280, eps=1e-05, momentum=0.1,\
  \ affine=True, track_running_stats=True)\n  (conv2): Conv2d(280, 280, kernel_size=(3,\
  \ 3), stride=(1, 1), padding=(1, 1), bias=False)\n))"
: count: 10
  value: 132381.2363
? "(64, 64, PreActBlock(\n  (bn1): BatchNorm2d(288, eps=1e-05, momentum=0.1, affine=True,\
  \ track_running_stats=True)\n  (conv1): Conv2d(288, 288, kernel_size=(3, 3), stride=(1,\
  \ 1), padding=(1, 1), bias=False)\n  (bn2): BatchNorm2d(288, eps=1e-05, momentum=0.1,\
  \ affine=True, track_running_stats=True)\n  (conv2): Conv2d(288, 288, kernel_size=(3,\
  \ 3), stride=(1, 1), padding=(1, 1), bias=False)\n))"
: count: 10
  value: 139114.39810000002
? "(64, 64, PreActBlock(\n  (bn1): BatchNorm2d(296, eps=1e-05, momentum=0.1, affine=True,\
  \ track_running_stats=True)\n  (conv1): Conv2d(296, 296, kernel_size=(3, 3), stride=(1,\
  \ 1), padding=(1, 1), bias=False)\n  (bn2): BatchNorm2d(296, eps=1e-05, momentum=0.1,\
  \ affine=True, track_running_stats=True)\n  (conv2): Conv2d(296, 296, kernel_size=(3,\
  \ 3), stride=(1, 1), padding=(1, 1), bias=False)\n))"
: count: 10
  value: 155842.7197
? "(64, 64, PreActBlock(\n  (bn1): BatchNorm2d(304, eps=1e-05, momentum=0.1, affine=True,\
  \ track_running_stats=True)\n  (conv1): Conv2d(304, 304, kernel_size=(3, 3), stride=(1,\
  \ 1), padding=(1, 1), bias=False)\n  (bn2): BatchNorm2d(304, eps=1e-05, momentum=0.1,\
  \ affine=True, track_running_stats=True)\n  (conv2): Conv2d(304, 304, kernel_size=(3,\
  \ 3), stride=(1, 1), padding=(1, 1), bias=False)\n))"
: count: 20
  value: 161849.38905000003
? "(64, 64, PreActBlock(\n  (bn1): BatchNorm2d(312, eps=1e-05, momentum=0.1, affine=True,\
  \ track_running_stats=True)\n  (conv1): Conv2d(312, 312, kernel_size=(3, 3), stride=(1,\
  \ 1), padding=(1, 1), bias=False)\n  (bn2): BatchNorm2d(312, eps=1e-05, momentum=0.1,\
  \ affine=True, track_running_stats=True)\n  (conv2): Conv2d(312, 312, kernel_size=(3,\
  \ 3), stride=(1, 1), padding=(1, 1), bias=False)\n))"
: count: 10
  value: 163107.73909999998
? "(64, 64, PreActBlock(\n  (bn1): BatchNorm2d(320, eps=1e-05, momentum=0.1, affine=True,\
  \ track_running_stats=True)\n  (conv1): Conv2d(320, 320, kernel_size=(3, 3), stride=(1,\
  \ 1), padding=(1, 1), bias=False)\n  (bn2): BatchNorm2d(320, eps=1e-05, momentum=0.1,\
  \ affine=True, track_running_stats=True)\n  (conv2): Conv2d(320, 320, kernel_size=(3,\
  \ 3), stride=(1, 1), padding=(1, 1), bias=False)\n))"
: count: 10
  value: 169325.21480000002
? "(64, 64, PreActBlock(\n  (bn1): BatchNorm2d(64, eps=1e-05, momentum=0.1, affine=True,\
  \ track_running_stats=True)\n  (conv1): Conv2d(64, 104, kernel_size=(3, 3), stride=(1,\
  \ 1), padding=(1, 1), bias=False)\n  (bn2): BatchNorm2d(104, eps=1e-05, momentum=0.1,\
  \ affine=True, track_running_stats=True)\n  (conv2): Conv2d(104, 104, kernel_size=(3,\
  \ 3), stride=(1, 1), padding=(1, 1), bias=False)\n  (shortcut): Sequential(\n  \
  \  (0): Conv2d(64, 104, kernel_size=(1, 1), stride=(1, 1), bias=False)\n  )\n))"
: count: 10
  value: 22680.0413
? "(64, 64, PreActBlock(\n  (bn1): BatchNorm2d(64, eps=1e-05, momentum=0.1, affine=True,\
  \ track_running_stats=True)\n  (conv1): Conv2d(64, 112, kernel_size=(3, 3), stride=(1,\
  \ 1), padding=(1, 1), bias=False)\n  (bn2): BatchNorm2d(112, eps=1e-05, momentum=0.1,\
  \ affine=True, track_running_stats=True)\n  (conv2): Conv2d(112, 112, kernel_size=(3,\
  \ 3), stride=(1, 1), padding=(1, 1), bias=False)\n  (shortcut): Sequential(\n  \
  \  (0): Conv2d(64, 112, kernel_size=(1, 1), stride=(1, 1), bias=False)\n  )\n))"
: count: 20
  value: 23186.868349999997
? "(64, 64, PreActBlock(\n  (bn1): BatchNorm2d(64, eps=1e-05, momentum=0.1, affine=True,\
  \ track_running_stats=True)\n  (conv1): Conv2d(64, 120, kernel_size=(3, 3), stride=(1,\
  \ 1), padding=(1, 1), bias=False)\n  (bn2): BatchNorm2d(120, eps=1e-05, momentum=0.1,\
  \ affine=True, track_running_stats=True)\n  (conv2): Conv2d(120, 120, kernel_size=(3,\
  \ 3), stride=(1, 1), padding=(1, 1), bias=False)\n  (shortcut): Sequential(\n  \
  \  (0): Conv2d(64, 120, kernel_size=(1, 1), stride=(1, 1), bias=False)\n  )\n))"
: count: 10
  value: 24233.0418
? "(64, 64, PreActBlock(\n  (bn1): BatchNorm2d(64, eps=1e-05, momentum=0.1, affine=True,\
  \ track_running_stats=True)\n  (conv1): Conv2d(64, 128, kernel_size=(3, 3), stride=(1,\
  \ 1), padding=(1, 1), bias=False)\n  (bn2): BatchNorm2d(128, eps=1e-05, momentum=0.1,\
  \ affine=True, track_running_stats=True)\n  (conv2): Conv2d(128, 128, kernel_size=(3,\
  \ 3), stride=(1, 1), padding=(1, 1), bias=False)\n  (shortcut): Sequential(\n  \
  \  (0): Conv2d(64, 128, kernel_size=(1, 1), stride=(1, 1), bias=False)\n  )\n))"
: count: 10
  value: 25301.787300000004
? "(64, 64, PreActBlock(\n  (bn1): BatchNorm2d(64, eps=1e-05, momentum=0.1, affine=True,\
  \ track_running_stats=True)\n  (conv1): Conv2d(64, 136, kernel_size=(3, 3), stride=(1,\
  \ 1), padding=(1, 1), bias=False)\n  (bn2): BatchNorm2d(136, eps=1e-05, momentum=0.1,\
  \ affine=True, track_running_stats=True)\n  (conv2): Conv2d(136, 136, kernel_size=(3,\
  \ 3), stride=(1, 1), padding=(1, 1), bias=False)\n  (shortcut): Sequential(\n  \
  \  (0): Conv2d(64, 136, kernel_size=(1, 1), stride=(1, 1), bias=False)\n  )\n))"
: count: 10
  value: 31429.010499999997
? "(64, 64, PreActBlock(\n  (bn1): BatchNorm2d(64, eps=1e-05, momentum=0.1, affine=True,\
  \ track_running_stats=True)\n  (conv1): Conv2d(64, 144, kernel_size=(3, 3), stride=(1,\
  \ 1), padding=(1, 1), bias=False)\n  (bn2): BatchNorm2d(144, eps=1e-05, momentum=0.1,\
  \ affine=True, track_running_stats=True)\n  (conv2): Conv2d(144, 144, kernel_size=(3,\
  \ 3), stride=(1, 1), padding=(1, 1), bias=False)\n  (shortcut): Sequential(\n  \
  \  (0): Conv2d(64, 144, kernel_size=(1, 1), stride=(1, 1), bias=False)\n  )\n))"
: count: 20
  value: 31674.810149999998
? "(64, 64, PreActBlock(\n  (bn1): BatchNorm2d(64, eps=1e-05, momentum=0.1, affine=True,\
  \ track_running_stats=True)\n  (conv1): Conv2d(64, 152, kernel_size=(3, 3), stride=(1,\
  \ 1), padding=(1, 1), bias=False)\n  (bn2): BatchNorm2d(152, eps=1e-05, momentum=0.1,\
  \ affine=True, track_running_stats=True)\n  (conv2): Conv2d(152, 152, kernel_size=(3,\
  \ 3), stride=(1, 1), padding=(1, 1), bias=False)\n  (shortcut): Sequential(\n  \
  \  (0): Conv2d(64, 152, kernel_size=(1, 1), stride=(1, 1), bias=False)\n  )\n))"
: count: 10
  value: 33202.5565
? "(64, 64, PreActBlock(\n  (bn1): BatchNorm2d(64, eps=1e-05, momentum=0.1, affine=True,\
  \ track_running_stats=True)\n  (conv1): Conv2d(64, 160, kernel_size=(3, 3), stride=(1,\
  \ 1), padding=(1, 1), bias=False)\n  (bn2): BatchNorm2d(160, eps=1e-05, momentum=0.1,\
  \ affine=True, track_running_stats=True)\n  (conv2): Conv2d(160, 160, kernel_size=(3,\
  \ 3), stride=(1, 1), padding=(1, 1), bias=False)\n  (shortcut): Sequential(\n  \
  \  (0): Conv2d(64, 160, kernel_size=(1, 1), stride=(1, 1), bias=False)\n  )\n))"
: count: 10
  value: 36011.975399999996
? "(64, 64, PreActBlock(\n  (bn1): BatchNorm2d(64, eps=1e-05, momentum=0.1, affine=True,\
  \ track_running_stats=True)\n  (conv1): Conv2d(64, 168, kernel_size=(3, 3), stride=(1,\
  \ 1), padding=(1, 1), bias=False)\n  (bn2): BatchNorm2d(168, eps=1e-05, momentum=0.1,\
  \ affine=True, track_running_stats=True)\n  (conv2): Conv2d(168, 168, kernel_size=(3,\
  \ 3), stride=(1, 1), padding=(1, 1), bias=False)\n  (shortcut): Sequential(\n  \
  \  (0): Conv2d(64, 168, kernel_size=(1, 1), stride=(1, 1), bias=False)\n  )\n))"
: count: 10
  value: 41455.43749999999
? "(64, 64, PreActBlock(\n  (bn1): BatchNorm2d(64, eps=1e-05, momentum=0.1, affine=True,\
  \ track_running_stats=True)\n  (conv1): Conv2d(64, 176, kernel_size=(3, 3), stride=(1,\
  \ 1), padding=(1, 1), bias=False)\n  (bn2): BatchNorm2d(176, eps=1e-05, momentum=0.1,\
  \ affine=True, track_running_stats=True)\n  (conv2): Conv2d(176, 176, kernel_size=(3,\
  \ 3), stride=(1, 1), padding=(1, 1), bias=False)\n  (shortcut): Sequential(\n  \
  \  (0): Conv2d(64, 176, kernel_size=(1, 1), stride=(1, 1), bias=False)\n  )\n))"
: count: 20
  value: 43497.41425000001
? "(64, 64, PreActBlock(\n  (bn1): BatchNorm2d(64, eps=1e-05, momentum=0.1, affine=True,\
  \ track_running_stats=True)\n  (conv1): Conv2d(64, 184, kernel_size=(3, 3), stride=(1,\
  \ 1), padding=(1, 1), bias=False)\n  (bn2): BatchNorm2d(184, eps=1e-05, momentum=0.1,\
  \ affine=True, track_running_stats=True)\n  (conv2): Conv2d(184, 184, kernel_size=(3,\
  \ 3), stride=(1, 1), padding=(1, 1), bias=False)\n  (shortcut): Sequential(\n  \
  \  (0): Conv2d(64, 184, kernel_size=(1, 1), stride=(1, 1), bias=False)\n  )\n))"
: count: 10
  value: 44740.5306
? "(64, 64, PreActBlock(\n  (bn1): BatchNorm2d(64, eps=1e-05, momentum=0.1, affine=True,\
  \ track_running_stats=True)\n  (conv1): Conv2d(64, 192, kernel_size=(3, 3), stride=(1,\
  \ 1), padding=(1, 1), bias=False)\n  (bn2): BatchNorm2d(192, eps=1e-05, momentum=0.1,\
  \ affine=True, track_running_stats=True)\n  (conv2): Conv2d(192, 192, kernel_size=(3,\
  \ 3), stride=(1, 1), padding=(1, 1), bias=False)\n  (shortcut): Sequential(\n  \
  \  (0): Conv2d(64, 192, kernel_size=(1, 1), stride=(1, 1), bias=False)\n  )\n))"
: count: 10
  value: 46522.5855
? "(64, 64, PreActBlock(\n  (bn1): BatchNorm2d(64, eps=1e-05, momentum=0.1, affine=True,\
  \ track_running_stats=True)\n  (conv1): Conv2d(64, 200, kernel_size=(3, 3), stride=(1,\
  \ 1), padding=(1, 1), bias=False)\n  (bn2): BatchNorm2d(200, eps=1e-05, momentum=0.1,\
  \ affine=True, track_running_stats=True)\n  (conv2): Conv2d(200, 200, kernel_size=(3,\
  \ 3), stride=(1, 1), padding=(1, 1), bias=False)\n  (shortcut): Sequential(\n  \
  \  (0): Conv2d(64, 200, kernel_size=(1, 1), stride=(1, 1), bias=False)\n  )\n))"
: count: 10
  value: 54663.6345
? "(64, 64, PreActBlock(\n  (bn1): BatchNorm2d(64, eps=1e-05, momentum=0.1, affine=True,\
  \ track_running_stats=True)\n  (conv1): Conv2d(64, 208, kernel_size=(3, 3), stride=(1,\
  \ 1), padding=(1, 1), bias=False)\n  (bn2): BatchNorm2d(208, eps=1e-05, momentum=0.1,\
  \ affine=True, track_running_stats=True)\n  (conv2): Conv2d(208, 208, kernel_size=(3,\
  \ 3), stride=(1, 1), padding=(1, 1), bias=False)\n  (shortcut): Sequential(\n  \
  \  (0): Conv2d(64, 208, kernel_size=(1, 1), stride=(1, 1), bias=False)\n  )\n))"
: count: 20
  value: 56345.70575
? "(64, 64, PreActBlock(\n  (bn1): BatchNorm2d(64, eps=1e-05, momentum=0.1, affine=True,\
  \ track_running_stats=True)\n  (conv1): Conv2d(64, 216, kernel_size=(3, 3), stride=(1,\
  \ 1), padding=(1, 1), bias=False)\n  (bn2): BatchNorm2d(216, eps=1e-05, momentum=0.1,\
  \ affine=True, track_running_stats=True)\n  (conv2): Conv2d(216, 216, kernel_size=(3,\
  \ 3), stride=(1, 1), padding=(1, 1), bias=False)\n  (shortcut): Sequential(\n  \
  \  (0): Conv2d(64, 216, kernel_size=(1, 1), stride=(1, 1), bias=False)\n  )\n))"
: count: 10
  value: 58684.418300000005
? "(64, 64, PreActBlock(\n  (bn1): BatchNorm2d(64, eps=1e-05, momentum=0.1, affine=True,\
  \ track_running_stats=True)\n  (conv1): Conv2d(64, 224, kernel_size=(3, 3), stride=(1,\
  \ 1), padding=(1, 1), bias=False)\n  (bn2): BatchNorm2d(224, eps=1e-05, momentum=0.1,\
  \ affine=True, track_running_stats=True)\n  (conv2): Conv2d(224, 224, kernel_size=(3,\
  \ 3), stride=(1, 1), padding=(1, 1), bias=False)\n  (shortcut): Sequential(\n  \
  \  (0): Conv2d(64, 224, kernel_size=(1, 1), stride=(1, 1), bias=False)\n  )\n))"
: count: 10
  value: 60570.1511
? "(64, 64, PreActBlock(\n  (bn1): BatchNorm2d(64, eps=1e-05, momentum=0.1, affine=True,\
  \ track_running_stats=True)\n  (conv1): Conv2d(64, 232, kernel_size=(3, 3), stride=(1,\
  \ 1), padding=(1, 1), bias=False)\n  (bn2): BatchNorm2d(232, eps=1e-05, momentum=0.1,\
  \ affine=True, track_running_stats=True)\n  (conv2): Conv2d(232, 232, kernel_size=(3,\
  \ 3), stride=(1, 1), padding=(1, 1), bias=False)\n  (shortcut): Sequential(\n  \
  \  (0): Conv2d(64, 232, kernel_size=(1, 1), stride=(1, 1), bias=False)\n  )\n))"
: count: 10
  value: 69058.0749
? "(64, 64, PreActBlock(\n  (bn1): BatchNorm2d(64, eps=1e-05, momentum=0.1, affine=True,\
  \ track_running_stats=True)\n  (conv1): Conv2d(64, 240, kernel_size=(3, 3), stride=(1,\
  \ 1), padding=(1, 1), bias=False)\n  (bn2): BatchNorm2d(240, eps=1e-05, momentum=0.1,\
  \ affine=True, track_running_stats=True)\n  (conv2): Conv2d(240, 240, kernel_size=(3,\
  \ 3), stride=(1, 1), padding=(1, 1), bias=False)\n  (shortcut): Sequential(\n  \
  \  (0): Conv2d(64, 240, kernel_size=(1, 1), stride=(1, 1), bias=False)\n  )\n))"
: count: 20
  value: 70428.7972
? "(64, 64, PreActBlock(\n  (bn1): BatchNorm2d(64, eps=1e-05, momentum=0.1, affine=True,\
  \ track_running_stats=True)\n  (conv1): Conv2d(64, 248, kernel_size=(3, 3), stride=(1,\
  \ 1), padding=(1, 1), bias=False)\n  (bn2): BatchNorm2d(248, eps=1e-05, momentum=0.1,\
  \ affine=True, track_running_stats=True)\n  (conv2): Conv2d(248, 248, kernel_size=(3,\
  \ 3), stride=(1, 1), padding=(1, 1), bias=False)\n  (shortcut): Sequential(\n  \
  \  (0): Conv2d(64, 248, kernel_size=(1, 1), stride=(1, 1), bias=False)\n  )\n))"
: count: 10
  value: 72900.7207
? "(64, 64, PreActBlock(\n  (bn1): BatchNorm2d(64, eps=1e-05, momentum=0.1, affine=True,\
  \ track_running_stats=True)\n  (conv1): Conv2d(64, 256, kernel_size=(3, 3), stride=(1,\
  \ 1), padding=(1, 1), bias=False)\n  (bn2): BatchNorm2d(256, eps=1e-05, momentum=0.1,\
  \ affine=True, track_running_stats=True)\n  (conv2): Conv2d(256, 256, kernel_size=(3,\
  \ 3), stride=(1, 1), padding=(1, 1), bias=False)\n  (shortcut): Sequential(\n  \
  \  (0): Conv2d(64, 256, kernel_size=(1, 1), stride=(1, 1), bias=False)\n  )\n))"
: count: 10
  value: 74608.23990000002
? "(64, 64, PreActBlock(\n  (bn1): BatchNorm2d(64, eps=1e-05, momentum=0.1, affine=True,\
  \ track_running_stats=True)\n  (conv1): Conv2d(64, 264, kernel_size=(3, 3), stride=(1,\
  \ 1), padding=(1, 1), bias=False)\n  (bn2): BatchNorm2d(264, eps=1e-05, momentum=0.1,\
  \ affine=True, track_running_stats=True)\n  (conv2): Conv2d(264, 264, kernel_size=(3,\
  \ 3), stride=(1, 1), padding=(1, 1), bias=False)\n  (shortcut): Sequential(\n  \
  \  (0): Conv2d(64, 264, kernel_size=(1, 1), stride=(1, 1), bias=False)\n  )\n))"
: count: 10
  value: 86207.42020000001
? "(64, 64, PreActBlock(\n  (bn1): BatchNorm2d(64, eps=1e-05, momentum=0.1, affine=True,\
  \ track_running_stats=True)\n  (conv1): Conv2d(64, 272, kernel_size=(3, 3), stride=(1,\
  \ 1), padding=(1, 1), bias=False)\n  (bn2): BatchNorm2d(272, eps=1e-05, momentum=0.1,\
  \ affine=True, track_running_stats=True)\n  (conv2): Conv2d(272, 272, kernel_size=(3,\
  \ 3), stride=(1, 1), padding=(1, 1), bias=False)\n  (shortcut): Sequential(\n  \
  \  (0): Conv2d(64, 272, kernel_size=(1, 1), stride=(1, 1), bias=False)\n  )\n))"
: count: 20
  value: 89329.76754999999
? "(64, 64, PreActBlock(\n  (bn1): BatchNorm2d(64, eps=1e-05, momentum=0.1, affine=True,\
  \ track_running_stats=True)\n  (conv1): Conv2d(64, 280, kernel_size=(3, 3), stride=(1,\
  \ 1), padding=(1, 1), bias=False)\n  (bn2): BatchNorm2d(280, eps=1e-05, momentum=0.1,\
  \ affine=True, track_running_stats=True)\n  (conv2): Conv2d(280, 280, kernel_size=(3,\
  \ 3), stride=(1, 1), padding=(1, 1), bias=False)\n  (shortcut): Sequential(\n  \
  \  (0): Conv2d(64, 280, kernel_size=(1, 1), stride=(1, 1), bias=False)\n  )\n))"
: count: 10
  value: 89430.80390000001
? "(64, 64, PreActBlock(\n  (bn1): BatchNorm2d(64, eps=1e-05, momentum=0.1, affine=True,\
  \ track_running_stats=True)\n  (conv1): Conv2d(64, 288, kernel_size=(3, 3), stride=(1,\
  \ 1), padding=(1, 1), bias=False)\n  (bn2): BatchNorm2d(288, eps=1e-05, momentum=0.1,\
  \ affine=True, track_running_stats=True)\n  (conv2): Conv2d(288, 288, kernel_size=(3,\
  \ 3), stride=(1, 1), padding=(1, 1), bias=False)\n  (shortcut): Sequential(\n  \
  \  (0): Conv2d(64, 288, kernel_size=(1, 1), stride=(1, 1), bias=False)\n  )\n))"
: count: 10
  value: 92306.96239999999
? "(64, 64, PreActBlock(\n  (bn1): BatchNorm2d(64, eps=1e-05, momentum=0.1, affine=True,\
  \ track_running_stats=True)\n  (conv1): Conv2d(64, 296, kernel_size=(3, 3), stride=(1,\
  \ 1), padding=(1, 1), bias=False)\n  (bn2): BatchNorm2d(296, eps=1e-05, momentum=0.1,\
  \ affine=True, track_running_stats=True)\n  (conv2): Conv2d(296, 296, kernel_size=(3,\
  \ 3), stride=(1, 1), padding=(1, 1), bias=False)\n  (shortcut): Sequential(\n  \
  \  (0): Conv2d(64, 296, kernel_size=(1, 1), stride=(1, 1), bias=False)\n  )\n))"
: count: 10
  value: 102468.69740000002
? "(64, 64, PreActBlock(\n  (bn1): BatchNorm2d(64, eps=1e-05, momentum=0.1, affine=True,\
  \ track_running_stats=True)\n  (conv1): Conv2d(64, 304, kernel_size=(3, 3), stride=(1,\
  \ 1), padding=(1, 1), bias=False)\n  (bn2): BatchNorm2d(304, eps=1e-05, momentum=0.1,\
  \ affine=True, track_running_stats=True)\n  (conv2): Conv2d(304, 304, kernel_size=(3,\
  \ 3), stride=(1, 1), padding=(1, 1), bias=False)\n  (shortcut): Sequential(\n  \
  \  (0): Conv2d(64, 304, kernel_size=(1, 1), stride=(1, 1), bias=False)\n  )\n))"
: count: 20
  value: 105092.25089999998
? "(64, 64, PreActBlock(\n  (bn1): BatchNorm2d(64, eps=1e-05, momentum=0.1, affine=True,\
  \ track_running_stats=True)\n  (conv1): Conv2d(64, 312, kernel_size=(3, 3), stride=(1,\
  \ 1), padding=(1, 1), bias=False)\n  (bn2): BatchNorm2d(312, eps=1e-05, momentum=0.1,\
  \ affine=True, track_running_stats=True)\n  (conv2): Conv2d(312, 312, kernel_size=(3,\
  \ 3), stride=(1, 1), padding=(1, 1), bias=False)\n  (shortcut): Sequential(\n  \
  \  (0): Conv2d(64, 312, kernel_size=(1, 1), stride=(1, 1), bias=False)\n  )\n))"
: count: 10
  value: 111395.1867
? "(64, 64, PreActBlock(\n  (bn1): BatchNorm2d(64, eps=1e-05, momentum=0.1, affine=True,\
  \ track_running_stats=True)\n  (conv1): Conv2d(64, 320, kernel_size=(3, 3), stride=(1,\
  \ 1), padding=(1, 1), bias=False)\n  (bn2): BatchNorm2d(320, eps=1e-05, momentum=0.1,\
  \ affine=True, track_running_stats=True)\n  (conv2): Conv2d(320, 320, kernel_size=(3,\
  \ 3), stride=(1, 1), padding=(1, 1), bias=False)\n  (shortcut): Sequential(\n  \
  \  (0): Conv2d(64, 320, kernel_size=(1, 1), stride=(1, 1), bias=False)\n  )\n))"
: count: 10
  value: 111365.0935
? "(64, 64, PreActBlock(\n  (bn1): BatchNorm2d(64, eps=1e-05, momentum=0.1, affine=True,\
  \ track_running_stats=True)\n  (conv1): Conv2d(64, 64, kernel_size=(3, 3), stride=(1,\
  \ 1), padding=(1, 1), bias=False)\n  (bn2): BatchNorm2d(64, eps=1e-05, momentum=0.1,\
  \ affine=True, track_running_stats=True)\n  (conv2): Conv2d(64, 64, kernel_size=(3,\
  \ 3), stride=(1, 1), padding=(1, 1), bias=False)\n))"
: count: 20
  value: 4196.886974999999
? "(64, 64, PreActBlock(\n  (bn1): BatchNorm2d(64, eps=1e-05, momentum=0.1, affine=True,\
  \ track_running_stats=True)\n  (conv1): Conv2d(64, 72, kernel_size=(3, 3), stride=(1,\
  \ 1), padding=(1, 1), bias=False)\n  (bn2): BatchNorm2d(72, eps=1e-05, momentum=0.1,\
  \ affine=True, track_running_stats=True)\n  (conv2): Conv2d(72, 72, kernel_size=(3,\
  \ 3), stride=(1, 1), padding=(1, 1), bias=False)\n  (shortcut): Sequential(\n  \
  \  (0): Conv2d(64, 72, kernel_size=(1, 1), stride=(1, 1), bias=False)\n  )\n))"
: count: 10
  value: 15151.457699999999
? "(64, 64, PreActBlock(\n  (bn1): BatchNorm2d(64, eps=1e-05, momentum=0.1, affine=True,\
  \ track_running_stats=True)\n  (conv1): Conv2d(64, 80, kernel_size=(3, 3), stride=(1,\
  \ 1), padding=(1, 1), bias=False)\n  (bn2): BatchNorm2d(80, eps=1e-05, momentum=0.1,\
  \ affine=True, track_running_stats=True)\n  (conv2): Conv2d(80, 80, kernel_size=(3,\
  \ 3), stride=(1, 1), padding=(1, 1), bias=False)\n  (shortcut): Sequential(\n  \
  \  (0): Conv2d(64, 80, kernel_size=(1, 1), stride=(1, 1), bias=False)\n  )\n))"
: count: 20
  value: 15270.144949999998
? "(64, 64, PreActBlock(\n  (bn1): BatchNorm2d(64, eps=1e-05, momentum=0.1, affine=True,\
  \ track_running_stats=True)\n  (conv1): Conv2d(64, 88, kernel_size=(3, 3), stride=(1,\
  \ 1), padding=(1, 1), bias=False)\n  (bn2): BatchNorm2d(88, eps=1e-05, momentum=0.1,\
  \ affine=True, track_running_stats=True)\n  (conv2): Conv2d(88, 88, kernel_size=(3,\
  \ 3), stride=(1, 1), padding=(1, 1), bias=False)\n  (shortcut): Sequential(\n  \
  \  (0): Conv2d(64, 88, kernel_size=(1, 1), stride=(1, 1), bias=False)\n  )\n))"
: count: 10
  value: 16754.953
? "(64, 64, PreActBlock(\n  (bn1): BatchNorm2d(64, eps=1e-05, momentum=0.1, affine=True,\
  \ track_running_stats=True)\n  (conv1): Conv2d(64, 96, kernel_size=(3, 3), stride=(1,\
  \ 1), padding=(1, 1), bias=False)\n  (bn2): BatchNorm2d(96, eps=1e-05, momentum=0.1,\
  \ affine=True, track_running_stats=True)\n  (conv2): Conv2d(96, 96, kernel_size=(3,\
  \ 3), stride=(1, 1), padding=(1, 1), bias=False)\n  (shortcut): Sequential(\n  \
  \  (0): Conv2d(64, 96, kernel_size=(1, 1), stride=(1, 1), bias=False)\n  )\n))"
: count: 10
  value: 18240.009699999995
? "(64, 64, PreActBlock(\n  (bn1): BatchNorm2d(72, eps=1e-05, momentum=0.1, affine=True,\
  \ track_running_stats=True)\n  (conv1): Conv2d(72, 72, kernel_size=(3, 3), stride=(1,\
  \ 1), padding=(1, 1), bias=False)\n  (bn2): BatchNorm2d(72, eps=1e-05, momentum=0.1,\
  \ affine=True, track_running_stats=True)\n  (conv2): Conv2d(72, 72, kernel_size=(3,\
  \ 3), stride=(1, 1), padding=(1, 1), bias=False)\n))"
: count: 10
  value: 12027.223899999997
? "(64, 64, PreActBlock(\n  (bn1): BatchNorm2d(80, eps=1e-05, momentum=0.1, affine=True,\
  \ track_running_stats=True)\n  (conv1): Conv2d(80, 80, kernel_size=(3, 3), stride=(1,\
  \ 1), padding=(1, 1), bias=False)\n  (bn2): BatchNorm2d(80, eps=1e-05, momentum=0.1,\
  \ affine=True, track_running_stats=True)\n  (conv2): Conv2d(80, 80, kernel_size=(3,\
  \ 3), stride=(1, 1), padding=(1, 1), bias=False)\n))"
: count: 20
  value: 13480.99695
? "(64, 64, PreActBlock(\n  (bn1): BatchNorm2d(88, eps=1e-05, momentum=0.1, affine=True,\
  \ track_running_stats=True)\n  (conv1): Conv2d(88, 88, kernel_size=(3, 3), stride=(1,\
  \ 1), padding=(1, 1), bias=False)\n  (bn2): BatchNorm2d(88, eps=1e-05, momentum=0.1,\
  \ affine=True, track_running_stats=True)\n  (conv2): Conv2d(88, 88, kernel_size=(3,\
  \ 3), stride=(1, 1), padding=(1, 1), bias=False)\n))"
: count: 10
  value: 14983.737099999998
? "(64, 64, PreActBlock(\n  (bn1): BatchNorm2d(96, eps=1e-05, momentum=0.1, affine=True,\
  \ track_running_stats=True)\n  (conv1): Conv2d(96, 96, kernel_size=(3, 3), stride=(1,\
  \ 1), padding=(1, 1), bias=False)\n  (bn2): BatchNorm2d(96, eps=1e-05, momentum=0.1,\
  \ affine=True, track_running_stats=True)\n  (conv2): Conv2d(96, 96, kernel_size=(3,\
  \ 3), stride=(1, 1), padding=(1, 1), bias=False)\n))"
: count: 10
  value: 16453.629200000003
(8, 8, Linear(in_features=1024, out_features=100, bias=True)):
  count: 10
  value: 53.4068
(8, 8, Linear(in_features=1072, out_features=100, bias=True)):
  count: 10
  value: 54.076800000000006
(8, 8, Linear(in_features=1128, out_features=100, bias=True)):
  count: 10
  value: 55.3289
…
(8, 8, Linear(in_features=720, out_features=100, bias=True)):
  count: 10
  value: 49.4926
(8, 8, Linear(in_features=768, out_features=100, bias=True)):
  count: 10
  value: 49.72250000000001
(8, 8, Linear(in_features=816, out_features=100, bias=True)):
  count: 10
  value: 49.8991
(8, 8, Linear(in_features=872, out_features=100, bias=True)):
  count: 10
  value: 50.38969999999999
(8, 8, Linear(in_features=920, out_features=100, bias=True)):
  count: 10
  value: 50.51219999999999
(8, 8, Linear(in_features=976, out_features=100, bias=True)):
  count: 10
  value: 53.87339999999999
? "(8, 8, PreActBlock(\n  (bn1): BatchNorm2d(1024, eps=1e-05, momentum=0.1, affine=True,\
  \ track_running_stats=True)\n  (conv1): Conv2d(1024, 1024, kernel_size=(3, 3), stride=(1,\
  \ 1), padding=(1, 1), bias=False)\n  (bn2): BatchNorm2d(1024, eps=1e-05, momentum=0.1,\
  \ affine=True, track_running_stats=True)\n  (conv2): Conv2d(1024, 1024, kernel_size=(3,\
  \ 3), stride=(1, 1), padding=(1, 1), bias=False)\n))"
: count: 10
  value: 74875.12800000001
? "(8, 8, PreActBlock(\n  (bn1): BatchNorm2d(1072, eps=1e-05, momentum=0.1, affine=True,\
  \ track_running_stats=True)\n  (conv1): Conv2d(1072, 1072, kernel_size=(3, 3), stride=(1,\
  \ 1), padding=(1, 1), bias=False)\n  (bn2): BatchNorm2d(1072, eps=1e-05, momentum=0.1,\
  \ affine=True, track_running_stats=True)\n  (conv2): Conv2d(1072, 1072, kernel_size=(3,\
  \ 3), stride=(1, 1), padding=(1, 1), bias=False)\n))"
: count: 10
  value: 85083.0127
? "(8, 8, PreActBlock(\n  (bn1): BatchNorm2d(1128, eps=1e-05, momentum=0.1, affine=True,\
  \ track_running_stats=True)\n  (conv1): Conv2d(1128, 1128, kernel_size=(3, 3), stride=(1,\
  \ 1), padding=(1, 1), bias=False)\n  (bn2): BatchNorm2d(1128, eps=1e-05, momentum=0.1,\
  \ affine=True, track_running_stats=True)\n  (conv2): Conv2d(1128, 1128, kernel_size=(3,\
  \ 3), stride=(1, 1), padding=(1, 1), bias=False)\n))"
: count: 10
  value: 92167.1476
? "(8, 8, PreActBlock(\n  (bn1): BatchNorm2d(1176, eps=1e-05, momentum=0.1, affine=True,\
  \ track_running_stats=True)\n  (conv1): Conv2d(1176, 1176, kernel_size=(3, 3), stride=(1,\
  \ 1), padding=(1, 1), bias=False)\n  (bn2): BatchNorm2d(1176, eps=1e-05, momentum=0.1,\
  \ affine=True, track_running_stats=True)\n  (conv2): Conv2d(1176, 1176, kernel_size=(3,\
  \ 3), stride=(1, 1), padding=(1, 1), bias=False)\n))"
: count: 10
  value: 98165.3247
? "(8, 8, PreActBlock(\n  (bn1): BatchNorm2d(1232, eps=1e-05, momentum=0.1, affine=True,\
  \ track_running_stats=True)\n  (conv1): Conv2d(1232, 1232, kernel_size=(3, 3), stride=(1,\
  \ 1), padding=(1, 1), bias=False)\n  (bn2): BatchNorm2d(1232, eps=1e-05, momentum=0.1,\
  \ affine=True, track_running_stats=True)\n  (conv2): Conv2d(1232, 1232, kernel_size=(3,\
  \ 3), stride=(1, 1), padding=(1, 1), bias=False)\n))"
: count: 10
  value: 106919.21699999999
? "(8, 8, PreActBlock(\n  (bn1): BatchNorm2d(1280, eps=1e-05, momentum=0.1, affine=True,\
  \ track_running_stats=True)\n  (conv1): Conv2d(1280, 1280, kernel_size=(3, 3), stride=(1,\
  \ 1), padding=(1, 1), bias=False)\n  (bn2): BatchNorm2d(1280, eps=1e-05, momentum=0.1,\
  \ affine=True, track_running_stats=True)\n  (conv2): Conv2d(1280, 1280, kernel_size=(3,\
  \ 3), stride=(1, 1), padding=(1, 1), bias=False)\n))"
: count: 10
  value: 116743.4517
? "(8, 8, PreActBlock(\n  (bn1): BatchNorm2d(1328, eps=1e-05, momentum=0.1, affine=True,\
  \ track_running_stats=True)\n  (conv1): Conv2d(1328, 1328, kernel_size=(3, 3), stride=(1,\
  \ 1), padding=(1, 1), bias=False)\n  (bn2): BatchNorm2d(1328, eps=1e-05, momentum=0.1,\
  \ affine=True, track_running_stats=True)\n  (conv2): Conv2d(1328, 1328, kernel_size=(3,\
  \ 3), stride=(1, 1), padding=(1, 1), bias=False)\n))"
: count: 10
  value: 124240.2027
? "(8, 8, PreActBlock(\n  (bn1): BatchNorm2d(1384, eps=1e-05, momentum=0.1, affine=True,\
  \ track_running_stats=True)\n  (conv1): Conv2d(1384, 1384, kernel_size=(3, 3), stride=(1,\
  \ 1), padding=(1, 1), bias=False)\n  (bn2): BatchNorm2d(1384, eps=1e-05, momentum=0.1,\
  \ affine=True, track_running_stats=True)\n  (conv2): Conv2d(1384, 1384, kernel_size=(3,\
  \ 3), stride=(1, 1), padding=(1, 1), bias=False)\n))"
: count: 10
  value: 138041.61000000004
? "(8, 8, PreActBlock(\n  (bn1): BatchNorm2d(1432, eps=1e-05, momentum=0.1, affine=True,\
  \ track_running_stats=True)\n  (conv1): Conv2d(1432, 1432, kernel_size=(3, 3), stride=(1,\
  \ 1), padding=(1, 1), bias=False)\n  (bn2): BatchNorm2d(1432, eps=1e-05, momentum=0.1,\
  \ affine=True, track_running_stats=True)\n  (conv2): Conv2d(1432, 1432, kernel_size=(3,\
  \ 3), stride=(1, 1), padding=(1, 1), bias=False)\n))"
: count: 10
  value: 149008.85040000002
? "(8, 8, PreActBlock(\n  (bn1): BatchNorm2d(1488, eps=1e-05, momentum=0.1, affine=True,\
  \ track_running_stats=True)\n  (conv1): Conv2d(1488, 1488, kernel_size=(3, 3), stride=(1,\
  \ 1), padding=(1, 1), bias=False)\n  (bn2): BatchNorm2d(1488, eps=1e-05, momentum=0.1,\
  \ affine=True, track_running_stats=True)\n  (conv2): Conv2d(1488, 1488, kernel_size=(3,\
  \ 3), stride=(1, 1), padding=(1, 1), bias=False)\n))"
: count: 10
  value: 159640.3656
? "(8, 8, PreActBlock(\n  (bn1): BatchNorm2d(1536, eps=1e-05, momentum=0.1, affine=True,\
  \ track_running_stats=True)\n  (conv1): Conv2d(1536, 1536, kernel_size=(3, 3), stride=(1,\
  \ 1), padding=(1, 1), bias=False)\n  (bn2): BatchNorm2d(1536, eps=1e-05, momentum=0.1,\
  \ affine=True, track_running_stats=True)\n  (conv2): Conv2d(1536, 1536, kernel_size=(3,\
  \ 3), stride=(1, 1), padding=(1, 1), bias=False)\n))"
: count: 10
  value: 166977.8679
? "(8, 8, PreActBlock(\n  (bn1): BatchNorm2d(1584, eps=1e-05, momentum=0.1, affine=True,\
  \ track_running_stats=True)\n  (conv1): Conv2d(1584, 1584, kernel_size=(3, 3), stride=(1,\
  \ 1), padding=(1, 1), bias=False)\n  (bn2): BatchNorm2d(1584, eps=1e-05, momentum=0.1,\
  \ affine=True, track_running_stats=True)\n  (conv2): Conv2d(1584, 1584, kernel_size=(3,\
  \ 3), stride=(1, 1), padding=(1, 1), bias=False)\n))"
: count: 10
  value: 178905.26810000002
? "(8, 8, PreActBlock(\n  (bn1): BatchNorm2d(1640, eps=1e-05, momentum=0.1, affine=True,\
  \ track_running_stats=True)\n  (conv1): Conv2d(1640, 1640, kernel_size=(3, 3), stride=(1,\
  \ 1), padding=(1, 1), bias=False)\n  (bn2): BatchNorm2d(1640, eps=1e-05, momentum=0.1,\
  \ affine=True, track_running_stats=True)\n  (conv2): Conv2d(1640, 1640, kernel_size=(3,\
  \ 3), stride=(1, 1), padding=(1, 1), bias=False)\n))"
: count: 10
  value: 190040.65400000004
? "(8, 8, PreActBlock(\n  (bn1): BatchNorm2d(1688, eps=1e-05, momentum=0.1, affine=True,\
  \ track_running_stats=True)\n  (conv1): Conv2d(1688, 1688, kernel_size=(3, 3), stride=(1,\
  \ 1), padding=(1, 1), bias=False)\n  (bn2): BatchNorm2d(1688, eps=1e-05, momentum=0.1,\
  \ affine=True, track_running_stats=True)\n  (conv2): Conv2d(1688, 1688, kernel_size=(3,\
  \ 3), stride=(1, 1), padding=(1, 1), bias=False)\n))"
: count: 10
  value: 198768.53610000006
? "(8, 8, PreActBlock(\n  (bn1): BatchNorm2d(1744, eps=1e-05, momentum=0.1, affine=True,\
  \ track_running_stats=True)\n  (conv1): Conv2d(1744, 1744, kernel_size=(3, 3), stride=(1,\
  \ 1), padding=(1, 1), bias=False)\n  (bn2): BatchNorm2d(1744, eps=1e-05, momentum=0.1,\
  \ affine=True, track_running_stats=True)\n  (conv2): Conv2d(1744, 1744, kernel_size=(3,\
  \ 3), stride=(1, 1), padding=(1, 1), bias=False)\n))"
: count: 10
  value: 214419.19360000003
? "(8, 8, PreActBlock(\n  (bn1): BatchNorm2d(1792, eps=1e-05, momentum=0.1, affine=True,\
  \ track_running_stats=True)\n  (conv1): Conv2d(1792, 1792, kernel_size=(3, 3), stride=(1,\
  \ 1), padding=(1, 1), bias=False)\n  (bn2): BatchNorm2d(1792, eps=1e-05, momentum=0.1,\
  \ affine=True, track_running_stats=True)\n  (conv2): Conv2d(1792, 1792, kernel_size=(3,\
  \ 3), stride=(1, 1), padding=(1, 1), bias=False)\n))"
: count: 10
  value: 227804.48719999995
? "(8, 8, PreActBlock(\n  (bn1): BatchNorm2d(1840, eps=1e-05, momentum=0.1, affine=True,\
  \ track_running_stats=True)\n  (conv1): Conv2d(1840, 1840, kernel_size=(3, 3), stride=(1,\
  \ 1), padding=(1, 1), bias=False)\n  (bn2): BatchNorm2d(1840, eps=1e-05, momentum=0.1,\
  \ affine=True, track_running_stats=True)\n  (conv2): Conv2d(1840, 1840, kernel_size=(3,\
  \ 3), stride=(1, 1), padding=(1, 1), bias=False)\n))"
: count: 10
  value: 237509.21800000002
? "(8, 8, PreActBlock(\n  (bn1): BatchNorm2d(1896, eps=1e-05, momentum=0.1, affine=True,\
  \ track_running_stats=True)\n  (conv1): Conv2d(1896, 1896, kernel_size=(3, 3), stride=(1,\
  \ 1), padding=(1, 1), bias=False)\n  (bn2): BatchNorm2d(1896, eps=1e-05, momentum=0.1,\
  \ affine=True, track_running_stats=True)\n  (conv2): Conv2d(1896, 1896, kernel_size=(3,\
  \ 3), stride=(1, 1), padding=(1, 1), bias=False)\n))"
: count: 10
  value: 254967.99130000002
? "(8, 8, PreActBlock(\n  (bn1): BatchNorm2d(1944, eps=1e-05, momentum=0.1, affine=True,\
  \ track_running_stats=True)\n  (conv1): Conv2d(1944, 1944, kernel_size=(3, 3), stride=(1,\
  \ 1), padding=(1, 1), bias=False)\n  (bn2): BatchNorm2d(1944, eps=1e-05, momentum=0.1,\
  \ affine=True, track_running_stats=True)\n  (conv2): Conv2d(1944, 1944, kernel_size=(3,\
  \ 3), stride=(1, 1), padding=(1, 1), bias=False)\n))"
: count: 10
  value: 264569.18019999994
? "(8, 8, PreActBlock(\n  (bn1): BatchNorm2d(2000, eps=1e-05, momentum=0.1, affine=True,\
  \ track_running_stats=True)\n  (conv1): Conv2d(2000, 2000, kernel_size=(3, 3), stride=(1,\
  \ 1), padding=(1, 1), bias=False)\n  (bn2): BatchNorm2d(2000, eps=1e-05, momentum=0.1,\
  \ affine=True, track_running_stats=True)\n  (conv2): Conv2d(2000, 2000, kernel_size=(3,\
  \ 3), stride=(1, 1), padding=(1, 1), bias=False)\n))"
: count: 10
  value: 280954.43620000005
? "(8, 8, PreActBlock(\n  (bn1): BatchNorm2d(2048, eps=1e-05, momentum=0.1, affine=True,\
  \ track_running_stats=True)\n  (conv1): Conv2d(2048, 2048, kernel_size=(3, 3), stride=(1,\
  \ 1), padding=(1, 1), bias=False)\n  (bn2): BatchNorm2d(2048, eps=1e-05, momentum=0.1,\
  \ affine=True, track_running_stats=True)\n  (conv2): Conv2d(2048, 2048, kernel_size=(3,\
  \ 3), stride=(1, 1), padding=(1, 1), bias=False)\n))"
: count: 10
  value: 300588.6192
? "(8, 8, PreActBlock(\n  (bn1): BatchNorm2d(2096, eps=1e-05, momentum=0.1, affine=True,\
  \ track_running_stats=True)\n  (conv1): Conv2d(2096, 2096, kernel_size=(3, 3), stride=(1,\
  \ 1), padding=(1, 1), bias=False)\n  (bn2): BatchNorm2d(2096, eps=1e-05, momentum=0.1,\
  \ affine=True, track_running_stats=True)\n  (conv2): Conv2d(2096, 2096, kernel_size=(3,\
  \ 3), stride=(1, 1), padding=(1, 1), bias=False)\n))"
: count: 10
  value: 322508.9628
? "(8, 8, PreActBlock(\n  (bn1): BatchNorm2d(2152, eps=1e-05, momentum=0.1, affine=True,\
  \ track_running_stats=True)\n  (conv1): Conv2d(2152, 2152, kernel_size=(3, 3), stride=(1,\
  \ 1), padding=(1, 1), bias=False)\n  (bn2): BatchNorm2d(2152, eps=1e-05, momentum=0.1,\
  \ affine=True, track_running_stats=True)\n  (conv2): Conv2d(2152, 2152, kernel_size=(3,\
  \ 3), stride=(1, 1), padding=(1, 1), bias=False)\n))"
: count: 10
  value: 342039.5383
? "(8, 8, PreActBlock(\n  (bn1): BatchNorm2d(2200, eps=1e-05, momentum=0.1, affine=True,\
  \ track_running_stats=True)\n  (conv1): Conv2d(2200, 2200, kernel_size=(3, 3), stride=(1,\
  \ 1), padding=(1, 1), bias=False)\n  (bn2): BatchNorm2d(2200, eps=1e-05, momentum=0.1,\
  \ affine=True, track_running_stats=True)\n  (conv2): Conv2d(2200, 2200, kernel_size=(3,\
  \ 3), stride=(1, 1), padding=(1, 1), bias=False)\n))"
: count: 10
  value: 337683.19659999997
? "(8, 8, PreActBlock(\n  (bn1): BatchNorm2d(2256, eps=1e-05, momentum=0.1, affine=True,\
  \ track_running_stats=True)\n  (conv1): Conv2d(2256, 2256, kernel_size=(3, 3), stride=(1,\
  \ 1), padding=(1, 1), bias=False)\n  (bn2): BatchNorm2d(2256, eps=1e-05, momentum=0.1,\
  \ affine=True, track_running_stats=True)\n  (conv2): Conv2d(2256, 2256, kernel_size=(3,\
  \ 3), stride=(1, 1), padding=(1, 1), bias=False)\n))"
: count: 10
  value: 359986.9802
? "(8, 8, PreActBlock(\n  (bn1): BatchNorm2d(2304, eps=1e-05, momentum=0.1, affine=True,\
  \ track_running_stats=True)\n  (conv1): Conv2d(2304, 2304, kernel_size=(3, 3), stride=(1,\
  \ 1), padding=(1, 1), bias=False)\n  (bn2): BatchNorm2d(2304, eps=1e-05, momentum=0.1,\
  \ affine=True, track_running_stats=True)\n  (conv2): Conv2d(2304, 2304, kernel_size=(3,\
  \ 3), stride=(1, 1), padding=(1, 1), bias=False)\n))"
: count: 10
  value: 376417.165
? "(8, 8, PreActBlock(\n  (bn1): BatchNorm2d(2352, eps=1e-05, momentum=0.1, affine=True,\
  \ track_running_stats=True)\n  (conv1): Conv2d(2352, 2352, kernel_size=(3, 3), stride=(1,\
  \ 1), padding=(1, 1), bias=False)\n  (bn2): BatchNorm2d(2352, eps=1e-05, momentum=0.1,\
  \ affine=True, track_running_stats=True)\n  (conv2): Conv2d(2352, 2352, kernel_size=(3,\
  \ 3), stride=(1, 1), padding=(1, 1), bias=False)\n))"
: count: 10
  value: 392910.5642
? "(8, 8, PreActBlock(\n  (bn1): BatchNorm2d(2408, eps=1e-05, momentum=0.1, affine=True,\
  \ track_running_stats=True)\n  (conv1): Conv2d(2408, 2408, kernel_size=(3, 3), stride=(1,\
  \ 1), padding=(1, 1), bias=False)\n  (bn2): BatchNorm2d(2408, eps=1e-05, momentum=0.1,\
  \ affine=True, track_running_stats=True)\n  (conv2): Conv2d(2408, 2408, kernel_size=(3,\
  \ 3), stride=(1, 1), padding=(1, 1), bias=False)\n))"
: count: 10
  value: 408498.22860000003
? "(8, 8, PreActBlock(\n  (bn1): BatchNorm2d(2456, eps=1e-05, momentum=0.1, affine=True,\
  \ track_running_stats=True)\n  (conv1): Conv2d(2456, 2456, kernel_size=(3, 3), stride=(1,\
  \ 1), padding=(1, 1), bias=False)\n  (bn2): BatchNorm2d(2456, eps=1e-05, momentum=0.1,\
  \ affine=True, track_running_stats=True)\n  (conv2): Conv2d(2456, 2456, kernel_size=(3,\
  \ 3), stride=(1, 1), padding=(1, 1), bias=False)\n))"
: count: 10
  value: 420521.19270000013
? "(8, 8, PreActBlock(\n  (bn1): BatchNorm2d(2512, eps=1e-05, momentum=0.1, affine=True,\
  \ track_running_stats=True)\n  (conv1): Conv2d(2512, 2512, kernel_size=(3, 3), stride=(1,\
  \ 1), padding=(1, 1), bias=False)\n  (bn2): BatchNorm2d(2512, eps=1e-05, momentum=0.1,\
  \ affine=True, track_running_stats=True)\n  (conv2): Conv2d(2512, 2512, kernel_size=(3,\
  \ 3), stride=(1, 1), padding=(1, 1), bias=False)\n))"
: count: 10
  value: 444731.9381
? "(8, 8, PreActBlock(\n  (bn1): BatchNorm2d(2560, eps=1e-05, momentum=0.1, affine=True,\
  \ track_running_stats=True)\n  (conv1): Conv2d(2560, 2560, kernel_size=(3, 3), stride=(1,\
  \ 1), padding=(1, 1), bias=False)\n  (bn2): BatchNorm2d(2560, eps=1e-05, momentum=0.1,\
  \ affine=True, track_running_stats=True)\n  (conv2): Conv2d(2560, 2560, kernel_size=(3,\
  \ 3), stride=(1, 1), padding=(1, 1), bias=False)\n))"
: count: 10
  value: 461001.4664000001
? "(8, 8, PreActBlock(\n  (bn1): BatchNorm2d(512, eps=1e-05, momentum=0.1, affine=True,\
  \ track_running_stats=True)\n  (conv1): Conv2d(512, 512, kernel_size=(3, 3), stride=(1,\
  \ 1), padding=(1, 1), bias=False)\n  (bn2): BatchNorm2d(512, eps=1e-05, momentum=0.1,\
  \ affine=True, track_running_stats=True)\n  (conv2): Conv2d(512, 512, kernel_size=(3,\
  \ 3), stride=(1, 1), padding=(1, 1), bias=False)\n))"
: count: 10
  value: 19830.1939
? "(8, 8, PreActBlock(\n  (bn1): BatchNorm2d(560, eps=1e-05, momentum=0.1, affine=True,\
  \ track_running_stats=True)\n  (conv1): Conv2d(560, 560, kernel_size=(3, 3), stride=(1,\
  \ 1), padding=(1, 1), bias=False)\n  (bn2): BatchNorm2d(560, eps=1e-05, momentum=0.1,\
  \ affine=True, track_running_stats=True)\n  (conv2): Conv2d(560, 560, kernel_size=(3,\
  \ 3), stride=(1, 1), padding=(1, 1), bias=False)\n))"
: count: 10
  value: 23828.535699999997
? "(8, 8, PreActBlock(\n  (bn1): BatchNorm2d(616, eps=1e-05, momentum=0.1, affine=True,\
  \ track_running_stats=True)\n  (conv1): Conv2d(616, 616, kernel_size=(3, 3), stride=(1,\
  \ 1), padding=(1, 1), bias=False)\n  (bn2): BatchNorm2d(616, eps=1e-05, momentum=0.1,\
  \ affine=True, track_running_stats=True)\n  (conv2): Conv2d(616, 616, kernel_size=(3,\
  \ 3), stride=(1, 1), padding=(1, 1), bias=False)\n))"
: count: 10
  value: 29411.566100000004
? "(8, 8, PreActBlock(\n  (bn1): BatchNorm2d(664, eps=1e-05, momentum=0.1, affine=True,\
  \ track_running_stats=True)\n  (conv1): Conv2d(664, 664, kernel_size=(3, 3), stride=(1,\
  \ 1), padding=(1, 1), bias=False)\n  (bn2): BatchNorm2d(664, eps=1e-05, momentum=0.1,\
  \ affine=True, track_running_stats=True)\n  (conv2): Conv2d(664, 664, kernel_size=(3,\
  \ 3), stride=(1, 1), padding=(1, 1), bias=False)\n))"
: count: 10
  value: 32763.742400000006
? "(8, 8, PreActBlock(\n  (bn1): BatchNorm2d(720, eps=1e-05, momentum=0.1, affine=True,\
  \ track_running_stats=True)\n  (conv1): Conv2d(720, 720, kernel_size=(3, 3), stride=(1,\
  \ 1), padding=(1, 1), bias=False)\n  (bn2): BatchNorm2d(720, eps=1e-05, momentum=0.1,\
  \ affine=True, track_running_stats=True)\n  (conv2): Conv2d(720, 720, kernel_size=(3,\
  \ 3), stride=(1, 1), padding=(1, 1), bias=False)\n))"
: count: 10
  value: 41761.287
? "(8, 8, PreActBlock(\n  (bn1): BatchNorm2d(768, eps=1e-05, momentum=0.1, affine=True,\
  \ track_running_stats=True)\n  (conv1): Conv2d(768, 768, kernel_size=(3, 3), stride=(1,\
  \ 1), padding=(1, 1), bias=False)\n  (bn2): BatchNorm2d(768, eps=1e-05, momentum=0.1,\
  \ affine=True, track_running_stats=True)\n  (conv2): Conv2d(768, 768, kernel_size=(3,\
  \ 3), stride=(1, 1), padding=(1, 1), bias=False)\n))"
: count: 10
  value: 46308.2398
? "(8, 8, PreActBlock(\n  (bn1): BatchNorm2d(816, eps=1e-05, momentum=0.1, affine=True,\
  \ track_running_stats=True)\n  (conv1): Conv2d(816, 816, kernel_size=(3, 3), stride=(1,\
  \ 1), padding=(1, 1), bias=False)\n  (bn2): BatchNorm2d(816, eps=1e-05, momentum=0.1,\
  \ affine=True, track_running_stats=True)\n  (conv2): Conv2d(816, 816, kernel_size=(3,\
  \ 3), stride=(1, 1), padding=(1, 1), bias=False)\n))"
: count: 10
  value: 50302.3902
? "(8, 8, PreActBlock(\n  (bn1): BatchNorm2d(872, eps=1e-05, momentum=0.1, affine=True,\
  \ track_running_stats=True)\n  (conv1): Conv2d(872, 872, kernel_size=(3, 3), stride=(1,\
  \ 1), padding=(1, 1), bias=False)\n  (bn2): BatchNorm2d(872, eps=1e-05, momentum=0.1,\
  \ affine=True, track_running_stats=True)\n  (conv2): Conv2d(872, 872, kernel_size=(3,\
  \ 3), stride=(1, 1), padding=(1, 1), bias=False)\n))"
: count: 10
  value: 57229.369499999986
? "(8, 8, PreActBlock(\n  (bn1): BatchNorm2d(920, eps=1e-05, momentum=0.1, affine=True,\
  \ track_running_stats=True)\n  (conv1): Conv2d(920, 920, kernel_size=(3, 3), stride=(1,\
  \ 1), padding=(1, 1), bias=False)\n  (bn2): BatchNorm2d(920, eps=1e-05, momentum=0.1,\
  \ affine=True, track_running_stats=True)\n  (conv2): Conv2d(920, 920, kernel_size=(3,\
  \ 3), stride=(1, 1), padding=(1, 1), bias=False)\n))"
: count: 10
  value: 60323.12450000001
? "(8, 8, PreActBlock(\n  (bn1): BatchNorm2d(976, eps=1e-05, momentum=0.1, affine=True,\
  \ track_running_stats=True)\n  (conv1): Conv2d(976, 976, kernel_size=(3, 3), stride=(1,\
  \ 1), padding=(1, 1), bias=False)\n  (bn2): BatchNorm2d(976, eps=1e-05, momentum=0.1,\
  \ affine=True, track_running_stats=True)\n  (conv2): Conv2d(976, 976, kernel_size=(3,\
  \ 3), stride=(1, 1), padding=(1, 1), bias=False)\n))"
: count: 10
  value: 68036.91059999999
