? "(102, 102, PreActBlock(\n  (bn1): BatchNorm2d(128, eps=1e-05, momentum=0.1, affine=True,\
  \ track_running_stats=True)\n  (conv1): Conv2d(128, 128, kernel_size=(3, 3), stride=(1,\
  \ 1), padding=(1, 1), bias=False)\n  (bn2): BatchNorm2d(128, eps=1e-05, momentum=0.1,\
  \ affine=True, track_running_stats=True)\n  (conv2): Conv2d(128, 128, kernel_size=(3,\
  \ 3), stride=(1, 1), padding=(1, 1), bias=False)\n))"
: count: 10
  value: 5574.343602310944
? "(102, 102, PreActBlock(\n  (bn1): BatchNorm2d(144, eps=1e-05, momentum=0.1, affine=True,\
  \ track_running_stats=True)\n  (conv1): Conv2d(144, 144, kernel_size=(3, 3), stride=(1,\
  \ 1), padding=(1, 1), bias=False)\n  (bn2): BatchNorm2d(144, eps=1e-05, momentum=0.1,\
  \ affine=True, track_running_stats=True)\n  (conv2): Conv2d(144, 144, kernel_size=(3,\
  \ 3), stride=(1, 1), padding=(1, 1), bias=False)\n))"
: count: 10
  value: 7011.4961665924075
? "(102, 102, PreActBlock(\n  (bn1): BatchNorm2d(152, eps=1e-05, momentum=0.1, affine=True,\
  \ track_running_stats=True)\n  (conv1): Conv2d(152, 152, kernel_size=(3, 3), stride=(1,\
  \ 1), padding=(1, 1), bias=False)\n  (bn2): BatchNorm2d(152, eps=1e-05, momentum=0.1,\
  \ affine=True, track_running_stats=True)\n  (conv2): Conv2d(152, 152, kernel_size=(3,\
  \ 3), stride=(1, 1), padding=(1, 1), bias=False)\n))"
: count: 10
  value: 7276.678953961944
? "(102, 102, PreActBlock(\n  (bn1): BatchNorm2d(168, eps=1e-05, momentum=0.1, affine=True,\
  \ track_running_stats=True)\n  (conv1): Conv2d(168, 168, kernel_size=(3, 3), stride=(1,\
  \ 1), padding=(1, 1), bias=False)\n  (bn2): BatchNorm2d(168, eps=1e-05, momentum=0.1,\
  \ affine=True, track_running_stats=True)\n  (conv2): Conv2d(168, 168, kernel_size=(3,\
  \ 3), stride=(1, 1), padding=(1, 1), bias=False)\n))"
: count: 10
  value: 9490.074272034455
? "(102, 102, PreActBlock(\n  (bn1): BatchNorm2d(176, eps=1e-05, momentum=0.1, affine=True,\
  \ track_running_stats=True)\n  (conv1): Conv2d(176, 176, kernel_size=(3, 3), stride=(1,\
  \ 1), padding=(1, 1), bias=False)\n  (bn2): BatchNorm2d(176, eps=1e-05, momentum=0.1,\
  \ affine=True, track_running_stats=True)\n  (conv2): Conv2d(176, 176, kernel_size=(3,\
  \ 3), stride=(1, 1), padding=(1, 1), bias=False)\n))"
: count: 10
  value: 9922.013459500888
? "(102, 102, PreActBlock(\n  (bn1): BatchNorm2d(192, eps=1e-05, momentum=0.1, affine=True,\
  \ track_running_stats=True)\n  (conv1): Conv2d(192, 192, kernel_size=(3, 3), stride=(1,\
  \ 1), padding=(1, 1), bias=False)\n  (bn2): BatchNorm2d(192, eps=1e-05, momentum=0.1,\
  \ affine=True, track_running_stats=True)\n  (conv2): Conv2d(192, 192, kernel_size=(3,\
  \ 3), stride=(1, 1), padding=(1, 1), bias=False)\n))"
: count: 10
  value: 13284.262506247711
? "(102, 102, PreActBlock(\n  (bn1): BatchNorm2d(208, eps=1e-05, momentum=0.1, affine=True,\
  \ track_running_stats=True)\n  (conv1): Conv2d(208, 208, kernel_size=(3, 3), stride=(1,\
  \ 1), padding=(1, 1), bias=False)\n  (bn2): BatchNorm2d(208, eps=1e-05, momentum=0.1,\
  \ affine=True, track_running_stats=True)\n  (conv2): Conv2d(208, 208, kernel_size=(3,\
  \ 3), stride=(1, 1), padding=(1, 1), bias=False)\n))"
: count: 10
  value: 12489.457993569946
? "(102, 102, PreActBlock(\n  (bn1): BatchNorm2d(216, eps=1e-05, momentum=0.1, affine=True,\
  \ track_running_stats=True)\n  (conv1): Conv2d(216, 216, kernel_size=(3, 3), stride=(1,\
  \ 1), padding=(1, 1), bias=False)\n  (bn2): BatchNorm2d(216, eps=1e-05, momentum=0.1,\
  \ affine=True, track_running_stats=True)\n  (conv2): Conv2d(216, 216, kernel_size=(3,\
  \ 3), stride=(1, 1), padding=(1, 1), bias=False)\n))"
: count: 10
  value: 12881.381046454619
? "(102, 102, PreActBlock(\n  (bn1): BatchNorm2d(232, eps=1e-05, momentum=0.1, affine=True,\
  \ track_running_stats=True)\n  (conv1): Conv2d(232, 232, kernel_size=(3, 3), stride=(1,\
  \ 1), padding=(1, 1), bias=False)\n  (bn2): BatchNorm2d(232, eps=1e-05, momentum=0.1,\
  \ affine=True, track_running_stats=True)\n  (conv2): Conv2d(232, 232, kernel_size=(3,\
  \ 3), stride=(1, 1), padding=(1, 1), bias=False)\n))"
: count: 10
  value: 15699.537107371521
? "(102, 102, PreActBlock(\n  (bn1): BatchNorm2d(240, eps=1e-05, momentum=0.1, affine=True,\
  \ track_running_stats=True)\n  (conv1): Conv2d(240, 240, kernel_size=(3, 3), stride=(1,\
  \ 1), padding=(1, 1), bias=False)\n  (bn2): BatchNorm2d(240, eps=1e-05, momentum=0.1,\
  \ affine=True, track_running_stats=True)\n  (conv2): Conv2d(240, 240, kernel_size=(3,\
  \ 3), stride=(1, 1), padding=(1, 1), bias=False)\n))"
: count: 10
  value: 16235.282549373627
? "(102, 102, PreActBlock(\n  (bn1): BatchNorm2d(256, eps=1e-05, momentum=0.1, affine=True,\
  \ track_running_stats=True)\n  (conv1): Conv2d(256, 256, kernel_size=(3, 3), stride=(1,\
  \ 1), padding=(1, 1), bias=False)\n  (bn2): BatchNorm2d(256, eps=1e-05, momentum=0.1,\
  \ affine=True, track_running_stats=True)\n  (conv2): Conv2d(256, 256, kernel_size=(3,\
  \ 3), stride=(1, 1), padding=(1, 1), bias=False)\n))"
: count: 10
  value: 17011.932231095125
? "(102, 102, PreActBlock(\n  (bn1): BatchNorm2d(272, eps=1e-05, momentum=0.1, affine=True,\
  \ track_running_stats=True)\n  (conv1): Conv2d(272, 272, kernel_size=(3, 3), stride=(1,\
  \ 1), padding=(1, 1), bias=False)\n  (bn2): BatchNorm2d(272, eps=1e-05, momentum=0.1,\
  \ affine=True, track_running_stats=True)\n  (conv2): Conv2d(272, 272, kernel_size=(3,\
  \ 3), stride=(1, 1), padding=(1, 1), bias=False)\n))"
: count: 10
  value: 19947.236273400114
? "(102, 102, PreActBlock(\n  (bn1): BatchNorm2d(280, eps=1e-05, momentum=0.1, affine=True,\
  \ track_running_stats=True)\n  (conv1): Conv2d(280, 280, kernel_size=(3, 3), stride=(1,\
  \ 1), padding=(1, 1), bias=False)\n  (bn2): BatchNorm2d(280, eps=1e-05, momentum=0.1,\
  \ affine=True, track_running_stats=True)\n  (conv2): Conv2d(280, 280, kernel_size=(3,\
  \ 3), stride=(1, 1), padding=(1, 1), bias=False)\n))"
: count: 10
  value: 20325.119789962766
? "(102, 102, PreActBlock(\n  (bn1): BatchNorm2d(296, eps=1e-05, momentum=0.1, affine=True,\
  \ track_running_stats=True)\n  (conv1): Conv2d(296, 296, kernel_size=(3, 3), stride=(1,\
  \ 1), padding=(1, 1), bias=False)\n  (bn2): BatchNorm2d(296, eps=1e-05, momentum=0.1,\
  \ affine=True, track_running_stats=True)\n  (conv2): Conv2d(296, 296, kernel_size=(3,\
  \ 3), stride=(1, 1), padding=(1, 1), bias=False)\n))"
: count: 10
  value: 28533.609057231904
? "(102, 102, PreActBlock(\n  (bn1): BatchNorm2d(304, eps=1e-05, momentum=0.1, affine=True,\
  \ track_running_stats=True)\n  (conv1): Conv2d(304, 304, kernel_size=(3, 3), stride=(1,\
  \ 1), padding=(1, 1), bias=False)\n  (bn2): BatchNorm2d(304, eps=1e-05, momentum=0.1,\
  \ affine=True, track_running_stats=True)\n  (conv2): Conv2d(304, 304, kernel_size=(3,\
  \ 3), stride=(1, 1), padding=(1, 1), bias=False)\n))"
: count: 10
  value: 24457.751795652777
? "(102, 102, PreActBlock(\n  (bn1): BatchNorm2d(320, eps=1e-05, momentum=0.1, affine=True,\
  \ track_running_stats=True)\n  (conv1): Conv2d(320, 320, kernel_size=(3, 3), stride=(1,\
  \ 1), padding=(1, 1), bias=False)\n  (bn2): BatchNorm2d(320, eps=1e-05, momentum=0.1,\
  \ affine=True, track_running_stats=True)\n  (conv2): Conv2d(320, 320, kernel_size=(3,\
  \ 3), stride=(1, 1), padding=(1, 1), bias=False)\n))"
: count: 10
  value: 25671.01196075821
? "(102, 102, PreActBlock(\n  (bn1): BatchNorm2d(336, eps=1e-05, momentum=0.1, affine=True,\
  \ track_running_stats=True)\n  (conv1): Conv2d(336, 336, kernel_size=(3, 3), stride=(1,\
  \ 1), padding=(1, 1), bias=False)\n  (bn2): BatchNorm2d(336, eps=1e-05, momentum=0.1,\
  \ affine=True, track_running_stats=True)\n  (conv2): Conv2d(336, 336, kernel_size=(3,\
  \ 3), stride=(1, 1), padding=(1, 1), bias=False)\n))"
: count: 10
  value: 29805.520260731508
? "(102, 102, PreActBlock(\n  (bn1): BatchNorm2d(344, eps=1e-05, momentum=0.1, affine=True,\
  \ track_running_stats=True)\n  (conv1): Conv2d(344, 344, kernel_size=(3, 3), stride=(1,\
  \ 1), padding=(1, 1), bias=False)\n  (bn2): BatchNorm2d(344, eps=1e-05, momentum=0.1,\
  \ affine=True, track_running_stats=True)\n  (conv2): Conv2d(344, 344, kernel_size=(3,\
  \ 3), stride=(1, 1), padding=(1, 1), bias=False)\n))"
: count: 10
  value: 30875.22669851227
? "(102, 102, PreActBlock(\n  (bn1): BatchNorm2d(360, eps=1e-05, momentum=0.1, affine=True,\
  \ track_running_stats=True)\n  (conv1): Conv2d(360, 360, kernel_size=(3, 3), stride=(1,\
  \ 1), padding=(1, 1), bias=False)\n  (bn2): BatchNorm2d(360, eps=1e-05, momentum=0.1,\
  \ affine=True, track_running_stats=True)\n  (conv2): Conv2d(360, 360, kernel_size=(3,\
  \ 3), stride=(1, 1), padding=(1, 1), bias=False)\n))"
: count: 10
  value: 36959.73010596237
? "(102, 102, PreActBlock(\n  (bn1): BatchNorm2d(368, eps=1e-05, momentum=0.1, affine=True,\
  \ track_running_stats=True)\n  (conv1): Conv2d(368, 368, kernel_size=(3, 3), stride=(1,\
  \ 1), padding=(1, 1), bias=False)\n  (bn2): BatchNorm2d(368, eps=1e-05, momentum=0.1,\
  \ affine=True, track_running_stats=True)\n  (conv2): Conv2d(368, 368, kernel_size=(3,\
  \ 3), stride=(1, 1), padding=(1, 1), bias=False)\n))"
: count: 10
  value: 35177.75509556961
? "(102, 102, PreActBlock(\n  (bn1): BatchNorm2d(384, eps=1e-05, momentum=0.1, affine=True,\
  \ track_running_stats=True)\n  (conv1): Conv2d(384, 384, kernel_size=(3, 3), stride=(1,\
  \ 1), padding=(1, 1), bias=False)\n  (bn2): BatchNorm2d(384, eps=1e-05, momentum=0.1,\
  \ affine=True, track_running_stats=True)\n  (conv2): Conv2d(384, 384, kernel_size=(3,\
  \ 3), stride=(1, 1), padding=(1, 1), bias=False)\n))"
: count: 10
  value: 36704.00857388535
? "(102, 102, PreActBlock(\n  (bn1): BatchNorm2d(400, eps=1e-05, momentum=0.1, affine=True,\
  \ track_running_stats=True)\n  (conv1): Conv2d(400, 400, kernel_size=(3, 3), stride=(1,\
  \ 1), padding=(1, 1), bias=False)\n  (bn2): BatchNorm2d(400, eps=1e-05, momentum=0.1,\
  \ affine=True, track_running_stats=True)\n  (conv2): Conv2d(400, 400, kernel_size=(3,\
  \ 3), stride=(1, 1), padding=(1, 1), bias=False)\n))"
: count: 10
  value: 45112.66587847596
? "(102, 102, PreActBlock(\n  (bn1): BatchNorm2d(408, eps=1e-05, momentum=0.1, affine=True,\
  \ track_running_stats=True)\n  (conv1): Conv2d(408, 408, kernel_size=(3, 3), stride=(1,\
  \ 1), padding=(1, 1), bias=False)\n  (bn2): BatchNorm2d(408, eps=1e-05, momentum=0.1,\
  \ affine=True, track_running_stats=True)\n  (conv2): Conv2d(408, 408, kernel_size=(3,\
  \ 3), stride=(1, 1), padding=(1, 1), bias=False)\n))"
: count: 10
  value: 46077.476072637175
? "(102, 102, PreActBlock(\n  (bn1): BatchNorm2d(424, eps=1e-05, momentum=0.1, affine=True,\
  \ track_running_stats=True)\n  (conv1): Conv2d(424, 424, kernel_size=(3, 3), stride=(1,\
  \ 1), padding=(1, 1), bias=False)\n  (bn2): BatchNorm2d(424, eps=1e-05, momentum=0.1,\
  \ affine=True, track_running_stats=True)\n  (conv2): Conv2d(424, 424, kernel_size=(3,\
  \ 3), stride=(1, 1), padding=(1, 1), bias=False)\n))"
: count: 10
  value: 49773.74867232055
? "(102, 102, PreActBlock(\n  (bn1): BatchNorm2d(432, eps=1e-05, momentum=0.1, affine=True,\
  \ track_running_stats=True)\n  (conv1): Conv2d(432, 432, kernel_size=(3, 3), stride=(1,\
  \ 1), padding=(1, 1), bias=False)\n  (bn2): BatchNorm2d(432, eps=1e-05, momentum=0.1,\
  \ affine=True, track_running_stats=True)\n  (conv2): Conv2d(432, 432, kernel_size=(3,\
  \ 3), stride=(1, 1), padding=(1, 1), bias=False)\n))"
: count: 10
  value: 50729.401678193666
? "(102, 102, PreActBlock(\n  (bn1): BatchNorm2d(448, eps=1e-05, momentum=0.1, affine=True,\
  \ track_running_stats=True)\n  (conv1): Conv2d(448, 448, kernel_size=(3, 3), stride=(1,\
  \ 1), padding=(1, 1), bias=False)\n  (bn2): BatchNorm2d(448, eps=1e-05, momentum=0.1,\
  \ affine=True, track_running_stats=True)\n  (conv2): Conv2d(448, 448, kernel_size=(3,\
  \ 3), stride=(1, 1), padding=(1, 1), bias=False)\n))"
: count: 10
  value: 57810.86379225311
? "(102, 102, PreActBlock(\n  (bn1): BatchNorm2d(464, eps=1e-05, momentum=0.1, affine=True,\
  \ track_running_stats=True)\n  (conv1): Conv2d(464, 464, kernel_size=(3, 3), stride=(1,\
  \ 1), padding=(1, 1), bias=False)\n  (bn2): BatchNorm2d(464, eps=1e-05, momentum=0.1,\
  \ affine=True, track_running_stats=True)\n  (conv2): Conv2d(464, 464, kernel_size=(3,\
  \ 3), stride=(1, 1), padding=(1, 1), bias=False)\n))"
: count: 10
  value: 61271.21443774567
? "(102, 102, PreActBlock(\n  (bn1): BatchNorm2d(472, eps=1e-05, momentum=0.1, affine=True,\
  \ track_running_stats=True)\n  (conv1): Conv2d(472, 472, kernel_size=(3, 3), stride=(1,\
  \ 1), padding=(1, 1), bias=False)\n  (bn2): BatchNorm2d(472, eps=1e-05, momentum=0.1,\
  \ affine=True, track_running_stats=True)\n  (conv2): Conv2d(472, 472, kernel_size=(3,\
  \ 3), stride=(1, 1), padding=(1, 1), bias=False)\n))"
: count: 10
  value: 61878.892060658254
? "(102, 102, PreActBlock(\n  (bn1): BatchNorm2d(488, eps=1e-05, momentum=0.1, affine=True,\
  \ track_running_stats=True)\n  (conv1): Conv2d(488, 488, kernel_size=(3, 3), stride=(1,\
  \ 1), padding=(1, 1), bias=False)\n  (bn2): BatchNorm2d(488, eps=1e-05, momentum=0.1,\
  \ affine=True, track_running_stats=True)\n  (conv2): Conv2d(488, 488, kernel_size=(3,\
  \ 3), stride=(1, 1), padding=(1, 1), bias=False)\n))"
: count: 10
  value: 70385.45256911544
? "(102, 102, PreActBlock(\n  (bn1): BatchNorm2d(496, eps=1e-05, momentum=0.1, affine=True,\
  \ track_running_stats=True)\n  (conv1): Conv2d(496, 496, kernel_size=(3, 3), stride=(1,\
  \ 1), padding=(1, 1), bias=False)\n  (bn2): BatchNorm2d(496, eps=1e-05, momentum=0.1,\
  \ affine=True, track_running_stats=True)\n  (conv2): Conv2d(496, 496, kernel_size=(3,\
  \ 3), stride=(1, 1), padding=(1, 1), bias=False)\n))"
: count: 10
  value: 72259.64531144944
? "(102, 102, PreActBlock(\n  (bn1): BatchNorm2d(512, eps=1e-05, momentum=0.1, affine=True,\
  \ track_running_stats=True)\n  (conv1): Conv2d(512, 512, kernel_size=(3, 3), stride=(1,\
  \ 1), padding=(1, 1), bias=False)\n  (bn2): BatchNorm2d(512, eps=1e-05, momentum=0.1,\
  \ affine=True, track_running_stats=True)\n  (conv2): Conv2d(512, 512, kernel_size=(3,\
  \ 3), stride=(1, 1), padding=(1, 1), bias=False)\n))"
: count: 10
  value: 77149.80513840409
? "(102, 102, PreActBlock(\n  (bn1): BatchNorm2d(528, eps=1e-05, momentum=0.1, affine=True,\
  \ track_running_stats=True)\n  (conv1): Conv2d(528, 528, kernel_size=(3, 3), stride=(1,\
  \ 1), padding=(1, 1), bias=False)\n  (bn2): BatchNorm2d(528, eps=1e-05, momentum=0.1,\
  \ affine=True, track_running_stats=True)\n  (conv2): Conv2d(528, 528, kernel_size=(3,\
  \ 3), stride=(1, 1), padding=(1, 1), bias=False)\n))"
: count: 10
  value: 89198.44449701004
? "(102, 102, PreActBlock(\n  (bn1): BatchNorm2d(536, eps=1e-05, momentum=0.1, affine=True,\
  \ track_running_stats=True)\n  (conv1): Conv2d(536, 536, kernel_size=(3, 3), stride=(1,\
  \ 1), padding=(1, 1), bias=False)\n  (bn2): BatchNorm2d(536, eps=1e-05, momentum=0.1,\
  \ affine=True, track_running_stats=True)\n  (conv2): Conv2d(536, 536, kernel_size=(3,\
  \ 3), stride=(1, 1), padding=(1, 1), bias=False)\n))"
: count: 10
  value: 88206.40412411041
? "(102, 102, PreActBlock(\n  (bn1): BatchNorm2d(552, eps=1e-05, momentum=0.1, affine=True,\
  \ track_running_stats=True)\n  (conv1): Conv2d(552, 552, kernel_size=(3, 3), stride=(1,\
  \ 1), padding=(1, 1), bias=False)\n  (bn2): BatchNorm2d(552, eps=1e-05, momentum=0.1,\
  \ affine=True, track_running_stats=True)\n  (conv2): Conv2d(552, 552, kernel_size=(3,\
  \ 3), stride=(1, 1), padding=(1, 1), bias=False)\n))"
: count: 10
  value: 97406.92303382873
? "(102, 102, PreActBlock(\n  (bn1): BatchNorm2d(560, eps=1e-05, momentum=0.1, affine=True,\
  \ track_running_stats=True)\n  (conv1): Conv2d(560, 560, kernel_size=(3, 3), stride=(1,\
  \ 1), padding=(1, 1), bias=False)\n  (bn2): BatchNorm2d(560, eps=1e-05, momentum=0.1,\
  \ affine=True, track_running_stats=True)\n  (conv2): Conv2d(560, 560, kernel_size=(3,\
  \ 3), stride=(1, 1), padding=(1, 1), bias=False)\n))"
: count: 10
  value: 99392.36161340712
? "(102, 102, PreActBlock(\n  (bn1): BatchNorm2d(576, eps=1e-05, momentum=0.1, affine=True,\
  \ track_running_stats=True)\n  (conv1): Conv2d(576, 576, kernel_size=(3, 3), stride=(1,\
  \ 1), padding=(1, 1), bias=False)\n  (bn2): BatchNorm2d(576, eps=1e-05, momentum=0.1,\
  \ affine=True, track_running_stats=True)\n  (conv2): Conv2d(576, 576, kernel_size=(3,\
  \ 3), stride=(1, 1), padding=(1, 1), bias=False)\n))"
: count: 10
  value: 106044.21094915768
? "(102, 102, PreActBlock(\n  (bn1): BatchNorm2d(592, eps=1e-05, momentum=0.1, affine=True,\
  \ track_running_stats=True)\n  (conv1): Conv2d(592, 592, kernel_size=(3, 3), stride=(1,\
  \ 1), padding=(1, 1), bias=False)\n  (bn2): BatchNorm2d(592, eps=1e-05, momentum=0.1,\
  \ affine=True, track_running_stats=True)\n  (conv2): Conv2d(592, 592, kernel_size=(3,\
  \ 3), stride=(1, 1), padding=(1, 1), bias=False)\n))"
: count: 10
  value: 122542.92754953308
? "(102, 102, PreActBlock(\n  (bn1): BatchNorm2d(600, eps=1e-05, momentum=0.1, affine=True,\
  \ track_running_stats=True)\n  (conv1): Conv2d(600, 600, kernel_size=(3, 3), stride=(1,\
  \ 1), padding=(1, 1), bias=False)\n  (bn2): BatchNorm2d(600, eps=1e-05, momentum=0.1,\
  \ affine=True, track_running_stats=True)\n  (conv2): Conv2d(600, 600, kernel_size=(3,\
  \ 3), stride=(1, 1), padding=(1, 1), bias=False)\n))"
: count: 10
  value: 124048.50658082124
? "(102, 102, PreActBlock(\n  (bn1): BatchNorm2d(616, eps=1e-05, momentum=0.1, affine=True,\
  \ track_running_stats=True)\n  (conv1): Conv2d(616, 616, kernel_size=(3, 3), stride=(1,\
  \ 1), padding=(1, 1), bias=False)\n  (bn2): BatchNorm2d(616, eps=1e-05, momentum=0.1,\
  \ affine=True, track_running_stats=True)\n  (conv2): Conv2d(616, 616, kernel_size=(3,\
  \ 3), stride=(1, 1), padding=(1, 1), bias=False)\n))"
: count: 10
  value: 134737.7745724411
? "(102, 102, PreActBlock(\n  (bn1): BatchNorm2d(624, eps=1e-05, momentum=0.1, affine=True,\
  \ track_running_stats=True)\n  (conv1): Conv2d(624, 624, kernel_size=(3, 3), stride=(1,\
  \ 1), padding=(1, 1), bias=False)\n  (bn2): BatchNorm2d(624, eps=1e-05, momentum=0.1,\
  \ affine=True, track_running_stats=True)\n  (conv2): Conv2d(624, 624, kernel_size=(3,\
  \ 3), stride=(1, 1), padding=(1, 1), bias=False)\n))"
: count: 10
  value: 129577.59685751877
? "(102, 102, PreActBlock(\n  (bn1): BatchNorm2d(640, eps=1e-05, momentum=0.1, affine=True,\
  \ track_running_stats=True)\n  (conv1): Conv2d(640, 640, kernel_size=(3, 3), stride=(1,\
  \ 1), padding=(1, 1), bias=False)\n  (bn2): BatchNorm2d(640, eps=1e-05, momentum=0.1,\
  \ affine=True, track_running_stats=True)\n  (conv2): Conv2d(640, 640, kernel_size=(3,\
  \ 3), stride=(1, 1), padding=(1, 1), bias=False)\n))"
: count: 10
  value: 133185.12747719727
? "(102, 51, PreActBlock(\n  (bn1): BatchNorm2d(128, eps=1e-05, momentum=0.1, affine=True,\
  \ track_running_stats=True)\n  (conv1): Conv2d(128, 256, kernel_size=(3, 3), stride=(2,\
  \ 2), padding=(1, 1), bias=False)\n  (bn2): BatchNorm2d(256, eps=1e-05, momentum=0.1,\
  \ affine=True, track_running_stats=True)\n  (conv2): Conv2d(256, 256, kernel_size=(3,\
  \ 3), stride=(1, 1), padding=(1, 1), bias=False)\n  (shortcut): Sequential(\n  \
  \  (0): Conv2d(128, 256, kernel_size=(1, 1), stride=(2, 2), bias=False)\n  )\n))"
: count: 10
  value: 6643.342961251069
? "(102, 51, PreActBlock(\n  (bn1): BatchNorm2d(144, eps=1e-05, momentum=0.1, affine=True,\
  \ track_running_stats=True)\n  (conv1): Conv2d(144, 280, kernel_size=(3, 3), stride=(2,\
  \ 2), padding=(1, 1), bias=False)\n  (bn2): BatchNorm2d(280, eps=1e-05, momentum=0.1,\
  \ affine=True, track_running_stats=True)\n  (conv2): Conv2d(280, 280, kernel_size=(3,\
  \ 3), stride=(1, 1), padding=(1, 1), bias=False)\n  (shortcut): Sequential(\n  \
  \  (0): Conv2d(144, 280, kernel_size=(1, 1), stride=(2, 2), bias=False)\n  )\n))"
: count: 10
  value: 8181.385611115265
? "(102, 51, PreActBlock(\n  (bn1): BatchNorm2d(152, eps=1e-05, momentum=0.1, affine=True,\
  \ track_running_stats=True)\n  (conv1): Conv2d(152, 304, kernel_size=(3, 3), stride=(2,\
  \ 2), padding=(1, 1), bias=False)\n  (bn2): BatchNorm2d(304, eps=1e-05, momentum=0.1,\
  \ affine=True, track_running_stats=True)\n  (conv2): Conv2d(304, 304, kernel_size=(3,\
  \ 3), stride=(1, 1), padding=(1, 1), bias=False)\n  (shortcut): Sequential(\n  \
  \  (0): Conv2d(152, 304, kernel_size=(1, 1), stride=(2, 2), bias=False)\n  )\n))"
: count: 10
  value: 8865.761311086275
? "(102, 51, PreActBlock(\n  (bn1): BatchNorm2d(168, eps=1e-05, momentum=0.1, affine=True,\
  \ track_running_stats=True)\n  (conv1): Conv2d(168, 336, kernel_size=(3, 3), stride=(2,\
  \ 2), padding=(1, 1), bias=False)\n  (bn2): BatchNorm2d(336, eps=1e-05, momentum=0.1,\
  \ affine=True, track_running_stats=True)\n  (conv2): Conv2d(336, 336, kernel_size=(3,\
  \ 3), stride=(1, 1), padding=(1, 1), bias=False)\n  (shortcut): Sequential(\n  \
  \  (0): Conv2d(168, 336, kernel_size=(1, 1), stride=(2, 2), bias=False)\n  )\n))"
: count: 10
  value: 10509.519046775818
? "(102, 51, PreActBlock(\n  (bn1): BatchNorm2d(176, eps=1e-05, momentum=0.1, affine=True,\
  \ track_running_stats=True)\n  (conv1): Conv2d(176, 360, kernel_size=(3, 3), stride=(2,\
  \ 2), padding=(1, 1), bias=False)\n  (bn2): BatchNorm2d(360, eps=1e-05, momentum=0.1,\
  \ affine=True, track_running_stats=True)\n  (conv2): Conv2d(360, 360, kernel_size=(3,\
  \ 3), stride=(1, 1), padding=(1, 1), bias=False)\n  (shortcut): Sequential(\n  \
  \  (0): Conv2d(176, 360, kernel_size=(1, 1), stride=(2, 2), bias=False)\n  )\n))"
: count: 10
  value: 11424.014525682069
? "(102, 51, PreActBlock(\n  (bn1): BatchNorm2d(192, eps=1e-05, momentum=0.1, affine=True,\
  \ track_running_stats=True)\n  (conv1): Conv2d(192, 384, kernel_size=(3, 3), stride=(2,\
  \ 2), padding=(1, 1), bias=False)\n  (bn2): BatchNorm2d(384, eps=1e-05, momentum=0.1,\
  \ affine=True, track_running_stats=True)\n  (conv2): Conv2d(384, 384, kernel_size=(3,\
  \ 3), stride=(1, 1), padding=(1, 1), bias=False)\n  (shortcut): Sequential(\n  \
  \  (0): Conv2d(192, 384, kernel_size=(1, 1), stride=(2, 2), bias=False)\n  )\n))"
: count: 10
  value: 12215.792360694122
? "(102, 51, PreActBlock(\n  (bn1): BatchNorm2d(208, eps=1e-05, momentum=0.1, affine=True,\
  \ track_running_stats=True)\n  (conv1): Conv2d(208, 408, kernel_size=(3, 3), stride=(2,\
  \ 2), padding=(1, 1), bias=False)\n  (bn2): BatchNorm2d(408, eps=1e-05, momentum=0.1,\
  \ affine=True, track_running_stats=True)\n  (conv2): Conv2d(408, 408, kernel_size=(3,\
  \ 3), stride=(1, 1), padding=(1, 1), bias=False)\n  (shortcut): Sequential(\n  \
  \  (0): Conv2d(208, 408, kernel_size=(1, 1), stride=(2, 2), bias=False)\n  )\n))"
: count: 10
  value: 19029.163689553076
? "(102, 51, PreActBlock(\n  (bn1): BatchNorm2d(216, eps=1e-05, momentum=0.1, affine=True,\
  \ track_running_stats=True)\n  (conv1): Conv2d(216, 432, kernel_size=(3, 3), stride=(2,\
  \ 2), padding=(1, 1), bias=False)\n  (bn2): BatchNorm2d(432, eps=1e-05, momentum=0.1,\
  \ affine=True, track_running_stats=True)\n  (conv2): Conv2d(432, 432, kernel_size=(3,\
  \ 3), stride=(1, 1), padding=(1, 1), bias=False)\n  (shortcut): Sequential(\n  \
  \  (0): Conv2d(216, 432, kernel_size=(1, 1), stride=(2, 2), bias=False)\n  )\n))"
: count: 10
  value: 16329.661280577851
? "(102, 51, PreActBlock(\n  (bn1): BatchNorm2d(232, eps=1e-05, momentum=0.1, affine=True,\
  \ track_running_stats=True)\n  (conv1): Conv2d(232, 464, kernel_size=(3, 3), stride=(2,\
  \ 2), padding=(1, 1), bias=False)\n  (bn2): BatchNorm2d(464, eps=1e-05, momentum=0.1,\
  \ affine=True, track_running_stats=True)\n  (conv2): Conv2d(464, 464, kernel_size=(3,\
  \ 3), stride=(1, 1), padding=(1, 1), bias=False)\n  (shortcut): Sequential(\n  \
  \  (0): Conv2d(232, 464, kernel_size=(1, 1), stride=(2, 2), bias=False)\n  )\n))"
: count: 10
  value: 18091.19667392807
? "(102, 51, PreActBlock(\n  (bn1): BatchNorm2d(240, eps=1e-05, momentum=0.1, affine=True,\
  \ track_running_stats=True)\n  (conv1): Conv2d(240, 488, kernel_size=(3, 3), stride=(2,\
  \ 2), padding=(1, 1), bias=False)\n  (bn2): BatchNorm2d(488, eps=1e-05, momentum=0.1,\
  \ affine=True, track_running_stats=True)\n  (conv2): Conv2d(488, 488, kernel_size=(3,\
  \ 3), stride=(1, 1), padding=(1, 1), bias=False)\n  (shortcut): Sequential(\n  \
  \  (0): Conv2d(240, 488, kernel_size=(1, 1), stride=(2, 2), bias=False)\n  )\n))"
: count: 10
  value: 20052.354740751653
? "(102, 51, PreActBlock(\n  (bn1): BatchNorm2d(256, eps=1e-05, momentum=0.1, affine=True,\
  \ track_running_stats=True)\n  (conv1): Conv2d(256, 512, kernel_size=(3, 3), stride=(2,\
  \ 2), padding=(1, 1), bias=False)\n  (bn2): BatchNorm2d(512, eps=1e-05, momentum=0.1,\
  \ affine=True, track_running_stats=True)\n  (conv2): Conv2d(512, 512, kernel_size=(3,\
  \ 3), stride=(1, 1), padding=(1, 1), bias=False)\n  (shortcut): Sequential(\n  \
  \  (0): Conv2d(256, 512, kernel_size=(1, 1), stride=(2, 2), bias=False)\n  )\n))"
: count: 10
  value: 21082.582515888214
? "(102, 51, PreActBlock(\n  (bn1): BatchNorm2d(272, eps=1e-05, momentum=0.1, affine=True,\
  \ track_running_stats=True)\n  (conv1): Conv2d(272, 536, kernel_size=(3, 3), stride=(2,\
  \ 2), padding=(1, 1), bias=False)\n  (bn2): BatchNorm2d(536, eps=1e-05, momentum=0.1,\
  \ affine=True, track_running_stats=True)\n  (conv2): Conv2d(536, 536, kernel_size=(3,\
  \ 3), stride=(1, 1), padding=(1, 1), bias=False)\n  (shortcut): Sequential(\n  \
  \  (0): Conv2d(272, 536, kernel_size=(1, 1), stride=(2, 2), bias=False)\n  )\n))"
: count: 10
  value: 25555.076095598604
? "(102, 51, PreActBlock(\n  (bn1): BatchNorm2d(280, eps=1e-05, momentum=0.1, affine=True,\
  \ track_running_stats=True)\n  (conv1): Conv2d(280, 560, kernel_size=(3, 3), stride=(2,\
  \ 2), padding=(1, 1), bias=False)\n  (bn2): BatchNorm2d(560, eps=1e-05, momentum=0.1,\
  \ affine=True, track_running_stats=True)\n  (conv2): Conv2d(560, 560, kernel_size=(3,\
  \ 3), stride=(1, 1), padding=(1, 1), bias=False)\n  (shortcut): Sequential(\n  \
  \  (0): Conv2d(280, 560, kernel_size=(1, 1), stride=(2, 2), bias=False)\n  )\n))"
: count: 10
  value: 27246.440443012234
? "(102, 51, PreActBlock(\n  (bn1): BatchNorm2d(296, eps=1e-05, momentum=0.1, affine=True,\
  \ track_running_stats=True)\n  (conv1): Conv2d(296, 592, kernel_size=(3, 3), stride=(2,\
  \ 2), padding=(1, 1), bias=False)\n  (bn2): BatchNorm2d(592, eps=1e-05, momentum=0.1,\
  \ affine=True, track_running_stats=True)\n  (conv2): Conv2d(592, 592, kernel_size=(3,\
  \ 3), stride=(1, 1), padding=(1, 1), bias=False)\n  (shortcut): Sequential(\n  \
  \  (0): Conv2d(296, 592, kernel_size=(1, 1), stride=(2, 2), bias=False)\n  )\n))"
: count: 10
  value: 30451.93946823426
? "(102, 51, PreActBlock(\n  (bn1): BatchNorm2d(304, eps=1e-05, momentum=0.1, affine=True,\
  \ track_running_stats=True)\n  (conv1): Conv2d(304, 616, kernel_size=(3, 3), stride=(2,\
  \ 2), padding=(1, 1), bias=False)\n  (bn2): BatchNorm2d(616, eps=1e-05, momentum=0.1,\
  \ affine=True, track_running_stats=True)\n  (conv2): Conv2d(616, 616, kernel_size=(3,\
  \ 3), stride=(1, 1), padding=(1, 1), bias=False)\n  (shortcut): Sequential(\n  \
  \  (0): Conv2d(304, 616, kernel_size=(1, 1), stride=(2, 2), bias=False)\n  )\n))"
: count: 10
  value: 32969.584546026614
? "(102, 51, PreActBlock(\n  (bn1): BatchNorm2d(320, eps=1e-05, momentum=0.1, affine=True,\
  \ track_running_stats=True)\n  (conv1): Conv2d(320, 640, kernel_size=(3, 3), stride=(2,\
  \ 2), padding=(1, 1), bias=False)\n  (bn2): BatchNorm2d(640, eps=1e-05, momentum=0.1,\
  \ affine=True, track_running_stats=True)\n  (conv2): Conv2d(640, 640, kernel_size=(3,\
  \ 3), stride=(1, 1), padding=(1, 1), bias=False)\n  (shortcut): Sequential(\n  \
  \  (0): Conv2d(320, 640, kernel_size=(1, 1), stride=(2, 2), bias=False)\n  )\n))"
: count: 10
  value: 34749.96570120697
? "(102, 51, PreActBlock(\n  (bn1): BatchNorm2d(336, eps=1e-05, momentum=0.1, affine=True,\
  \ track_running_stats=True)\n  (conv1): Conv2d(336, 664, kernel_size=(3, 3), stride=(2,\
  \ 2), padding=(1, 1), bias=False)\n  (bn2): BatchNorm2d(664, eps=1e-05, momentum=0.1,\
  \ affine=True, track_running_stats=True)\n  (conv2): Conv2d(664, 664, kernel_size=(3,\
  \ 3), stride=(1, 1), padding=(1, 1), bias=False)\n  (shortcut): Sequential(\n  \
  \  (0): Conv2d(336, 664, kernel_size=(1, 1), stride=(2, 2), bias=False)\n  )\n))"
: count: 10
  value: 39321.20037105713
? "(102, 51, PreActBlock(\n  (bn1): BatchNorm2d(344, eps=1e-05, momentum=0.1, affine=True,\
  \ track_running_stats=True)\n  (conv1): Conv2d(344, 688, kernel_size=(3, 3), stride=(2,\
  \ 2), padding=(1, 1), bias=False)\n  (bn2): BatchNorm2d(688, eps=1e-05, momentum=0.1,\
  \ affine=True, track_running_stats=True)\n  (conv2): Conv2d(688, 688, kernel_size=(3,\
  \ 3), stride=(1, 1), padding=(1, 1), bias=False)\n  (shortcut): Sequential(\n  \
  \  (0): Conv2d(344, 688, kernel_size=(1, 1), stride=(2, 2), bias=False)\n  )\n))"
: count: 10
  value: 41123.16413557206
? "(102, 51, PreActBlock(\n  (bn1): BatchNorm2d(360, eps=1e-05, momentum=0.1, affine=True,\
  \ track_running_stats=True)\n  (conv1): Conv2d(360, 720, kernel_size=(3, 3), stride=(2,\
  \ 2), padding=(1, 1), bias=False)\n  (bn2): BatchNorm2d(720, eps=1e-05, momentum=0.1,\
  \ affine=True, track_running_stats=True)\n  (conv2): Conv2d(720, 720, kernel_size=(3,\
  \ 3), stride=(1, 1), padding=(1, 1), bias=False)\n  (shortcut): Sequential(\n  \
  \  (0): Conv2d(360, 720, kernel_size=(1, 1), stride=(2, 2), bias=False)\n  )\n))"
: count: 10
  value: 44268.727732672116
? "(102, 51, PreActBlock(\n  (bn1): BatchNorm2d(368, eps=1e-05, momentum=0.1, affine=True,\
  \ track_running_stats=True)\n  (conv1): Conv2d(368, 744, kernel_size=(3, 3), stride=(2,\
  \ 2), padding=(1, 1), bias=False)\n  (bn2): BatchNorm2d(744, eps=1e-05, momentum=0.1,\
  \ affine=True, track_running_stats=True)\n  (conv2): Conv2d(744, 744, kernel_size=(3,\
  \ 3), stride=(1, 1), padding=(1, 1), bias=False)\n  (shortcut): Sequential(\n  \
  \  (0): Conv2d(368, 744, kernel_size=(1, 1), stride=(2, 2), bias=False)\n  )\n))"
: count: 10
  value: 51083.23727813949
? "(102, 51, PreActBlock(\n  (bn1): BatchNorm2d(384, eps=1e-05, momentum=0.1, affine=True,\
  \ track_running_stats=True)\n  (conv1): Conv2d(384, 768, kernel_size=(3, 3), stride=(2,\
  \ 2), padding=(1, 1), bias=False)\n  (bn2): BatchNorm2d(768, eps=1e-05, momentum=0.1,\
  \ affine=True, track_running_stats=True)\n  (conv2): Conv2d(768, 768, kernel_size=(3,\
  \ 3), stride=(1, 1), padding=(1, 1), bias=False)\n  (shortcut): Sequential(\n  \
  \  (0): Conv2d(384, 768, kernel_size=(1, 1), stride=(2, 2), bias=False)\n  )\n))"
: count: 10
  value: 49039.62031934509
? "(102, 51, PreActBlock(\n  (bn1): BatchNorm2d(400, eps=1e-05, momentum=0.1, affine=True,\
  \ track_running_stats=True)\n  (conv1): Conv2d(400, 792, kernel_size=(3, 3), stride=(2,\
  \ 2), padding=(1, 1), bias=False)\n  (bn2): BatchNorm2d(792, eps=1e-05, momentum=0.1,\
  \ affine=True, track_running_stats=True)\n  (conv2): Conv2d(792, 792, kernel_size=(3,\
  \ 3), stride=(1, 1), padding=(1, 1), bias=False)\n  (shortcut): Sequential(\n  \
  \  (0): Conv2d(400, 792, kernel_size=(1, 1), stride=(2, 2), bias=False)\n  )\n))"
: count: 10
  value: 53734.236875885006
? "(102, 51, PreActBlock(\n  (bn1): BatchNorm2d(408, eps=1e-05, momentum=0.1, affine=True,\
  \ track_running_stats=True)\n  (conv1): Conv2d(408, 816, kernel_size=(3, 3), stride=(2,\
  \ 2), padding=(1, 1), bias=False)\n  (bn2): BatchNorm2d(816, eps=1e-05, momentum=0.1,\
  \ affine=True, track_running_stats=True)\n  (conv2): Conv2d(816, 816, kernel_size=(3,\
  \ 3), stride=(1, 1), padding=(1, 1), bias=False)\n  (shortcut): Sequential(\n  \
  \  (0): Conv2d(408, 816, kernel_size=(1, 1), stride=(2, 2), bias=False)\n  )\n))"
: count: 10
  value: 56058.19055684509
? "(102, 51, PreActBlock(\n  (bn1): BatchNorm2d(424, eps=1e-05, momentum=0.1, affine=True,\
  \ track_running_stats=True)\n  (conv1): Conv2d(424, 848, kernel_size=(3, 3), stride=(2,\
  \ 2), padding=(1, 1), bias=False)\n  (bn2): BatchNorm2d(848, eps=1e-05, momentum=0.1,\
  \ affine=True, track_running_stats=True)\n  (conv2): Conv2d(848, 848, kernel_size=(3,\
  \ 3), stride=(1, 1), padding=(1, 1), bias=False)\n  (shortcut): Sequential(\n  \
  \  (0): Conv2d(424, 848, kernel_size=(1, 1), stride=(2, 2), bias=False)\n  )\n))"
: count: 10
  value: 61376.091060412604
? "(102, 51, PreActBlock(\n  (bn1): BatchNorm2d(432, eps=1e-05, momentum=0.1, affine=True,\
  \ track_running_stats=True)\n  (conv1): Conv2d(432, 872, kernel_size=(3, 3), stride=(2,\
  \ 2), padding=(1, 1), bias=False)\n  (bn2): BatchNorm2d(872, eps=1e-05, momentum=0.1,\
  \ affine=True, track_running_stats=True)\n  (conv2): Conv2d(872, 872, kernel_size=(3,\
  \ 3), stride=(1, 1), padding=(1, 1), bias=False)\n  (shortcut): Sequential(\n  \
  \  (0): Conv2d(432, 872, kernel_size=(1, 1), stride=(2, 2), bias=False)\n  )\n))"
: count: 10
  value: 63076.285918421185
? "(102, 51, PreActBlock(\n  (bn1): BatchNorm2d(448, eps=1e-05, momentum=0.1, affine=True,\
  \ track_running_stats=True)\n  (conv1): Conv2d(448, 896, kernel_size=(3, 3), stride=(2,\
  \ 2), padding=(1, 1), bias=False)\n  (bn2): BatchNorm2d(896, eps=1e-05, momentum=0.1,\
  \ affine=True, track_running_stats=True)\n  (conv2): Conv2d(896, 896, kernel_size=(3,\
  \ 3), stride=(1, 1), padding=(1, 1), bias=False)\n  (shortcut): Sequential(\n  \
  \  (0): Conv2d(448, 896, kernel_size=(1, 1), stride=(2, 2), bias=False)\n  )\n))"
: count: 10
  value: 65310.7312151474
? "(102, 51, PreActBlock(\n  (bn1): BatchNorm2d(464, eps=1e-05, momentum=0.1, affine=True,\
  \ track_running_stats=True)\n  (conv1): Conv2d(464, 920, kernel_size=(3, 3), stride=(2,\
  \ 2), padding=(1, 1), bias=False)\n  (bn2): BatchNorm2d(920, eps=1e-05, momentum=0.1,\
  \ affine=True, track_running_stats=True)\n  (conv2): Conv2d(920, 920, kernel_size=(3,\
  \ 3), stride=(1, 1), padding=(1, 1), bias=False)\n  (shortcut): Sequential(\n  \
  \  (0): Conv2d(464, 920, kernel_size=(1, 1), stride=(2, 2), bias=False)\n  )\n))"
: count: 10
  value: 72568.02728630752
? "(102, 51, PreActBlock(\n  (bn1): BatchNorm2d(472, eps=1e-05, momentum=0.1, affine=True,\
  \ track_running_stats=True)\n  (conv1): Conv2d(472, 944, kernel_size=(3, 3), stride=(2,\
  \ 2), padding=(1, 1), bias=False)\n  (bn2): BatchNorm2d(944, eps=1e-05, momentum=0.1,\
  \ affine=True, track_running_stats=True)\n  (conv2): Conv2d(944, 944, kernel_size=(3,\
  \ 3), stride=(1, 1), padding=(1, 1), bias=False)\n  (shortcut): Sequential(\n  \
  \  (0): Conv2d(472, 944, kernel_size=(1, 1), stride=(2, 2), bias=False)\n  )\n))"
: count: 10
  value: 74149.08352476274
? "(102, 51, PreActBlock(\n  (bn1): BatchNorm2d(488, eps=1e-05, momentum=0.1, affine=True,\
  \ track_running_stats=True)\n  (conv1): Conv2d(488, 976, kernel_size=(3, 3), stride=(2,\
  \ 2), padding=(1, 1), bias=False)\n  (bn2): BatchNorm2d(976, eps=1e-05, momentum=0.1,\
  \ affine=True, track_running_stats=True)\n  (conv2): Conv2d(976, 976, kernel_size=(3,\
  \ 3), stride=(1, 1), padding=(1, 1), bias=False)\n  (shortcut): Sequential(\n  \
  \  (0): Conv2d(488, 976, kernel_size=(1, 1), stride=(2, 2), bias=False)\n  )\n))"
: count: 10
  value: 79059.27078658677
? "(102, 51, PreActBlock(\n  (bn1): BatchNorm2d(496, eps=1e-05, momentum=0.1, affine=True,\
  \ track_running_stats=True)\n  (conv1): Conv2d(496, 1000, kernel_size=(3, 3), stride=(2,\
  \ 2), padding=(1, 1), bias=False)\n  (bn2): BatchNorm2d(1000, eps=1e-05, momentum=0.1,\
  \ affine=True, track_running_stats=True)\n  (conv2): Conv2d(1000, 1000, kernel_size=(3,\
  \ 3), stride=(1, 1), padding=(1, 1), bias=False)\n  (shortcut): Sequential(\n  \
  \  (0): Conv2d(496, 1000, kernel_size=(1, 1), stride=(2, 2), bias=False)\n  )\n\
  ))"
: count: 10
  value: 80723.23964999312
? "(102, 51, PreActBlock(\n  (bn1): BatchNorm2d(512, eps=1e-05, momentum=0.1, affine=True,\
  \ track_running_stats=True)\n  (conv1): Conv2d(512, 1024, kernel_size=(3, 3), stride=(2,\
  \ 2), padding=(1, 1), bias=False)\n  (bn2): BatchNorm2d(1024, eps=1e-05, momentum=0.1,\
  \ affine=True, track_running_stats=True)\n  (conv2): Conv2d(1024, 1024, kernel_size=(3,\
  \ 3), stride=(1, 1), padding=(1, 1), bias=False)\n  (shortcut): Sequential(\n  \
  \  (0): Conv2d(512, 1024, kernel_size=(1, 1), stride=(2, 2), bias=False)\n  )\n\
  ))"
: count: 10
  value: 82929.51942105408
? "(102, 51, PreActBlock(\n  (bn1): BatchNorm2d(528, eps=1e-05, momentum=0.1, affine=True,\
  \ track_running_stats=True)\n  (conv1): Conv2d(528, 1048, kernel_size=(3, 3), stride=(2,\
  \ 2), padding=(1, 1), bias=False)\n  (bn2): BatchNorm2d(1048, eps=1e-05, momentum=0.1,\
  \ affine=True, track_running_stats=True)\n  (conv2): Conv2d(1048, 1048, kernel_size=(3,\
  \ 3), stride=(1, 1), padding=(1, 1), bias=False)\n  (shortcut): Sequential(\n  \
  \  (0): Conv2d(528, 1048, kernel_size=(1, 1), stride=(2, 2), bias=False)\n  )\n\
  ))"
: count: 10
  value: 93704.00136470336
? "(102, 51, PreActBlock(\n  (bn1): BatchNorm2d(536, eps=1e-05, momentum=0.1, affine=True,\
  \ track_running_stats=True)\n  (conv1): Conv2d(536, 1072, kernel_size=(3, 3), stride=(2,\
  \ 2), padding=(1, 1), bias=False)\n  (bn2): BatchNorm2d(1072, eps=1e-05, momentum=0.1,\
  \ affine=True, track_running_stats=True)\n  (conv2): Conv2d(1072, 1072, kernel_size=(3,\
  \ 3), stride=(1, 1), padding=(1, 1), bias=False)\n  (shortcut): Sequential(\n  \
  \  (0): Conv2d(536, 1072, kernel_size=(1, 1), stride=(2, 2), bias=False)\n  )\n\
  ))"
: count: 10
  value: 96698.30452538148
? "(102, 51, PreActBlock(\n  (bn1): BatchNorm2d(552, eps=1e-05, momentum=0.1, affine=True,\
  \ track_running_stats=True)\n  (conv1): Conv2d(552, 1104, kernel_size=(3, 3), stride=(2,\
  \ 2), padding=(1, 1), bias=False)\n  (bn2): BatchNorm2d(1104, eps=1e-05, momentum=0.1,\
  \ affine=True, track_running_stats=True)\n  (conv2): Conv2d(1104, 1104, kernel_size=(3,\
  \ 3), stride=(1, 1), padding=(1, 1), bias=False)\n  (shortcut): Sequential(\n  \
  \  (0): Conv2d(552, 1104, kernel_size=(1, 1), stride=(2, 2), bias=False)\n  )\n\
  ))"
: count: 10
  value: 99991.65272680511
? "(102, 51, PreActBlock(\n  (bn1): BatchNorm2d(560, eps=1e-05, momentum=0.1, affine=True,\
  \ track_running_stats=True)\n  (conv1): Conv2d(560, 1128, kernel_size=(3, 3), stride=(2,\
  \ 2), padding=(1, 1), bias=False)\n  (bn2): BatchNorm2d(1128, eps=1e-05, momentum=0.1,\
  \ affine=True, track_running_stats=True)\n  (conv2): Conv2d(1128, 1128, kernel_size=(3,\
  \ 3), stride=(1, 1), padding=(1, 1), bias=False)\n  (shortcut): Sequential(\n  \
  \  (0): Conv2d(560, 1128, kernel_size=(1, 1), stride=(2, 2), bias=False)\n  )\n\
  ))"
: count: 10
  value: 103905.11339239503
? "(102, 51, PreActBlock(\n  (bn1): BatchNorm2d(576, eps=1e-05, momentum=0.1, affine=True,\
  \ track_running_stats=True)\n  (conv1): Conv2d(576, 1152, kernel_size=(3, 3), stride=(2,\
  \ 2), padding=(1, 1), bias=False)\n  (bn2): BatchNorm2d(1152, eps=1e-05, momentum=0.1,\
  \ affine=True, track_running_stats=True)\n  (conv2): Conv2d(1152, 1152, kernel_size=(3,\
  \ 3), stride=(1, 1), padding=(1, 1), bias=False)\n  (shortcut): Sequential(\n  \
  \  (0): Conv2d(576, 1152, kernel_size=(1, 1), stride=(2, 2), bias=False)\n  )\n\
  ))"
: count: 10
  value: 106252.28736122054
? "(102, 51, PreActBlock(\n  (bn1): BatchNorm2d(592, eps=1e-05, momentum=0.1, affine=True,\
  \ track_running_stats=True)\n  (conv1): Conv2d(592, 1176, kernel_size=(3, 3), stride=(2,\
  \ 2), padding=(1, 1), bias=False)\n  (bn2): BatchNorm2d(1176, eps=1e-05, momentum=0.1,\
  \ affine=True, track_running_stats=True)\n  (conv2): Conv2d(1176, 1176, kernel_size=(3,\
  \ 3), stride=(1, 1), padding=(1, 1), bias=False)\n  (shortcut): Sequential(\n  \
  \  (0): Conv2d(592, 1176, kernel_size=(1, 1), stride=(2, 2), bias=False)\n  )\n\
  ))"
: count: 10
  value: 115667.38751417543
? "(102, 51, PreActBlock(\n  (bn1): BatchNorm2d(600, eps=1e-05, momentum=0.1, affine=True,\
  \ track_running_stats=True)\n  (conv1): Conv2d(600, 1200, kernel_size=(3, 3), stride=(2,\
  \ 2), padding=(1, 1), bias=False)\n  (bn2): BatchNorm2d(1200, eps=1e-05, momentum=0.1,\
  \ affine=True, track_running_stats=True)\n  (conv2): Conv2d(1200, 1200, kernel_size=(3,\
  \ 3), stride=(1, 1), padding=(1, 1), bias=False)\n  (shortcut): Sequential(\n  \
  \  (0): Conv2d(600, 1200, kernel_size=(1, 1), stride=(2, 2), bias=False)\n  )\n\
  ))"
: count: 10
  value: 120405.94217836154
? "(102, 51, PreActBlock(\n  (bn1): BatchNorm2d(616, eps=1e-05, momentum=0.1, affine=True,\
  \ track_running_stats=True)\n  (conv1): Conv2d(616, 1232, kernel_size=(3, 3), stride=(2,\
  \ 2), padding=(1, 1), bias=False)\n  (bn2): BatchNorm2d(1232, eps=1e-05, momentum=0.1,\
  \ affine=True, track_running_stats=True)\n  (conv2): Conv2d(1232, 1232, kernel_size=(3,\
  \ 3), stride=(1, 1), padding=(1, 1), bias=False)\n  (shortcut): Sequential(\n  \
  \  (0): Conv2d(616, 1232, kernel_size=(1, 1), stride=(2, 2), bias=False)\n  )\n\
  ))"
: count: 10
  value: 125401.40171305086
? "(102, 51, PreActBlock(\n  (bn1): BatchNorm2d(624, eps=1e-05, momentum=0.1, affine=True,\
  \ track_running_stats=True)\n  (conv1): Conv2d(624, 1256, kernel_size=(3, 3), stride=(2,\
  \ 2), padding=(1, 1), bias=False)\n  (bn2): BatchNorm2d(1256, eps=1e-05, momentum=0.1,\
  \ affine=True, track_running_stats=True)\n  (conv2): Conv2d(1256, 1256, kernel_size=(3,\
  \ 3), stride=(1, 1), padding=(1, 1), bias=False)\n  (shortcut): Sequential(\n  \
  \  (0): Conv2d(624, 1256, kernel_size=(1, 1), stride=(2, 2), bias=False)\n  )\n\
  ))"
: count: 10
  value: 126511.11755534363
? "(102, 51, PreActBlock(\n  (bn1): BatchNorm2d(640, eps=1e-05, momentum=0.1, affine=True,\
  \ track_running_stats=True)\n  (conv1): Conv2d(640, 1280, kernel_size=(3, 3), stride=(2,\
  \ 2), padding=(1, 1), bias=False)\n  (bn2): BatchNorm2d(1280, eps=1e-05, momentum=0.1,\
  \ affine=True, track_running_stats=True)\n  (conv2): Conv2d(1280, 1280, kernel_size=(3,\
  \ 3), stride=(1, 1), padding=(1, 1), bias=False)\n  (shortcut): Sequential(\n  \
  \  (0): Conv2d(640, 1280, kernel_size=(1, 1), stride=(2, 2), bias=False)\n  )\n\
  ))"
: count: 10
  value: 129058.57510441588
? "(204, 102, PreActBlock(\n  (bn1): BatchNorm2d(104, eps=1e-05, momentum=0.1, affine=True,\
  \ track_running_stats=True)\n  (conv1): Conv2d(104, 208, kernel_size=(3, 3), stride=(2,\
  \ 2), padding=(1, 1), bias=False)\n  (bn2): BatchNorm2d(208, eps=1e-05, momentum=0.1,\
  \ affine=True, track_running_stats=True)\n  (conv2): Conv2d(208, 208, kernel_size=(3,\
  \ 3), stride=(1, 1), padding=(1, 1), bias=False)\n  (shortcut): Sequential(\n  \
  \  (0): Conv2d(104, 208, kernel_size=(1, 1), stride=(2, 2), bias=False)\n  )\n))"
: count: 10
  value: 14105.674302874755
? "(204, 102, PreActBlock(\n  (bn1): BatchNorm2d(112, eps=1e-05, momentum=0.1, affine=True,\
  \ track_running_stats=True)\n  (conv1): Conv2d(112, 216, kernel_size=(3, 3), stride=(2,\
  \ 2), padding=(1, 1), bias=False)\n  (bn2): BatchNorm2d(216, eps=1e-05, momentum=0.1,\
  \ affine=True, track_running_stats=True)\n  (conv2): Conv2d(216, 216, kernel_size=(3,\
  \ 3), stride=(1, 1), padding=(1, 1), bias=False)\n  (shortcut): Sequential(\n  \
  \  (0): Conv2d(112, 216, kernel_size=(1, 1), stride=(2, 2), bias=False)\n  )\n))"
: count: 10
  value: 14691.571459787749
? "(204, 102, PreActBlock(\n  (bn1): BatchNorm2d(112, eps=1e-05, momentum=0.1, affine=True,\
  \ track_running_stats=True)\n  (conv1): Conv2d(112, 232, kernel_size=(3, 3), stride=(2,\
  \ 2), padding=(1, 1), bias=False)\n  (bn2): BatchNorm2d(232, eps=1e-05, momentum=0.1,\
  \ affine=True, track_running_stats=True)\n  (conv2): Conv2d(232, 232, kernel_size=(3,\
  \ 3), stride=(1, 1), padding=(1, 1), bias=False)\n  (shortcut): Sequential(\n  \
  \  (0): Conv2d(112, 232, kernel_size=(1, 1), stride=(2, 2), bias=False)\n  )\n))"
: count: 10
  value: 16154.535755097962
? "(204, 102, PreActBlock(\n  (bn1): BatchNorm2d(120, eps=1e-05, momentum=0.1, affine=True,\
  \ track_running_stats=True)\n  (conv1): Conv2d(120, 240, kernel_size=(3, 3), stride=(2,\
  \ 2), padding=(1, 1), bias=False)\n  (bn2): BatchNorm2d(240, eps=1e-05, momentum=0.1,\
  \ affine=True, track_running_stats=True)\n  (conv2): Conv2d(240, 240, kernel_size=(3,\
  \ 3), stride=(1, 1), padding=(1, 1), bias=False)\n  (shortcut): Sequential(\n  \
  \  (0): Conv2d(120, 240, kernel_size=(1, 1), stride=(2, 2), bias=False)\n  )\n))"
: count: 10
  value: 16842.397347029877
? "(204, 102, PreActBlock(\n  (bn1): BatchNorm2d(128, eps=1e-05, momentum=0.1, affine=True,\
  \ track_running_stats=True)\n  (conv1): Conv2d(128, 256, kernel_size=(3, 3), stride=(2,\
  \ 2), padding=(1, 1), bias=False)\n  (bn2): BatchNorm2d(256, eps=1e-05, momentum=0.1,\
  \ affine=True, track_running_stats=True)\n  (conv2): Conv2d(256, 256, kernel_size=(3,\
  \ 3), stride=(1, 1), padding=(1, 1), bias=False)\n  (shortcut): Sequential(\n  \
  \  (0): Conv2d(128, 256, kernel_size=(1, 1), stride=(2, 2), bias=False)\n  )\n))"
: count: 10
  value: 17826.537198755646
? "(204, 102, PreActBlock(\n  (bn1): BatchNorm2d(136, eps=1e-05, momentum=0.1, affine=True,\
  \ track_running_stats=True)\n  (conv1): Conv2d(136, 272, kernel_size=(3, 3), stride=(2,\
  \ 2), padding=(1, 1), bias=False)\n  (bn2): BatchNorm2d(272, eps=1e-05, momentum=0.1,\
  \ affine=True, track_running_stats=True)\n  (conv2): Conv2d(272, 272, kernel_size=(3,\
  \ 3), stride=(1, 1), padding=(1, 1), bias=False)\n  (shortcut): Sequential(\n  \
  \  (0): Conv2d(136, 272, kernel_size=(1, 1), stride=(2, 2), bias=False)\n  )\n))"
: count: 10
  value: 26558.522801411436
? "(204, 102, PreActBlock(\n  (bn1): BatchNorm2d(144, eps=1e-05, momentum=0.1, affine=True,\
  \ track_running_stats=True)\n  (conv1): Conv2d(144, 280, kernel_size=(3, 3), stride=(2,\
  \ 2), padding=(1, 1), bias=False)\n  (bn2): BatchNorm2d(280, eps=1e-05, momentum=0.1,\
  \ affine=True, track_running_stats=True)\n  (conv2): Conv2d(280, 280, kernel_size=(3,\
  \ 3), stride=(1, 1), padding=(1, 1), bias=False)\n  (shortcut): Sequential(\n  \
  \  (0): Conv2d(144, 280, kernel_size=(1, 1), stride=(2, 2), bias=False)\n  )\n))"
: count: 10
  value: 24343.17373364868
? "(204, 102, PreActBlock(\n  (bn1): BatchNorm2d(144, eps=1e-05, momentum=0.1, affine=True,\
  \ track_running_stats=True)\n  (conv1): Conv2d(144, 296, kernel_size=(3, 3), stride=(2,\
  \ 2), padding=(1, 1), bias=False)\n  (bn2): BatchNorm2d(296, eps=1e-05, momentum=0.1,\
  \ affine=True, track_running_stats=True)\n  (conv2): Conv2d(296, 296, kernel_size=(3,\
  \ 3), stride=(1, 1), padding=(1, 1), bias=False)\n  (shortcut): Sequential(\n  \
  \  (0): Conv2d(144, 296, kernel_size=(1, 1), stride=(2, 2), bias=False)\n  )\n))"
: count: 10
  value: 26101.04604563904
? "(204, 102, PreActBlock(\n  (bn1): BatchNorm2d(152, eps=1e-05, momentum=0.1, affine=True,\
  \ track_running_stats=True)\n  (conv1): Conv2d(152, 304, kernel_size=(3, 3), stride=(2,\
  \ 2), padding=(1, 1), bias=False)\n  (bn2): BatchNorm2d(304, eps=1e-05, momentum=0.1,\
  \ affine=True, track_running_stats=True)\n  (conv2): Conv2d(304, 304, kernel_size=(3,\
  \ 3), stride=(1, 1), padding=(1, 1), bias=False)\n  (shortcut): Sequential(\n  \
  \  (0): Conv2d(152, 304, kernel_size=(1, 1), stride=(2, 2), bias=False)\n  )\n))"
: count: 10
  value: 27060.580519110103
? "(204, 102, PreActBlock(\n  (bn1): BatchNorm2d(160, eps=1e-05, momentum=0.1, affine=True,\
  \ track_running_stats=True)\n  (conv1): Conv2d(160, 320, kernel_size=(3, 3), stride=(2,\
  \ 2), padding=(1, 1), bias=False)\n  (bn2): BatchNorm2d(320, eps=1e-05, momentum=0.1,\
  \ affine=True, track_running_stats=True)\n  (conv2): Conv2d(320, 320, kernel_size=(3,\
  \ 3), stride=(1, 1), padding=(1, 1), bias=False)\n  (shortcut): Sequential(\n  \
  \  (0): Conv2d(160, 320, kernel_size=(1, 1), stride=(2, 2), bias=False)\n  )\n))"
: count: 10
  value: 28451.51776908341
? "(204, 102, PreActBlock(\n  (bn1): BatchNorm2d(168, eps=1e-05, momentum=0.1, affine=True,\
  \ track_running_stats=True)\n  (conv1): Conv2d(168, 336, kernel_size=(3, 3), stride=(2,\
  \ 2), padding=(1, 1), bias=False)\n  (bn2): BatchNorm2d(336, eps=1e-05, momentum=0.1,\
  \ affine=True, track_running_stats=True)\n  (conv2): Conv2d(336, 336, kernel_size=(3,\
  \ 3), stride=(1, 1), padding=(1, 1), bias=False)\n  (shortcut): Sequential(\n  \
  \  (0): Conv2d(168, 336, kernel_size=(1, 1), stride=(2, 2), bias=False)\n  )\n))"
: count: 10
  value: 32549.61543996582
? "(204, 102, PreActBlock(\n  (bn1): BatchNorm2d(176, eps=1e-05, momentum=0.1, affine=True,\
  \ track_running_stats=True)\n  (conv1): Conv2d(176, 344, kernel_size=(3, 3), stride=(2,\
  \ 2), padding=(1, 1), bias=False)\n  (bn2): BatchNorm2d(344, eps=1e-05, momentum=0.1,\
  \ affine=True, track_running_stats=True)\n  (conv2): Conv2d(344, 344, kernel_size=(3,\
  \ 3), stride=(1, 1), padding=(1, 1), bias=False)\n  (shortcut): Sequential(\n  \
  \  (0): Conv2d(176, 344, kernel_size=(1, 1), stride=(2, 2), bias=False)\n  )\n))"
: count: 10
  value: 32435.968657056423
? "(204, 102, PreActBlock(\n  (bn1): BatchNorm2d(176, eps=1e-05, momentum=0.1, affine=True,\
  \ track_running_stats=True)\n  (conv1): Conv2d(176, 360, kernel_size=(3, 3), stride=(2,\
  \ 2), padding=(1, 1), bias=False)\n  (bn2): BatchNorm2d(360, eps=1e-05, momentum=0.1,\
  \ affine=True, track_running_stats=True)\n  (conv2): Conv2d(360, 360, kernel_size=(3,\
  \ 3), stride=(1, 1), padding=(1, 1), bias=False)\n  (shortcut): Sequential(\n  \
  \  (0): Conv2d(176, 360, kernel_size=(1, 1), stride=(2, 2), bias=False)\n  )\n))"
: count: 10
  value: 34208.72206577226
? "(204, 102, PreActBlock(\n  (bn1): BatchNorm2d(184, eps=1e-05, momentum=0.1, affine=True,\
  \ track_running_stats=True)\n  (conv1): Conv2d(184, 368, kernel_size=(3, 3), stride=(2,\
  \ 2), padding=(1, 1), bias=False)\n  (bn2): BatchNorm2d(368, eps=1e-05, momentum=0.1,\
  \ affine=True, track_running_stats=True)\n  (conv2): Conv2d(368, 368, kernel_size=(3,\
  \ 3), stride=(1, 1), padding=(1, 1), bias=False)\n  (shortcut): Sequential(\n  \
  \  (0): Conv2d(184, 368, kernel_size=(1, 1), stride=(2, 2), bias=False)\n  )\n))"
: count: 10
  value: 35125.76969312592
? "(204, 102, PreActBlock(\n  (bn1): BatchNorm2d(192, eps=1e-05, momentum=0.1, affine=True,\
  \ track_running_stats=True)\n  (conv1): Conv2d(192, 384, kernel_size=(3, 3), stride=(2,\
  \ 2), padding=(1, 1), bias=False)\n  (bn2): BatchNorm2d(384, eps=1e-05, momentum=0.1,\
  \ affine=True, track_running_stats=True)\n  (conv2): Conv2d(384, 384, kernel_size=(3,\
  \ 3), stride=(1, 1), padding=(1, 1), bias=False)\n  (shortcut): Sequential(\n  \
  \  (0): Conv2d(192, 384, kernel_size=(1, 1), stride=(2, 2), bias=False)\n  )\n))"
: count: 10
  value: 36836.468108113106
? "(204, 102, PreActBlock(\n  (bn1): BatchNorm2d(200, eps=1e-05, momentum=0.1, affine=True,\
  \ track_running_stats=True)\n  (conv1): Conv2d(200, 400, kernel_size=(3, 3), stride=(2,\
  \ 2), padding=(1, 1), bias=False)\n  (bn2): BatchNorm2d(400, eps=1e-05, momentum=0.1,\
  \ affine=True, track_running_stats=True)\n  (conv2): Conv2d(400, 400, kernel_size=(3,\
  \ 3), stride=(1, 1), padding=(1, 1), bias=False)\n  (shortcut): Sequential(\n  \
  \  (0): Conv2d(200, 400, kernel_size=(1, 1), stride=(2, 2), bias=False)\n  )\n))"
: count: 10
  value: 46332.131306616975
? "(204, 102, PreActBlock(\n  (bn1): BatchNorm2d(208, eps=1e-05, momentum=0.1, affine=True,\
  \ track_running_stats=True)\n  (conv1): Conv2d(208, 408, kernel_size=(3, 3), stride=(2,\
  \ 2), padding=(1, 1), bias=False)\n  (bn2): BatchNorm2d(408, eps=1e-05, momentum=0.1,\
  \ affine=True, track_running_stats=True)\n  (conv2): Conv2d(408, 408, kernel_size=(3,\
  \ 3), stride=(1, 1), padding=(1, 1), bias=False)\n  (shortcut): Sequential(\n  \
  \  (0): Conv2d(208, 408, kernel_size=(1, 1), stride=(2, 2), bias=False)\n  )\n))"
: count: 10
  value: 48042.3078082306
? "(204, 102, PreActBlock(\n  (bn1): BatchNorm2d(208, eps=1e-05, momentum=0.1, affine=True,\
  \ track_running_stats=True)\n  (conv1): Conv2d(208, 424, kernel_size=(3, 3), stride=(2,\
  \ 2), padding=(1, 1), bias=False)\n  (bn2): BatchNorm2d(424, eps=1e-05, momentum=0.1,\
  \ affine=True, track_running_stats=True)\n  (conv2): Conv2d(424, 424, kernel_size=(3,\
  \ 3), stride=(1, 1), padding=(1, 1), bias=False)\n  (shortcut): Sequential(\n  \
  \  (0): Conv2d(208, 424, kernel_size=(1, 1), stride=(2, 2), bias=False)\n  )\n))"
: count: 10
  value: 50176.736350653075
? "(204, 102, PreActBlock(\n  (bn1): BatchNorm2d(216, eps=1e-05, momentum=0.1, affine=True,\
  \ track_running_stats=True)\n  (conv1): Conv2d(216, 432, kernel_size=(3, 3), stride=(2,\
  \ 2), padding=(1, 1), bias=False)\n  (bn2): BatchNorm2d(432, eps=1e-05, momentum=0.1,\
  \ affine=True, track_running_stats=True)\n  (conv2): Conv2d(432, 432, kernel_size=(3,\
  \ 3), stride=(1, 1), padding=(1, 1), bias=False)\n  (shortcut): Sequential(\n  \
  \  (0): Conv2d(216, 432, kernel_size=(1, 1), stride=(2, 2), bias=False)\n  )\n))"
: count: 10
  value: 55121.441887393186
? "(204, 102, PreActBlock(\n  (bn1): BatchNorm2d(224, eps=1e-05, momentum=0.1, affine=True,\
  \ track_running_stats=True)\n  (conv1): Conv2d(224, 448, kernel_size=(3, 3), stride=(2,\
  \ 2), padding=(1, 1), bias=False)\n  (bn2): BatchNorm2d(448, eps=1e-05, momentum=0.1,\
  \ affine=True, track_running_stats=True)\n  (conv2): Conv2d(448, 448, kernel_size=(3,\
  \ 3), stride=(1, 1), padding=(1, 1), bias=False)\n  (shortcut): Sequential(\n  \
  \  (0): Conv2d(224, 448, kernel_size=(1, 1), stride=(2, 2), bias=False)\n  )\n))"
: count: 10
  value: 53147.43106654205
? "(204, 102, PreActBlock(\n  (bn1): BatchNorm2d(232, eps=1e-05, momentum=0.1, affine=True,\
  \ track_running_stats=True)\n  (conv1): Conv2d(232, 464, kernel_size=(3, 3), stride=(2,\
  \ 2), padding=(1, 1), bias=False)\n  (bn2): BatchNorm2d(464, eps=1e-05, momentum=0.1,\
  \ affine=True, track_running_stats=True)\n  (conv2): Conv2d(464, 464, kernel_size=(3,\
  \ 3), stride=(1, 1), padding=(1, 1), bias=False)\n  (shortcut): Sequential(\n  \
  \  (0): Conv2d(232, 464, kernel_size=(1, 1), stride=(2, 2), bias=False)\n  )\n))"
: count: 10
  value: 57978.91573936158
? "(204, 102, PreActBlock(\n  (bn1): BatchNorm2d(240, eps=1e-05, momentum=0.1, affine=True,\
  \ track_running_stats=True)\n  (conv1): Conv2d(240, 472, kernel_size=(3, 3), stride=(2,\
  \ 2), padding=(1, 1), bias=False)\n  (bn2): BatchNorm2d(472, eps=1e-05, momentum=0.1,\
  \ affine=True, track_running_stats=True)\n  (conv2): Conv2d(472, 472, kernel_size=(3,\
  \ 3), stride=(1, 1), padding=(1, 1), bias=False)\n  (shortcut): Sequential(\n  \
  \  (0): Conv2d(240, 472, kernel_size=(1, 1), stride=(2, 2), bias=False)\n  )\n))"
: count: 10
  value: 60226.75502129134
? "(204, 102, PreActBlock(\n  (bn1): BatchNorm2d(240, eps=1e-05, momentum=0.1, affine=True,\
  \ track_running_stats=True)\n  (conv1): Conv2d(240, 488, kernel_size=(3, 3), stride=(2,\
  \ 2), padding=(1, 1), bias=False)\n  (bn2): BatchNorm2d(488, eps=1e-05, momentum=0.1,\
  \ affine=True, track_running_stats=True)\n  (conv2): Conv2d(488, 488, kernel_size=(3,\
  \ 3), stride=(1, 1), padding=(1, 1), bias=False)\n  (shortcut): Sequential(\n  \
  \  (0): Conv2d(240, 488, kernel_size=(1, 1), stride=(2, 2), bias=False)\n  )\n))"
: count: 10
  value: 63307.501591984554
? "(204, 102, PreActBlock(\n  (bn1): BatchNorm2d(248, eps=1e-05, momentum=0.1, affine=True,\
  \ track_running_stats=True)\n  (conv1): Conv2d(248, 496, kernel_size=(3, 3), stride=(2,\
  \ 2), padding=(1, 1), bias=False)\n  (bn2): BatchNorm2d(496, eps=1e-05, momentum=0.1,\
  \ affine=True, track_running_stats=True)\n  (conv2): Conv2d(496, 496, kernel_size=(3,\
  \ 3), stride=(1, 1), padding=(1, 1), bias=False)\n  (shortcut): Sequential(\n  \
  \  (0): Conv2d(248, 496, kernel_size=(1, 1), stride=(2, 2), bias=False)\n  )\n))"
: count: 10
  value: 66027.23240784302
? "(204, 102, PreActBlock(\n  (bn1): BatchNorm2d(256, eps=1e-05, momentum=0.1, affine=True,\
  \ track_running_stats=True)\n  (conv1): Conv2d(256, 512, kernel_size=(3, 3), stride=(2,\
  \ 2), padding=(1, 1), bias=False)\n  (bn2): BatchNorm2d(512, eps=1e-05, momentum=0.1,\
  \ affine=True, track_running_stats=True)\n  (conv2): Conv2d(512, 512, kernel_size=(3,\
  \ 3), stride=(1, 1), padding=(1, 1), bias=False)\n  (shortcut): Sequential(\n  \
  \  (0): Conv2d(256, 512, kernel_size=(1, 1), stride=(2, 2), bias=False)\n  )\n))"
: count: 10
  value: 66969.49963690415
? "(204, 102, PreActBlock(\n  (bn1): BatchNorm2d(264, eps=1e-05, momentum=0.1, affine=True,\
  \ track_running_stats=True)\n  (conv1): Conv2d(264, 528, kernel_size=(3, 3), stride=(2,\
  \ 2), padding=(1, 1), bias=False)\n  (bn2): BatchNorm2d(528, eps=1e-05, momentum=0.1,\
  \ affine=True, track_running_stats=True)\n  (conv2): Conv2d(528, 528, kernel_size=(3,\
  \ 3), stride=(1, 1), padding=(1, 1), bias=False)\n  (shortcut): Sequential(\n  \
  \  (0): Conv2d(264, 528, kernel_size=(1, 1), stride=(2, 2), bias=False)\n  )\n))"
: count: 10
  value: 81780.55973972473
? "(204, 102, PreActBlock(\n  (bn1): BatchNorm2d(272, eps=1e-05, momentum=0.1, affine=True,\
  \ track_running_stats=True)\n  (conv1): Conv2d(272, 536, kernel_size=(3, 3), stride=(2,\
  \ 2), padding=(1, 1), bias=False)\n  (bn2): BatchNorm2d(536, eps=1e-05, momentum=0.1,\
  \ affine=True, track_running_stats=True)\n  (conv2): Conv2d(536, 536, kernel_size=(3,\
  \ 3), stride=(1, 1), padding=(1, 1), bias=False)\n  (shortcut): Sequential(\n  \
  \  (0): Conv2d(272, 536, kernel_size=(1, 1), stride=(2, 2), bias=False)\n  )\n))"
: count: 10
  value: 83431.08620682984
? "(204, 102, PreActBlock(\n  (bn1): BatchNorm2d(272, eps=1e-05, momentum=0.1, affine=True,\
  \ track_running_stats=True)\n  (conv1): Conv2d(272, 552, kernel_size=(3, 3), stride=(2,\
  \ 2), padding=(1, 1), bias=False)\n  (bn2): BatchNorm2d(552, eps=1e-05, momentum=0.1,\
  \ affine=True, track_running_stats=True)\n  (conv2): Conv2d(552, 552, kernel_size=(3,\
  \ 3), stride=(1, 1), padding=(1, 1), bias=False)\n  (shortcut): Sequential(\n  \
  \  (0): Conv2d(272, 552, kernel_size=(1, 1), stride=(2, 2), bias=False)\n  )\n))"
: count: 10
  value: 88237.26017723007
? "(204, 102, PreActBlock(\n  (bn1): BatchNorm2d(280, eps=1e-05, momentum=0.1, affine=True,\
  \ track_running_stats=True)\n  (conv1): Conv2d(280, 560, kernel_size=(3, 3), stride=(2,\
  \ 2), padding=(1, 1), bias=False)\n  (bn2): BatchNorm2d(560, eps=1e-05, momentum=0.1,\
  \ affine=True, track_running_stats=True)\n  (conv2): Conv2d(560, 560, kernel_size=(3,\
  \ 3), stride=(1, 1), padding=(1, 1), bias=False)\n  (shortcut): Sequential(\n  \
  \  (0): Conv2d(280, 560, kernel_size=(1, 1), stride=(2, 2), bias=False)\n  )\n))"
: count: 10
  value: 89330.25028556594
? "(204, 102, PreActBlock(\n  (bn1): BatchNorm2d(288, eps=1e-05, momentum=0.1, affine=True,\
  \ track_running_stats=True)\n  (conv1): Conv2d(288, 576, kernel_size=(3, 3), stride=(2,\
  \ 2), padding=(1, 1), bias=False)\n  (bn2): BatchNorm2d(576, eps=1e-05, momentum=0.1,\
  \ affine=True, track_running_stats=True)\n  (conv2): Conv2d(576, 576, kernel_size=(3,\
  \ 3), stride=(1, 1), padding=(1, 1), bias=False)\n  (shortcut): Sequential(\n  \
  \  (0): Conv2d(288, 576, kernel_size=(1, 1), stride=(2, 2), bias=False)\n  )\n))"
: count: 10
  value: 93431.90703276367
? "(204, 102, PreActBlock(\n  (bn1): BatchNorm2d(296, eps=1e-05, momentum=0.1, affine=True,\
  \ track_running_stats=True)\n  (conv1): Conv2d(296, 592, kernel_size=(3, 3), stride=(2,\
  \ 2), padding=(1, 1), bias=False)\n  (bn2): BatchNorm2d(592, eps=1e-05, momentum=0.1,\
  \ affine=True, track_running_stats=True)\n  (conv2): Conv2d(592, 592, kernel_size=(3,\
  \ 3), stride=(1, 1), padding=(1, 1), bias=False)\n  (shortcut): Sequential(\n  \
  \  (0): Conv2d(296, 592, kernel_size=(1, 1), stride=(2, 2), bias=False)\n  )\n))"
: count: 10
  value: 103730.74604557038
? "(204, 102, PreActBlock(\n  (bn1): BatchNorm2d(304, eps=1e-05, momentum=0.1, affine=True,\
  \ track_running_stats=True)\n  (conv1): Conv2d(304, 600, kernel_size=(3, 3), stride=(2,\
  \ 2), padding=(1, 1), bias=False)\n  (bn2): BatchNorm2d(600, eps=1e-05, momentum=0.1,\
  \ affine=True, track_running_stats=True)\n  (conv2): Conv2d(600, 600, kernel_size=(3,\
  \ 3), stride=(1, 1), padding=(1, 1), bias=False)\n  (shortcut): Sequential(\n  \
  \  (0): Conv2d(304, 600, kernel_size=(1, 1), stride=(2, 2), bias=False)\n  )\n))"
: count: 10
  value: 109461.94993211518
? "(204, 102, PreActBlock(\n  (bn1): BatchNorm2d(304, eps=1e-05, momentum=0.1, affine=True,\
  \ track_running_stats=True)\n  (conv1): Conv2d(304, 616, kernel_size=(3, 3), stride=(2,\
  \ 2), padding=(1, 1), bias=False)\n  (bn2): BatchNorm2d(616, eps=1e-05, momentum=0.1,\
  \ affine=True, track_running_stats=True)\n  (conv2): Conv2d(616, 616, kernel_size=(3,\
  \ 3), stride=(1, 1), padding=(1, 1), bias=False)\n  (shortcut): Sequential(\n  \
  \  (0): Conv2d(304, 616, kernel_size=(1, 1), stride=(2, 2), bias=False)\n  )\n))"
: count: 10
  value: 109069.97578807983
? "(204, 102, PreActBlock(\n  (bn1): BatchNorm2d(312, eps=1e-05, momentum=0.1, affine=True,\
  \ track_running_stats=True)\n  (conv1): Conv2d(312, 624, kernel_size=(3, 3), stride=(2,\
  \ 2), padding=(1, 1), bias=False)\n  (bn2): BatchNorm2d(624, eps=1e-05, momentum=0.1,\
  \ affine=True, track_running_stats=True)\n  (conv2): Conv2d(624, 624, kernel_size=(3,\
  \ 3), stride=(1, 1), padding=(1, 1), bias=False)\n  (shortcut): Sequential(\n  \
  \  (0): Conv2d(312, 624, kernel_size=(1, 1), stride=(2, 2), bias=False)\n  )\n))"
: count: 10
  value: 110289.89745776521
? "(204, 102, PreActBlock(\n  (bn1): BatchNorm2d(320, eps=1e-05, momentum=0.1, affine=True,\
  \ track_running_stats=True)\n  (conv1): Conv2d(320, 640, kernel_size=(3, 3), stride=(2,\
  \ 2), padding=(1, 1), bias=False)\n  (bn2): BatchNorm2d(640, eps=1e-05, momentum=0.1,\
  \ affine=True, track_running_stats=True)\n  (conv2): Conv2d(640, 640, kernel_size=(3,\
  \ 3), stride=(1, 1), padding=(1, 1), bias=False)\n  (shortcut): Sequential(\n  \
  \  (0): Conv2d(320, 640, kernel_size=(1, 1), stride=(2, 2), bias=False)\n  )\n))"
: count: 10
  value: 113631.75885103073
? "(204, 102, PreActBlock(\n  (bn1): BatchNorm2d(64, eps=1e-05, momentum=0.1, affine=True,\
  \ track_running_stats=True)\n  (conv1): Conv2d(64, 128, kernel_size=(3, 3), stride=(2,\
  \ 2), padding=(1, 1), bias=False)\n  (bn2): BatchNorm2d(128, eps=1e-05, momentum=0.1,\
  \ affine=True, track_running_stats=True)\n  (conv2): Conv2d(128, 128, kernel_size=(3,\
  \ 3), stride=(1, 1), padding=(1, 1), bias=False)\n  (shortcut): Sequential(\n  \
  \  (0): Conv2d(64, 128, kernel_size=(1, 1), stride=(2, 2), bias=False)\n  )\n))"
: count: 10
  value: 6338.854022332001
? "(204, 102, PreActBlock(\n  (bn1): BatchNorm2d(72, eps=1e-05, momentum=0.1, affine=True,\
  \ track_running_stats=True)\n  (conv1): Conv2d(72, 144, kernel_size=(3, 3), stride=(2,\
  \ 2), padding=(1, 1), bias=False)\n  (bn2): BatchNorm2d(144, eps=1e-05, momentum=0.1,\
  \ affine=True, track_running_stats=True)\n  (conv2): Conv2d(144, 144, kernel_size=(3,\
  \ 3), stride=(1, 1), padding=(1, 1), bias=False)\n  (shortcut): Sequential(\n  \
  \  (0): Conv2d(72, 144, kernel_size=(1, 1), stride=(2, 2), bias=False)\n  )\n))"
: count: 10
  value: 8948.41397380066
? "(204, 102, PreActBlock(\n  (bn1): BatchNorm2d(80, eps=1e-05, momentum=0.1, affine=True,\
  \ track_running_stats=True)\n  (conv1): Conv2d(80, 152, kernel_size=(3, 3), stride=(2,\
  \ 2), padding=(1, 1), bias=False)\n  (bn2): BatchNorm2d(152, eps=1e-05, momentum=0.1,\
  \ affine=True, track_running_stats=True)\n  (conv2): Conv2d(152, 152, kernel_size=(3,\
  \ 3), stride=(1, 1), padding=(1, 1), bias=False)\n  (shortcut): Sequential(\n  \
  \  (0): Conv2d(80, 152, kernel_size=(1, 1), stride=(2, 2), bias=False)\n  )\n))"
: count: 10
  value: 9575.31715141983
? "(204, 102, PreActBlock(\n  (bn1): BatchNorm2d(80, eps=1e-05, momentum=0.1, affine=True,\
  \ track_running_stats=True)\n  (conv1): Conv2d(80, 168, kernel_size=(3, 3), stride=(2,\
  \ 2), padding=(1, 1), bias=False)\n  (bn2): BatchNorm2d(168, eps=1e-05, momentum=0.1,\
  \ affine=True, track_running_stats=True)\n  (conv2): Conv2d(168, 168, kernel_size=(3,\
  \ 3), stride=(1, 1), padding=(1, 1), bias=False)\n  (shortcut): Sequential(\n  \
  \  (0): Conv2d(80, 168, kernel_size=(1, 1), stride=(2, 2), bias=False)\n  )\n))"
: count: 10
  value: 10740.152205665592
? "(204, 102, PreActBlock(\n  (bn1): BatchNorm2d(88, eps=1e-05, momentum=0.1, affine=True,\
  \ track_running_stats=True)\n  (conv1): Conv2d(88, 176, kernel_size=(3, 3), stride=(2,\
  \ 2), padding=(1, 1), bias=False)\n  (bn2): BatchNorm2d(176, eps=1e-05, momentum=0.1,\
  \ affine=True, track_running_stats=True)\n  (conv2): Conv2d(176, 176, kernel_size=(3,\
  \ 3), stride=(1, 1), padding=(1, 1), bias=False)\n  (shortcut): Sequential(\n  \
  \  (0): Conv2d(88, 176, kernel_size=(1, 1), stride=(2, 2), bias=False)\n  )\n))"
: count: 10
  value: 12961.897507990267
? "(204, 102, PreActBlock(\n  (bn1): BatchNorm2d(96, eps=1e-05, momentum=0.1, affine=True,\
  \ track_running_stats=True)\n  (conv1): Conv2d(96, 192, kernel_size=(3, 3), stride=(2,\
  \ 2), padding=(1, 1), bias=False)\n  (bn2): BatchNorm2d(192, eps=1e-05, momentum=0.1,\
  \ affine=True, track_running_stats=True)\n  (conv2): Conv2d(192, 192, kernel_size=(3,\
  \ 3), stride=(1, 1), padding=(1, 1), bias=False)\n  (shortcut): Sequential(\n  \
  \  (0): Conv2d(96, 192, kernel_size=(1, 1), stride=(2, 2), bias=False)\n  )\n))"
: count: 10
  value: 12070.46544427185
(204, 204, Conv2d(3, 64, kernel_size=(3, 3), stride=(1, 1), padding=(1, 1), bias=False)):
  count: 410
  value: 1017.613698951832
? "(204, 204, PreActBlock(\n  (bn1): BatchNorm2d(104, eps=1e-05, momentum=0.1, affine=True,\
  \ track_running_stats=True)\n  (conv1): Conv2d(104, 104, kernel_size=(3, 3), stride=(1,\
  \ 1), padding=(1, 1), bias=False)\n  (bn2): BatchNorm2d(104, eps=1e-05, momentum=0.1,\
  \ affine=True, track_running_stats=True)\n  (conv2): Conv2d(104, 104, kernel_size=(3,\
  \ 3), stride=(1, 1), padding=(1, 1), bias=False)\n))"
: count: 10
  value: 15827.20760561142
? "(204, 204, PreActBlock(\n  (bn1): BatchNorm2d(112, eps=1e-05, momentum=0.1, affine=True,\
  \ track_running_stats=True)\n  (conv1): Conv2d(112, 112, kernel_size=(3, 3), stride=(1,\
  \ 1), padding=(1, 1), bias=False)\n  (bn2): BatchNorm2d(112, eps=1e-05, momentum=0.1,\
  \ affine=True, track_running_stats=True)\n  (conv2): Conv2d(112, 112, kernel_size=(3,\
  \ 3), stride=(1, 1), padding=(1, 1), bias=False)\n))"
: count: 20
  value: 15178.709966124725
? "(204, 204, PreActBlock(\n  (bn1): BatchNorm2d(120, eps=1e-05, momentum=0.1, affine=True,\
  \ track_running_stats=True)\n  (conv1): Conv2d(120, 120, kernel_size=(3, 3), stride=(1,\
  \ 1), padding=(1, 1), bias=False)\n  (bn2): BatchNorm2d(120, eps=1e-05, momentum=0.1,\
  \ affine=True, track_running_stats=True)\n  (conv2): Conv2d(120, 120, kernel_size=(3,\
  \ 3), stride=(1, 1), padding=(1, 1), bias=False)\n))"
: count: 10
  value: 16067.100141323855
? "(204, 204, PreActBlock(\n  (bn1): BatchNorm2d(128, eps=1e-05, momentum=0.1, affine=True,\
  \ track_running_stats=True)\n  (conv1): Conv2d(128, 128, kernel_size=(3, 3), stride=(1,\
  \ 1), padding=(1, 1), bias=False)\n  (bn2): BatchNorm2d(128, eps=1e-05, momentum=0.1,\
  \ affine=True, track_running_stats=True)\n  (conv2): Conv2d(128, 128, kernel_size=(3,\
  \ 3), stride=(1, 1), padding=(1, 1), bias=False)\n))"
: count: 10
  value: 17037.450551844024
? "(204, 204, PreActBlock(\n  (bn1): BatchNorm2d(136, eps=1e-05, momentum=0.1, affine=True,\
  \ track_running_stats=True)\n  (conv1): Conv2d(136, 136, kernel_size=(3, 3), stride=(1,\
  \ 1), padding=(1, 1), bias=False)\n  (bn2): BatchNorm2d(136, eps=1e-05, momentum=0.1,\
  \ affine=True, track_running_stats=True)\n  (conv2): Conv2d(136, 136, kernel_size=(3,\
  \ 3), stride=(1, 1), padding=(1, 1), bias=False)\n))"
: count: 10
  value: 21411.604942789458
? "(204, 204, PreActBlock(\n  (bn1): BatchNorm2d(144, eps=1e-05, momentum=0.1, affine=True,\
  \ track_running_stats=True)\n  (conv1): Conv2d(144, 144, kernel_size=(3, 3), stride=(1,\
  \ 1), padding=(1, 1), bias=False)\n  (bn2): BatchNorm2d(144, eps=1e-05, momentum=0.1,\
  \ affine=True, track_running_stats=True)\n  (conv2): Conv2d(144, 144, kernel_size=(3,\
  \ 3), stride=(1, 1), padding=(1, 1), bias=False)\n))"
: count: 20
  value: 22540.781328005218
? "(204, 204, PreActBlock(\n  (bn1): BatchNorm2d(152, eps=1e-05, momentum=0.1, affine=True,\
  \ track_running_stats=True)\n  (conv1): Conv2d(152, 152, kernel_size=(3, 3), stride=(1,\
  \ 1), padding=(1, 1), bias=False)\n  (bn2): BatchNorm2d(152, eps=1e-05, momentum=0.1,\
  \ affine=True, track_running_stats=True)\n  (conv2): Conv2d(152, 152, kernel_size=(3,\
  \ 3), stride=(1, 1), padding=(1, 1), bias=False)\n))"
: count: 10
  value: 23690.54935025711
? "(204, 204, PreActBlock(\n  (bn1): BatchNorm2d(160, eps=1e-05, momentum=0.1, affine=True,\
  \ track_running_stats=True)\n  (conv1): Conv2d(160, 160, kernel_size=(3, 3), stride=(1,\
  \ 1), padding=(1, 1), bias=False)\n  (bn2): BatchNorm2d(160, eps=1e-05, momentum=0.1,\
  \ affine=True, track_running_stats=True)\n  (conv2): Conv2d(160, 160, kernel_size=(3,\
  \ 3), stride=(1, 1), padding=(1, 1), bias=False)\n))"
: count: 10
  value: 24916.93288422394
? "(204, 204, PreActBlock(\n  (bn1): BatchNorm2d(168, eps=1e-05, momentum=0.1, affine=True,\
  \ track_running_stats=True)\n  (conv1): Conv2d(168, 168, kernel_size=(3, 3), stride=(1,\
  \ 1), padding=(1, 1), bias=False)\n  (bn2): BatchNorm2d(168, eps=1e-05, momentum=0.1,\
  \ affine=True, track_running_stats=True)\n  (conv2): Conv2d(168, 168, kernel_size=(3,\
  \ 3), stride=(1, 1), padding=(1, 1), bias=False)\n))"
: count: 10
  value: 32095.166843688203
? "(204, 204, PreActBlock(\n  (bn1): BatchNorm2d(176, eps=1e-05, momentum=0.1, affine=True,\
  \ track_running_stats=True)\n  (conv1): Conv2d(176, 176, kernel_size=(3, 3), stride=(1,\
  \ 1), padding=(1, 1), bias=False)\n  (bn2): BatchNorm2d(176, eps=1e-05, momentum=0.1,\
  \ affine=True, track_running_stats=True)\n  (conv2): Conv2d(176, 176, kernel_size=(3,\
  \ 3), stride=(1, 1), padding=(1, 1), bias=False)\n))"
: count: 20
  value: 33098.48571740456
? "(204, 204, PreActBlock(\n  (bn1): BatchNorm2d(184, eps=1e-05, momentum=0.1, affine=True,\
  \ track_running_stats=True)\n  (conv1): Conv2d(184, 184, kernel_size=(3, 3), stride=(1,\
  \ 1), padding=(1, 1), bias=False)\n  (bn2): BatchNorm2d(184, eps=1e-05, momentum=0.1,\
  \ affine=True, track_running_stats=True)\n  (conv2): Conv2d(184, 184, kernel_size=(3,\
  \ 3), stride=(1, 1), padding=(1, 1), bias=False)\n))"
: count: 10
  value: 34792.06823795014
? "(204, 204, PreActBlock(\n  (bn1): BatchNorm2d(192, eps=1e-05, momentum=0.1, affine=True,\
  \ track_running_stats=True)\n  (conv1): Conv2d(192, 192, kernel_size=(3, 3), stride=(1,\
  \ 1), padding=(1, 1), bias=False)\n  (bn2): BatchNorm2d(192, eps=1e-05, momentum=0.1,\
  \ affine=True, track_running_stats=True)\n  (conv2): Conv2d(192, 192, kernel_size=(3,\
  \ 3), stride=(1, 1), padding=(1, 1), bias=False)\n))"
: count: 10
  value: 34729.45451985321
? "(204, 204, PreActBlock(\n  (bn1): BatchNorm2d(200, eps=1e-05, momentum=0.1, affine=True,\
  \ track_running_stats=True)\n  (conv1): Conv2d(200, 200, kernel_size=(3, 3), stride=(1,\
  \ 1), padding=(1, 1), bias=False)\n  (bn2): BatchNorm2d(200, eps=1e-05, momentum=0.1,\
  \ affine=True, track_running_stats=True)\n  (conv2): Conv2d(200, 200, kernel_size=(3,\
  \ 3), stride=(1, 1), padding=(1, 1), bias=False)\n))"
: count: 10
  value: 41605.28022277298
? "(204, 204, PreActBlock(\n  (bn1): BatchNorm2d(208, eps=1e-05, momentum=0.1, affine=True,\
  \ track_running_stats=True)\n  (conv1): Conv2d(208, 208, kernel_size=(3, 3), stride=(1,\
  \ 1), padding=(1, 1), bias=False)\n  (bn2): BatchNorm2d(208, eps=1e-05, momentum=0.1,\
  \ affine=True, track_running_stats=True)\n  (conv2): Conv2d(208, 208, kernel_size=(3,\
  \ 3), stride=(1, 1), padding=(1, 1), bias=False)\n))"
: count: 20
  value: 43169.948436833954
? "(204, 204, PreActBlock(\n  (bn1): BatchNorm2d(216, eps=1e-05, momentum=0.1, affine=True,\
  \ track_running_stats=True)\n  (conv1): Conv2d(216, 216, kernel_size=(3, 3), stride=(1,\
  \ 1), padding=(1, 1), bias=False)\n  (bn2): BatchNorm2d(216, eps=1e-05, momentum=0.1,\
  \ affine=True, track_running_stats=True)\n  (conv2): Conv2d(216, 216, kernel_size=(3,\
  \ 3), stride=(1, 1), padding=(1, 1), bias=False)\n))"
: count: 10
  value: 44472.11125037918
? "(204, 204, PreActBlock(\n  (bn1): BatchNorm2d(224, eps=1e-05, momentum=0.1, affine=True,\
  \ track_running_stats=True)\n  (conv1): Conv2d(224, 224, kernel_size=(3, 3), stride=(1,\
  \ 1), padding=(1, 1), bias=False)\n  (bn2): BatchNorm2d(224, eps=1e-05, momentum=0.1,\
  \ affine=True, track_running_stats=True)\n  (conv2): Conv2d(224, 224, kernel_size=(3,\
  \ 3), stride=(1, 1), padding=(1, 1), bias=False)\n))"
: count: 10
  value: 45929.02616097412
? "(204, 204, PreActBlock(\n  (bn1): BatchNorm2d(232, eps=1e-05, momentum=0.1, affine=True,\
  \ track_running_stats=True)\n  (conv1): Conv2d(232, 232, kernel_size=(3, 3), stride=(1,\
  \ 1), padding=(1, 1), bias=False)\n  (bn2): BatchNorm2d(232, eps=1e-05, momentum=0.1,\
  \ affine=True, track_running_stats=True)\n  (conv2): Conv2d(232, 232, kernel_size=(3,\
  \ 3), stride=(1, 1), padding=(1, 1), bias=False)\n))"
: count: 10
  value: 53866.57736965104
? "(204, 204, PreActBlock(\n  (bn1): BatchNorm2d(240, eps=1e-05, momentum=0.1, affine=True,\
  \ track_running_stats=True)\n  (conv1): Conv2d(240, 240, kernel_size=(3, 3), stride=(1,\
  \ 1), padding=(1, 1), bias=False)\n  (bn2): BatchNorm2d(240, eps=1e-05, momentum=0.1,\
  \ affine=True, track_running_stats=True)\n  (conv2): Conv2d(240, 240, kernel_size=(3,\
  \ 3), stride=(1, 1), padding=(1, 1), bias=False)\n))"
: count: 20
  value: 55354.64953072662
? "(204, 204, PreActBlock(\n  (bn1): BatchNorm2d(248, eps=1e-05, momentum=0.1, affine=True,\
  \ track_running_stats=True)\n  (conv1): Conv2d(248, 248, kernel_size=(3, 3), stride=(1,\
  \ 1), padding=(1, 1), bias=False)\n  (bn2): BatchNorm2d(248, eps=1e-05, momentum=0.1,\
  \ affine=True, track_running_stats=True)\n  (conv2): Conv2d(248, 248, kernel_size=(3,\
  \ 3), stride=(1, 1), padding=(1, 1), bias=False)\n))"
: count: 10
  value: 57168.240579605874
? "(204, 204, PreActBlock(\n  (bn1): BatchNorm2d(256, eps=1e-05, momentum=0.1, affine=True,\
  \ track_running_stats=True)\n  (conv1): Conv2d(256, 256, kernel_size=(3, 3), stride=(1,\
  \ 1), padding=(1, 1), bias=False)\n  (bn2): BatchNorm2d(256, eps=1e-05, momentum=0.1,\
  \ affine=True, track_running_stats=True)\n  (conv2): Conv2d(256, 256, kernel_size=(3,\
  \ 3), stride=(1, 1), padding=(1, 1), bias=False)\n))"
: count: 10
  value: 58979.153924668135
? "(204, 204, PreActBlock(\n  (bn1): BatchNorm2d(264, eps=1e-05, momentum=0.1, affine=True,\
  \ track_running_stats=True)\n  (conv1): Conv2d(264, 264, kernel_size=(3, 3), stride=(1,\
  \ 1), padding=(1, 1), bias=False)\n  (bn2): BatchNorm2d(264, eps=1e-05, momentum=0.1,\
  \ affine=True, track_running_stats=True)\n  (conv2): Conv2d(264, 264, kernel_size=(3,\
  \ 3), stride=(1, 1), padding=(1, 1), bias=False)\n))"
: count: 10
  value: 68613.6084835678
? "(204, 204, PreActBlock(\n  (bn1): BatchNorm2d(272, eps=1e-05, momentum=0.1, affine=True,\
  \ track_running_stats=True)\n  (conv1): Conv2d(272, 272, kernel_size=(3, 3), stride=(1,\
  \ 1), padding=(1, 1), bias=False)\n  (bn2): BatchNorm2d(272, eps=1e-05, momentum=0.1,\
  \ affine=True, track_running_stats=True)\n  (conv2): Conv2d(272, 272, kernel_size=(3,\
  \ 3), stride=(1, 1), padding=(1, 1), bias=False)\n))"
: count: 20
  value: 71459.34781142158
? "(204, 204, PreActBlock(\n  (bn1): BatchNorm2d(280, eps=1e-05, momentum=0.1, affine=True,\
  \ track_running_stats=True)\n  (conv1): Conv2d(280, 280, kernel_size=(3, 3), stride=(1,\
  \ 1), padding=(1, 1), bias=False)\n  (bn2): BatchNorm2d(280, eps=1e-05, momentum=0.1,\
  \ affine=True, track_running_stats=True)\n  (conv2): Conv2d(280, 280, kernel_size=(3,\
  \ 3), stride=(1, 1), padding=(1, 1), bias=False)\n))"
: count: 10
  value: 72659.20234510192
? "(204, 204, PreActBlock(\n  (bn1): BatchNorm2d(288, eps=1e-05, momentum=0.1, affine=True,\
  \ track_running_stats=True)\n  (conv1): Conv2d(288, 288, kernel_size=(3, 3), stride=(1,\
  \ 1), padding=(1, 1), bias=False)\n  (bn2): BatchNorm2d(288, eps=1e-05, momentum=0.1,\
  \ affine=True, track_running_stats=True)\n  (conv2): Conv2d(288, 288, kernel_size=(3,\
  \ 3), stride=(1, 1), padding=(1, 1), bias=False)\n))"
: count: 10
  value: 74450.88545619961
? "(204, 204, PreActBlock(\n  (bn1): BatchNorm2d(296, eps=1e-05, momentum=0.1, affine=True,\
  \ track_running_stats=True)\n  (conv1): Conv2d(296, 296, kernel_size=(3, 3), stride=(1,\
  \ 1), padding=(1, 1), bias=False)\n  (bn2): BatchNorm2d(296, eps=1e-05, momentum=0.1,\
  \ affine=True, track_running_stats=True)\n  (conv2): Conv2d(296, 296, kernel_size=(3,\
  \ 3), stride=(1, 1), padding=(1, 1), bias=False)\n))"
: count: 10
  value: 84202.6572410309
? "(204, 204, PreActBlock(\n  (bn1): BatchNorm2d(304, eps=1e-05, momentum=0.1, affine=True,\
  \ track_running_stats=True)\n  (conv1): Conv2d(304, 304, kernel_size=(3, 3), stride=(1,\
  \ 1), padding=(1, 1), bias=False)\n  (bn2): BatchNorm2d(304, eps=1e-05, momentum=0.1,\
  \ affine=True, track_running_stats=True)\n  (conv2): Conv2d(304, 304, kernel_size=(3,\
  \ 3), stride=(1, 1), padding=(1, 1), bias=False)\n))"
: count: 20
  value: 85861.34871948359
? "(204, 204, PreActBlock(\n  (bn1): BatchNorm2d(312, eps=1e-05, momentum=0.1, affine=True,\
  \ track_running_stats=True)\n  (conv1): Conv2d(312, 312, kernel_size=(3, 3), stride=(1,\
  \ 1), padding=(1, 1), bias=False)\n  (bn2): BatchNorm2d(312, eps=1e-05, momentum=0.1,\
  \ affine=True, track_running_stats=True)\n  (conv2): Conv2d(312, 312, kernel_size=(3,\
  \ 3), stride=(1, 1), padding=(1, 1), bias=False)\n))"
: count: 10
  value: 88498.36047730103
? "(204, 204, PreActBlock(\n  (bn1): BatchNorm2d(320, eps=1e-05, momentum=0.1, affine=True,\
  \ track_running_stats=True)\n  (conv1): Conv2d(320, 320, kernel_size=(3, 3), stride=(1,\
  \ 1), padding=(1, 1), bias=False)\n  (bn2): BatchNorm2d(320, eps=1e-05, momentum=0.1,\
  \ affine=True, track_running_stats=True)\n  (conv2): Conv2d(320, 320, kernel_size=(3,\
  \ 3), stride=(1, 1), padding=(1, 1), bias=False)\n))"
: count: 10
  value: 90772.87708475572
? "(204, 204, PreActBlock(\n  (bn1): BatchNorm2d(64, eps=1e-05, momentum=0.1, affine=True,\
  \ track_running_stats=True)\n  (conv1): Conv2d(64, 104, kernel_size=(3, 3), stride=(1,\
  \ 1), padding=(1, 1), bias=False)\n  (bn2): BatchNorm2d(104, eps=1e-05, momentum=0.1,\
  \ affine=True, track_running_stats=True)\n  (conv2): Conv2d(104, 104, kernel_size=(3,\
  \ 3), stride=(1, 1), padding=(1, 1), bias=False)\n  (shortcut): Sequential(\n  \
  \  (0): Conv2d(64, 104, kernel_size=(1, 1), stride=(1, 1), bias=False)\n  )\n))"
: count: 10
  value: 13721.960859396364
? "(204, 204, PreActBlock(\n  (bn1): BatchNorm2d(64, eps=1e-05, momentum=0.1, affine=True,\
  \ track_running_stats=True)\n  (conv1): Conv2d(64, 112, kernel_size=(3, 3), stride=(1,\
  \ 1), padding=(1, 1), bias=False)\n  (bn2): BatchNorm2d(112, eps=1e-05, momentum=0.1,\
  \ affine=True, track_running_stats=True)\n  (conv2): Conv2d(112, 112, kernel_size=(3,\
  \ 3), stride=(1, 1), padding=(1, 1), bias=False)\n  (shortcut): Sequential(\n  \
  \  (0): Conv2d(64, 112, kernel_size=(1, 1), stride=(1, 1), bias=False)\n  )\n))"
: count: 20
  value: 14290.10640138893
? "(204, 204, PreActBlock(\n  (bn1): BatchNorm2d(64, eps=1e-05, momentum=0.1, affine=True,\
  \ track_running_stats=True)\n  (conv1): Conv2d(64, 120, kernel_size=(3, 3), stride=(1,\
  \ 1), padding=(1, 1), bias=False)\n  (bn2): BatchNorm2d(120, eps=1e-05, momentum=0.1,\
  \ affine=True, track_running_stats=True)\n  (conv2): Conv2d(120, 120, kernel_size=(3,\
  \ 3), stride=(1, 1), padding=(1, 1), bias=False)\n  (shortcut): Sequential(\n  \
  \  (0): Conv2d(64, 120, kernel_size=(1, 1), stride=(1, 1), bias=False)\n  )\n))"
: count: 10
  value: 14843.944856006623
? "(204, 204, PreActBlock(\n  (bn1): BatchNorm2d(64, eps=1e-05, momentum=0.1, affine=True,\
  \ track_running_stats=True)\n  (conv1): Conv2d(64, 128, kernel_size=(3, 3), stride=(1,\
  \ 1), padding=(1, 1), bias=False)\n  (bn2): BatchNorm2d(128, eps=1e-05, momentum=0.1,\
  \ affine=True, track_running_stats=True)\n  (conv2): Conv2d(128, 128, kernel_size=(3,\
  \ 3), stride=(1, 1), padding=(1, 1), bias=False)\n  (shortcut): Sequential(\n  \
  \  (0): Conv2d(64, 128, kernel_size=(1, 1), stride=(1, 1), bias=False)\n  )\n))"
: count: 10
  value: 16722.64425052948
? "(204, 204, PreActBlock(\n  (bn1): BatchNorm2d(64, eps=1e-05, momentum=0.1, affine=True,\
  \ track_running_stats=True)\n  (conv1): Conv2d(64, 136, kernel_size=(3, 3), stride=(1,\
  \ 1), padding=(1, 1), bias=False)\n  (bn2): BatchNorm2d(136, eps=1e-05, momentum=0.1,\
  \ affine=True, track_running_stats=True)\n  (conv2): Conv2d(136, 136, kernel_size=(3,\
  \ 3), stride=(1, 1), padding=(1, 1), bias=False)\n  (shortcut): Sequential(\n  \
  \  (0): Conv2d(64, 136, kernel_size=(1, 1), stride=(1, 1), bias=False)\n  )\n))"
: count: 10
  value: 19162.117107362366
? "(204, 204, PreActBlock(\n  (bn1): BatchNorm2d(64, eps=1e-05, momentum=0.1, affine=True,\
  \ track_running_stats=True)\n  (conv1): Conv2d(64, 144, kernel_size=(3, 3), stride=(1,\
  \ 1), padding=(1, 1), bias=False)\n  (bn2): BatchNorm2d(144, eps=1e-05, momentum=0.1,\
  \ affine=True, track_running_stats=True)\n  (conv2): Conv2d(144, 144, kernel_size=(3,\
  \ 3), stride=(1, 1), padding=(1, 1), bias=False)\n  (shortcut): Sequential(\n  \
  \  (0): Conv2d(64, 144, kernel_size=(1, 1), stride=(1, 1), bias=False)\n  )\n))"
: count: 20
  value: 19904.732939476395
? "(204, 204, PreActBlock(\n  (bn1): BatchNorm2d(64, eps=1e-05, momentum=0.1, affine=True,\
  \ track_running_stats=True)\n  (conv1): Conv2d(64, 152, kernel_size=(3, 3), stride=(1,\
  \ 1), padding=(1, 1), bias=False)\n  (bn2): BatchNorm2d(152, eps=1e-05, momentum=0.1,\
  \ affine=True, track_running_stats=True)\n  (conv2): Conv2d(152, 152, kernel_size=(3,\
  \ 3), stride=(1, 1), padding=(1, 1), bias=False)\n  (shortcut): Sequential(\n  \
  \  (0): Conv2d(64, 152, kernel_size=(1, 1), stride=(1, 1), bias=False)\n  )\n))"
: count: 10
  value: 20574.45466022186
? "(204, 204, PreActBlock(\n  (bn1): BatchNorm2d(64, eps=1e-05, momentum=0.1, affine=True,\
  \ track_running_stats=True)\n  (conv1): Conv2d(64, 160, kernel_size=(3, 3), stride=(1,\
  \ 1), padding=(1, 1), bias=False)\n  (bn2): BatchNorm2d(160, eps=1e-05, momentum=0.1,\
  \ affine=True, track_running_stats=True)\n  (conv2): Conv2d(160, 160, kernel_size=(3,\
  \ 3), stride=(1, 1), padding=(1, 1), bias=False)\n  (shortcut): Sequential(\n  \
  \  (0): Conv2d(64, 160, kernel_size=(1, 1), stride=(1, 1), bias=False)\n  )\n))"
: count: 10
  value: 21247.261303844454
? "(204, 204, PreActBlock(\n  (bn1): BatchNorm2d(64, eps=1e-05, momentum=0.1, affine=True,\
  \ track_running_stats=True)\n  (conv1): Conv2d(64, 168, kernel_size=(3, 3), stride=(1,\
  \ 1), padding=(1, 1), bias=False)\n  (bn2): BatchNorm2d(168, eps=1e-05, momentum=0.1,\
  \ affine=True, track_running_stats=True)\n  (conv2): Conv2d(168, 168, kernel_size=(3,\
  \ 3), stride=(1, 1), padding=(1, 1), bias=False)\n  (shortcut): Sequential(\n  \
  \  (0): Conv2d(64, 168, kernel_size=(1, 1), stride=(1, 1), bias=False)\n  )\n))"
: count: 10
  value: 25784.49604915772
? "(204, 204, PreActBlock(\n  (bn1): BatchNorm2d(64, eps=1e-05, momentum=0.1, affine=True,\
  \ track_running_stats=True)\n  (conv1): Conv2d(64, 176, kernel_size=(3, 3), stride=(1,\
  \ 1), padding=(1, 1), bias=False)\n  (bn2): BatchNorm2d(176, eps=1e-05, momentum=0.1,\
  \ affine=True, track_running_stats=True)\n  (conv2): Conv2d(176, 176, kernel_size=(3,\
  \ 3), stride=(1, 1), padding=(1, 1), bias=False)\n  (shortcut): Sequential(\n  \
  \  (0): Conv2d(64, 176, kernel_size=(1, 1), stride=(1, 1), bias=False)\n  )\n))"
: count: 20
  value: 27911.548043317038
? "(204, 204, PreActBlock(\n  (bn1): BatchNorm2d(64, eps=1e-05, momentum=0.1, affine=True,\
  \ track_running_stats=True)\n  (conv1): Conv2d(64, 184, kernel_size=(3, 3), stride=(1,\
  \ 1), padding=(1, 1), bias=False)\n  (bn2): BatchNorm2d(184, eps=1e-05, momentum=0.1,\
  \ affine=True, track_running_stats=True)\n  (conv2): Conv2d(184, 184, kernel_size=(3,\
  \ 3), stride=(1, 1), padding=(1, 1), bias=False)\n  (shortcut): Sequential(\n  \
  \  (0): Conv2d(64, 184, kernel_size=(1, 1), stride=(1, 1), bias=False)\n  )\n))"
: count: 10
  value: 26632.34666332855
? "(204, 204, PreActBlock(\n  (bn1): BatchNorm2d(64, eps=1e-05, momentum=0.1, affine=True,\
  \ track_running_stats=True)\n  (conv1): Conv2d(64, 192, kernel_size=(3, 3), stride=(1,\
  \ 1), padding=(1, 1), bias=False)\n  (bn2): BatchNorm2d(192, eps=1e-05, momentum=0.1,\
  \ affine=True, track_running_stats=True)\n  (conv2): Conv2d(192, 192, kernel_size=(3,\
  \ 3), stride=(1, 1), padding=(1, 1), bias=False)\n  (shortcut): Sequential(\n  \
  \  (0): Conv2d(64, 192, kernel_size=(1, 1), stride=(1, 1), bias=False)\n  )\n))"
: count: 10
  value: 27361.61434441376
? "(204, 204, PreActBlock(\n  (bn1): BatchNorm2d(64, eps=1e-05, momentum=0.1, affine=True,\
  \ track_running_stats=True)\n  (conv1): Conv2d(64, 200, kernel_size=(3, 3), stride=(1,\
  \ 1), padding=(1, 1), bias=False)\n  (bn2): BatchNorm2d(200, eps=1e-05, momentum=0.1,\
  \ affine=True, track_running_stats=True)\n  (conv2): Conv2d(200, 200, kernel_size=(3,\
  \ 3), stride=(1, 1), padding=(1, 1), bias=False)\n  (shortcut): Sequential(\n  \
  \  (0): Conv2d(64, 200, kernel_size=(1, 1), stride=(1, 1), bias=False)\n  )\n))"
: count: 10
  value: 32115.08408961487
? "(204, 204, PreActBlock(\n  (bn1): BatchNorm2d(64, eps=1e-05, momentum=0.1, affine=True,\
  \ track_running_stats=True)\n  (conv1): Conv2d(64, 208, kernel_size=(3, 3), stride=(1,\
  \ 1), padding=(1, 1), bias=False)\n  (bn2): BatchNorm2d(208, eps=1e-05, momentum=0.1,\
  \ affine=True, track_running_stats=True)\n  (conv2): Conv2d(208, 208, kernel_size=(3,\
  \ 3), stride=(1, 1), padding=(1, 1), bias=False)\n  (shortcut): Sequential(\n  \
  \  (0): Conv2d(64, 208, kernel_size=(1, 1), stride=(1, 1), bias=False)\n  )\n))"
: count: 20
  value: 33354.838770063405
? "(204, 204, PreActBlock(\n  (bn1): BatchNorm2d(64, eps=1e-05, momentum=0.1, affine=True,\
  \ track_running_stats=True)\n  (conv1): Conv2d(64, 216, kernel_size=(3, 3), stride=(1,\
  \ 1), padding=(1, 1), bias=False)\n  (bn2): BatchNorm2d(216, eps=1e-05, momentum=0.1,\
  \ affine=True, track_running_stats=True)\n  (conv2): Conv2d(216, 216, kernel_size=(3,\
  \ 3), stride=(1, 1), padding=(1, 1), bias=False)\n  (shortcut): Sequential(\n  \
  \  (0): Conv2d(64, 216, kernel_size=(1, 1), stride=(1, 1), bias=False)\n  )\n))"
: count: 10
  value: 33605.82036748276
? "(204, 204, PreActBlock(\n  (bn1): BatchNorm2d(64, eps=1e-05, momentum=0.1, affine=True,\
  \ track_running_stats=True)\n  (conv1): Conv2d(64, 224, kernel_size=(3, 3), stride=(1,\
  \ 1), padding=(1, 1), bias=False)\n  (bn2): BatchNorm2d(224, eps=1e-05, momentum=0.1,\
  \ affine=True, track_running_stats=True)\n  (conv2): Conv2d(224, 224, kernel_size=(3,\
  \ 3), stride=(1, 1), padding=(1, 1), bias=False)\n  (shortcut): Sequential(\n  \
  \  (0): Conv2d(64, 224, kernel_size=(1, 1), stride=(1, 1), bias=False)\n  )\n))"
: count: 10
  value: 34378.518994909675
? "(204, 204, PreActBlock(\n  (bn1): BatchNorm2d(64, eps=1e-05, momentum=0.1, affine=True,\
  \ track_running_stats=True)\n  (conv1): Conv2d(64, 232, kernel_size=(3, 3), stride=(1,\
  \ 1), padding=(1, 1), bias=False)\n  (bn2): BatchNorm2d(232, eps=1e-05, momentum=0.1,\
  \ affine=True, track_running_stats=True)\n  (conv2): Conv2d(232, 232, kernel_size=(3,\
  \ 3), stride=(1, 1), padding=(1, 1), bias=False)\n  (shortcut): Sequential(\n  \
  \  (0): Conv2d(64, 232, kernel_size=(1, 1), stride=(1, 1), bias=False)\n  )\n))"
: count: 10
  value: 39622.41015089493
? "(204, 204, PreActBlock(\n  (bn1): BatchNorm2d(64, eps=1e-05, momentum=0.1, affine=True,\
  \ track_running_stats=True)\n  (conv1): Conv2d(64, 240, kernel_size=(3, 3), stride=(1,\
  \ 1), padding=(1, 1), bias=False)\n  (bn2): BatchNorm2d(240, eps=1e-05, momentum=0.1,\
  \ affine=True, track_running_stats=True)\n  (conv2): Conv2d(240, 240, kernel_size=(3,\
  \ 3), stride=(1, 1), padding=(1, 1), bias=False)\n  (shortcut): Sequential(\n  \
  \  (0): Conv2d(64, 240, kernel_size=(1, 1), stride=(1, 1), bias=False)\n  )\n))"
: count: 20
  value: 40389.73755617218
? "(204, 204, PreActBlock(\n  (bn1): BatchNorm2d(64, eps=1e-05, momentum=0.1, affine=True,\
  \ track_running_stats=True)\n  (conv1): Conv2d(64, 248, kernel_size=(3, 3), stride=(1,\
  \ 1), padding=(1, 1), bias=False)\n  (bn2): BatchNorm2d(248, eps=1e-05, momentum=0.1,\
  \ affine=True, track_running_stats=True)\n  (conv2): Conv2d(248, 248, kernel_size=(3,\
  \ 3), stride=(1, 1), padding=(1, 1), bias=False)\n  (shortcut): Sequential(\n  \
  \  (0): Conv2d(64, 248, kernel_size=(1, 1), stride=(1, 1), bias=False)\n  )\n))"
: count: 10
  value: 41362.43357812347
? "(204, 204, PreActBlock(\n  (bn1): BatchNorm2d(64, eps=1e-05, momentum=0.1, affine=True,\
  \ track_running_stats=True)\n  (conv1): Conv2d(64, 256, kernel_size=(3, 3), stride=(1,\
  \ 1), padding=(1, 1), bias=False)\n  (bn2): BatchNorm2d(256, eps=1e-05, momentum=0.1,\
  \ affine=True, track_running_stats=True)\n  (conv2): Conv2d(256, 256, kernel_size=(3,\
  \ 3), stride=(1, 1), padding=(1, 1), bias=False)\n  (shortcut): Sequential(\n  \
  \  (0): Conv2d(64, 256, kernel_size=(1, 1), stride=(1, 1), bias=False)\n  )\n))"
: count: 10
  value: 42410.91109254227
? "(204, 204, PreActBlock(\n  (bn1): BatchNorm2d(64, eps=1e-05, momentum=0.1, affine=True,\
  \ track_running_stats=True)\n  (conv1): Conv2d(64, 264, kernel_size=(3, 3), stride=(1,\
  \ 1), padding=(1, 1), bias=False)\n  (bn2): BatchNorm2d(264, eps=1e-05, momentum=0.1,\
  \ affine=True, track_running_stats=True)\n  (conv2): Conv2d(264, 264, kernel_size=(3,\
  \ 3), stride=(1, 1), padding=(1, 1), bias=False)\n  (shortcut): Sequential(\n  \
  \  (0): Conv2d(64, 264, kernel_size=(1, 1), stride=(1, 1), bias=False)\n  )\n))"
: count: 10
  value: 52437.87834740906
? "(204, 204, PreActBlock(\n  (bn1): BatchNorm2d(64, eps=1e-05, momentum=0.1, affine=True,\
  \ track_running_stats=True)\n  (conv1): Conv2d(64, 272, kernel_size=(3, 3), stride=(1,\
  \ 1), padding=(1, 1), bias=False)\n  (bn2): BatchNorm2d(272, eps=1e-05, momentum=0.1,\
  \ affine=True, track_running_stats=True)\n  (conv2): Conv2d(272, 272, kernel_size=(3,\
  \ 3), stride=(1, 1), padding=(1, 1), bias=False)\n  (shortcut): Sequential(\n  \
  \  (0): Conv2d(64, 272, kernel_size=(1, 1), stride=(1, 1), bias=False)\n  )\n))"
: count: 20
  value: 50361.26016894531
? "(204, 204, PreActBlock(\n  (bn1): BatchNorm2d(64, eps=1e-05, momentum=0.1, affine=True,\
  \ track_running_stats=True)\n  (conv1): Conv2d(64, 280, kernel_size=(3, 3), stride=(1,\
  \ 1), padding=(1, 1), bias=False)\n  (bn2): BatchNorm2d(280, eps=1e-05, momentum=0.1,\
  \ affine=True, track_running_stats=True)\n  (conv2): Conv2d(280, 280, kernel_size=(3,\
  \ 3), stride=(1, 1), padding=(1, 1), bias=False)\n  (shortcut): Sequential(\n  \
  \  (0): Conv2d(64, 280, kernel_size=(1, 1), stride=(1, 1), bias=False)\n  )\n))"
: count: 10
  value: 51329.46490382233
? "(204, 204, PreActBlock(\n  (bn1): BatchNorm2d(64, eps=1e-05, momentum=0.1, affine=True,\
  \ track_running_stats=True)\n  (conv1): Conv2d(64, 288, kernel_size=(3, 3), stride=(1,\
  \ 1), padding=(1, 1), bias=False)\n  (bn2): BatchNorm2d(288, eps=1e-05, momentum=0.1,\
  \ affine=True, track_running_stats=True)\n  (conv2): Conv2d(288, 288, kernel_size=(3,\
  \ 3), stride=(1, 1), padding=(1, 1), bias=False)\n  (shortcut): Sequential(\n  \
  \  (0): Conv2d(64, 288, kernel_size=(1, 1), stride=(1, 1), bias=False)\n  )\n))"
: count: 10
  value: 52388.12089209136
? "(204, 204, PreActBlock(\n  (bn1): BatchNorm2d(64, eps=1e-05, momentum=0.1, affine=True,\
  \ track_running_stats=True)\n  (conv1): Conv2d(64, 296, kernel_size=(3, 3), stride=(1,\
  \ 1), padding=(1, 1), bias=False)\n  (bn2): BatchNorm2d(296, eps=1e-05, momentum=0.1,\
  \ affine=True, track_running_stats=True)\n  (conv2): Conv2d(296, 296, kernel_size=(3,\
  \ 3), stride=(1, 1), padding=(1, 1), bias=False)\n  (shortcut): Sequential(\n  \
  \  (0): Conv2d(64, 296, kernel_size=(1, 1), stride=(1, 1), bias=False)\n  )\n))"
: count: 10
  value: 59090.69502644196
? "(204, 204, PreActBlock(\n  (bn1): BatchNorm2d(64, eps=1e-05, momentum=0.1, affine=True,\
  \ track_running_stats=True)\n  (conv1): Conv2d(64, 304, kernel_size=(3, 3), stride=(1,\
  \ 1), padding=(1, 1), bias=False)\n  (bn2): BatchNorm2d(304, eps=1e-05, momentum=0.1,\
  \ affine=True, track_running_stats=True)\n  (conv2): Conv2d(304, 304, kernel_size=(3,\
  \ 3), stride=(1, 1), padding=(1, 1), bias=False)\n  (shortcut): Sequential(\n  \
  \  (0): Conv2d(64, 304, kernel_size=(1, 1), stride=(1, 1), bias=False)\n  )\n))"
: count: 20
  value: 59152.25722203788
? "(204, 204, PreActBlock(\n  (bn1): BatchNorm2d(64, eps=1e-05, momentum=0.1, affine=True,\
  \ track_running_stats=True)\n  (conv1): Conv2d(64, 312, kernel_size=(3, 3), stride=(1,\
  \ 1), padding=(1, 1), bias=False)\n  (bn2): BatchNorm2d(312, eps=1e-05, momentum=0.1,\
  \ affine=True, track_running_stats=True)\n  (conv2): Conv2d(312, 312, kernel_size=(3,\
  \ 3), stride=(1, 1), padding=(1, 1), bias=False)\n  (shortcut): Sequential(\n  \
  \  (0): Conv2d(64, 312, kernel_size=(1, 1), stride=(1, 1), bias=False)\n  )\n))"
: count: 10
  value: 60677.42844084398
? "(204, 204, PreActBlock(\n  (bn1): BatchNorm2d(64, eps=1e-05, momentum=0.1, affine=True,\
  \ track_running_stats=True)\n  (conv1): Conv2d(64, 320, kernel_size=(3, 3), stride=(1,\
  \ 1), padding=(1, 1), bias=False)\n  (bn2): BatchNorm2d(320, eps=1e-05, momentum=0.1,\
  \ affine=True, track_running_stats=True)\n  (conv2): Conv2d(320, 320, kernel_size=(3,\
  \ 3), stride=(1, 1), padding=(1, 1), bias=False)\n  (shortcut): Sequential(\n  \
  \  (0): Conv2d(64, 320, kernel_size=(1, 1), stride=(1, 1), bias=False)\n  )\n))"
: count: 10
  value: 61923.68409033738
? "(204, 204, PreActBlock(\n  (bn1): BatchNorm2d(64, eps=1e-05, momentum=0.1, affine=True,\
  \ track_running_stats=True)\n  (conv1): Conv2d(64, 64, kernel_size=(3, 3), stride=(1,\
  \ 1), padding=(1, 1), bias=False)\n  (bn2): BatchNorm2d(64, eps=1e-05, momentum=0.1,\
  \ affine=True, track_running_stats=True)\n  (conv2): Conv2d(64, 64, kernel_size=(3,\
  \ 3), stride=(1, 1), padding=(1, 1), bias=False)\n))"
: count: 20
  value: 3882.2182363578786
? "(204, 204, PreActBlock(\n  (bn1): BatchNorm2d(64, eps=1e-05, momentum=0.1, affine=True,\
  \ track_running_stats=True)\n  (conv1): Conv2d(64, 72, kernel_size=(3, 3), stride=(1,\
  \ 1), padding=(1, 1), bias=False)\n  (bn2): BatchNorm2d(72, eps=1e-05, momentum=0.1,\
  \ affine=True, track_running_stats=True)\n  (conv2): Conv2d(72, 72, kernel_size=(3,\
  \ 3), stride=(1, 1), padding=(1, 1), bias=False)\n  (shortcut): Sequential(\n  \
  \  (0): Conv2d(64, 72, kernel_size=(1, 1), stride=(1, 1), bias=False)\n  )\n))"
: count: 10
  value: 10199.348619351196
? "(204, 204, PreActBlock(\n  (bn1): BatchNorm2d(64, eps=1e-05, momentum=0.1, affine=True,\
  \ track_running_stats=True)\n  (conv1): Conv2d(64, 80, kernel_size=(3, 3), stride=(1,\
  \ 1), padding=(1, 1), bias=False)\n  (bn2): BatchNorm2d(80, eps=1e-05, momentum=0.1,\
  \ affine=True, track_running_stats=True)\n  (conv2): Conv2d(80, 80, kernel_size=(3,\
  \ 3), stride=(1, 1), padding=(1, 1), bias=False)\n  (shortcut): Sequential(\n  \
  \  (0): Conv2d(64, 80, kernel_size=(1, 1), stride=(1, 1), bias=False)\n  )\n))"
: count: 20
  value: 10567.716272532653
? "(204, 204, PreActBlock(\n  (bn1): BatchNorm2d(64, eps=1e-05, momentum=0.1, affine=True,\
  \ track_running_stats=True)\n  (conv1): Conv2d(64, 88, kernel_size=(3, 3), stride=(1,\
  \ 1), padding=(1, 1), bias=False)\n  (bn2): BatchNorm2d(88, eps=1e-05, momentum=0.1,\
  \ affine=True, track_running_stats=True)\n  (conv2): Conv2d(88, 88, kernel_size=(3,\
  \ 3), stride=(1, 1), padding=(1, 1), bias=False)\n  (shortcut): Sequential(\n  \
  \  (0): Conv2d(64, 88, kernel_size=(1, 1), stride=(1, 1), bias=False)\n  )\n))"
: count: 10
  value: 10983.240066136936
? "(204, 204, PreActBlock(\n  (bn1): BatchNorm2d(64, eps=1e-05, momentum=0.1, affine=True,\
  \ track_running_stats=True)\n  (conv1): Conv2d(64, 96, kernel_size=(3, 3), stride=(1,\
  \ 1), padding=(1, 1), bias=False)\n  (bn2): BatchNorm2d(96, eps=1e-05, momentum=0.1,\
  \ affine=True, track_running_stats=True)\n  (conv2): Conv2d(96, 96, kernel_size=(3,\
  \ 3), stride=(1, 1), padding=(1, 1), bias=False)\n  (shortcut): Sequential(\n  \
  \  (0): Conv2d(64, 96, kernel_size=(1, 1), stride=(1, 1), bias=False)\n  )\n))"
: count: 10
  value: 14533.560429853058
? "(204, 204, PreActBlock(\n  (bn1): BatchNorm2d(72, eps=1e-05, momentum=0.1, affine=True,\
  \ track_running_stats=True)\n  (conv1): Conv2d(72, 72, kernel_size=(3, 3), stride=(1,\
  \ 1), padding=(1, 1), bias=False)\n  (bn2): BatchNorm2d(72, eps=1e-05, momentum=0.1,\
  \ affine=True, track_running_stats=True)\n  (conv2): Conv2d(72, 72, kernel_size=(3,\
  \ 3), stride=(1, 1), padding=(1, 1), bias=False)\n))"
: count: 10
  value: 8630.766997979736
? "(204, 204, PreActBlock(\n  (bn1): BatchNorm2d(80, eps=1e-05, momentum=0.1, affine=True,\
  \ track_running_stats=True)\n  (conv1): Conv2d(80, 80, kernel_size=(3, 3), stride=(1,\
  \ 1), padding=(1, 1), bias=False)\n  (bn2): BatchNorm2d(80, eps=1e-05, momentum=0.1,\
  \ affine=True, track_running_stats=True)\n  (conv2): Conv2d(80, 80, kernel_size=(3,\
  \ 3), stride=(1, 1), padding=(1, 1), bias=False)\n))"
: count: 20
  value: 9329.933215641402
? "(204, 204, PreActBlock(\n  (bn1): BatchNorm2d(88, eps=1e-05, momentum=0.1, affine=True,\
  \ track_running_stats=True)\n  (conv1): Conv2d(88, 88, kernel_size=(3, 3), stride=(1,\
  \ 1), padding=(1, 1), bias=False)\n  (bn2): BatchNorm2d(88, eps=1e-05, momentum=0.1,\
  \ affine=True, track_running_stats=True)\n  (conv2): Conv2d(88, 88, kernel_size=(3,\
  \ 3), stride=(1, 1), padding=(1, 1), bias=False)\n))"
: count: 10
  value: 10081.295648482512
? "(204, 204, PreActBlock(\n  (bn1): BatchNorm2d(96, eps=1e-05, momentum=0.1, affine=True,\
  \ track_running_stats=True)\n  (conv1): Conv2d(96, 96, kernel_size=(3, 3), stride=(1,\
  \ 1), padding=(1, 1), bias=False)\n  (bn2): BatchNorm2d(96, eps=1e-05, momentum=0.1,\
  \ affine=True, track_running_stats=True)\n  (conv2): Conv2d(96, 96, kernel_size=(3,\
  \ 3), stride=(1, 1), padding=(1, 1), bias=False)\n))"
: count: 10
  value: 10792.701817920684
(25, 25, Linear(in_features=1024, out_features=100, bias=True)):
  count: 10
  value: 96.73160050125122
(25, 25, Linear(in_features=1072, out_features=100, bias=True)):
  count: 10
  value: 95.89050182266236
(25, 25, Linear(in_features=1128, out_features=100, bias=True)):
  count: 10
…
(25, 25, Linear(in_features=720, out_features=100, bias=True)):
  count: 10
  value: 92.29140087585448
(25, 25, Linear(in_features=768, out_features=100, bias=True)):
  count: 10
  value: 93.93029964904785
(25, 25, Linear(in_features=816, out_features=100, bias=True)):
  count: 10
  value: 92.86400054397582
(25, 25, Linear(in_features=872, out_features=100, bias=True)):
  count: 10
  value: 91.80309976730345
(25, 25, Linear(in_features=920, out_features=100, bias=True)):
  count: 10
  value: 93.55940064544679
(25, 25, Linear(in_features=976, out_features=100, bias=True)):
  count: 10
  value: 97.77010105895997
? "(25, 25, PreActBlock(\n  (bn1): BatchNorm2d(1024, eps=1e-05, momentum=0.1, affine=True,\
  \ track_running_stats=True)\n  (conv1): Conv2d(1024, 1024, kernel_size=(3, 3), stride=(1,\
  \ 1), padding=(1, 1), bias=False)\n  (bn2): BatchNorm2d(1024, eps=1e-05, momentum=0.1,\
  \ affine=True, track_running_stats=True)\n  (conv2): Conv2d(1024, 1024, kernel_size=(3,\
  \ 3), stride=(1, 1), padding=(1, 1), bias=False)\n))"
: count: 10
  value: 34607.2917841568
? "(25, 25, PreActBlock(\n  (bn1): BatchNorm2d(1072, eps=1e-05, momentum=0.1, affine=True,\
  \ track_running_stats=True)\n  (conv1): Conv2d(1072, 1072, kernel_size=(3, 3), stride=(1,\
  \ 1), padding=(1, 1), bias=False)\n  (bn2): BatchNorm2d(1072, eps=1e-05, momentum=0.1,\
  \ affine=True, track_running_stats=True)\n  (conv2): Conv2d(1072, 1072, kernel_size=(3,\
  \ 3), stride=(1, 1), padding=(1, 1), bias=False)\n))"
: count: 10
  value: 39157.0198543396
? "(25, 25, PreActBlock(\n  (bn1): BatchNorm2d(1128, eps=1e-05, momentum=0.1, affine=True,\
  \ track_running_stats=True)\n  (conv1): Conv2d(1128, 1128, kernel_size=(3, 3), stride=(1,\
  \ 1), padding=(1, 1), bias=False)\n  (bn2): BatchNorm2d(1128, eps=1e-05, momentum=0.1,\
  \ affine=True, track_running_stats=True)\n  (conv2): Conv2d(1128, 1128, kernel_size=(3,\
  \ 3), stride=(1, 1), padding=(1, 1), bias=False)\n))"
: count: 10
  value: 43478.90512504883
? "(25, 25, PreActBlock(\n  (bn1): BatchNorm2d(1176, eps=1e-05, momentum=0.1, affine=True,\
  \ track_running_stats=True)\n  (conv1): Conv2d(1176, 1176, kernel_size=(3, 3), stride=(1,\
  \ 1), padding=(1, 1), bias=False)\n  (bn2): BatchNorm2d(1176, eps=1e-05, momentum=0.1,\
  \ affine=True, track_running_stats=True)\n  (conv2): Conv2d(1176, 1176, kernel_size=(3,\
  \ 3), stride=(1, 1), padding=(1, 1), bias=False)\n))"
: count: 10
  value: 50513.23864896622
? "(25, 25, PreActBlock(\n  (bn1): BatchNorm2d(1232, eps=1e-05, momentum=0.1, affine=True,\
  \ track_running_stats=True)\n  (conv1): Conv2d(1232, 1232, kernel_size=(3, 3), stride=(1,\
  \ 1), padding=(1, 1), bias=False)\n  (bn2): BatchNorm2d(1232, eps=1e-05, momentum=0.1,\
  \ affine=True, track_running_stats=True)\n  (conv2): Conv2d(1232, 1232, kernel_size=(3,\
  \ 3), stride=(1, 1), padding=(1, 1), bias=False)\n))"
: count: 10
  value: 51481.02584640579
? "(25, 25, PreActBlock(\n  (bn1): BatchNorm2d(1280, eps=1e-05, momentum=0.1, affine=True,\
  \ track_running_stats=True)\n  (conv1): Conv2d(1280, 1280, kernel_size=(3, 3), stride=(1,\
  \ 1), padding=(1, 1), bias=False)\n  (bn2): BatchNorm2d(1280, eps=1e-05, momentum=0.1,\
  \ affine=True, track_running_stats=True)\n  (conv2): Conv2d(1280, 1280, kernel_size=(3,\
  \ 3), stride=(1, 1), padding=(1, 1), bias=False)\n))"
: count: 10
  value: 53675.65346449662
? "(25, 25, PreActBlock(\n  (bn1): BatchNorm2d(1328, eps=1e-05, momentum=0.1, affine=True,\
  \ track_running_stats=True)\n  (conv1): Conv2d(1328, 1328, kernel_size=(3, 3), stride=(1,\
  \ 1), padding=(1, 1), bias=False)\n  (bn2): BatchNorm2d(1328, eps=1e-05, momentum=0.1,\
  \ affine=True, track_running_stats=True)\n  (conv2): Conv2d(1328, 1328, kernel_size=(3,\
  \ 3), stride=(1, 1), padding=(1, 1), bias=False)\n))"
: count: 10
  value: 58500.385144293214
? "(25, 25, PreActBlock(\n  (bn1): BatchNorm2d(1384, eps=1e-05, momentum=0.1, affine=True,\
  \ track_running_stats=True)\n  (conv1): Conv2d(1384, 1384, kernel_size=(3, 3), stride=(1,\
  \ 1), padding=(1, 1), bias=False)\n  (bn2): BatchNorm2d(1384, eps=1e-05, momentum=0.1,\
  \ affine=True, track_running_stats=True)\n  (conv2): Conv2d(1384, 1384, kernel_size=(3,\
  \ 3), stride=(1, 1), padding=(1, 1), bias=False)\n))"
: count: 10
  value: 63198.775752812195
? "(25, 25, PreActBlock(\n  (bn1): BatchNorm2d(1432, eps=1e-05, momentum=0.1, affine=True,\
  \ track_running_stats=True)\n  (conv1): Conv2d(1432, 1432, kernel_size=(3, 3), stride=(1,\
  \ 1), padding=(1, 1), bias=False)\n  (bn2): BatchNorm2d(1432, eps=1e-05, momentum=0.1,\
  \ affine=True, track_running_stats=True)\n  (conv2): Conv2d(1432, 1432, kernel_size=(3,\
  \ 3), stride=(1, 1), padding=(1, 1), bias=False)\n))"
: count: 10
  value: 67604.70684364624
? "(25, 25, PreActBlock(\n  (bn1): BatchNorm2d(1488, eps=1e-05, momentum=0.1, affine=True,\
  \ track_running_stats=True)\n  (conv1): Conv2d(1488, 1488, kernel_size=(3, 3), stride=(1,\
  \ 1), padding=(1, 1), bias=False)\n  (bn2): BatchNorm2d(1488, eps=1e-05, momentum=0.1,\
  \ affine=True, track_running_stats=True)\n  (conv2): Conv2d(1488, 1488, kernel_size=(3,\
  \ 3), stride=(1, 1), padding=(1, 1), bias=False)\n))"
: count: 10
  value: 73820.98244464188
? "(25, 25, PreActBlock(\n  (bn1): BatchNorm2d(1536, eps=1e-05, momentum=0.1, affine=True,\
  \ track_running_stats=True)\n  (conv1): Conv2d(1536, 1536, kernel_size=(3, 3), stride=(1,\
  \ 1), padding=(1, 1), bias=False)\n  (bn2): BatchNorm2d(1536, eps=1e-05, momentum=0.1,\
  \ affine=True, track_running_stats=True)\n  (conv2): Conv2d(1536, 1536, kernel_size=(3,\
  \ 3), stride=(1, 1), padding=(1, 1), bias=False)\n))"
: count: 10
  value: 80332.38510073701
? "(25, 25, PreActBlock(\n  (bn1): BatchNorm2d(1584, eps=1e-05, momentum=0.1, affine=True,\
  \ track_running_stats=True)\n  (conv1): Conv2d(1584, 1584, kernel_size=(3, 3), stride=(1,\
  \ 1), padding=(1, 1), bias=False)\n  (bn2): BatchNorm2d(1584, eps=1e-05, momentum=0.1,\
  \ affine=True, track_running_stats=True)\n  (conv2): Conv2d(1584, 1584, kernel_size=(3,\
  \ 3), stride=(1, 1), padding=(1, 1), bias=False)\n))"
: count: 10
  value: 87607.74741185532
? "(25, 25, PreActBlock(\n  (bn1): BatchNorm2d(1640, eps=1e-05, momentum=0.1, affine=True,\
  \ track_running_stats=True)\n  (conv1): Conv2d(1640, 1640, kernel_size=(3, 3), stride=(1,\
  \ 1), padding=(1, 1), bias=False)\n  (bn2): BatchNorm2d(1640, eps=1e-05, momentum=0.1,\
  \ affine=True, track_running_stats=True)\n  (conv2): Conv2d(1640, 1640, kernel_size=(3,\
  \ 3), stride=(1, 1), padding=(1, 1), bias=False)\n))"
: count: 10
  value: 87461.24698454514
? "(25, 25, PreActBlock(\n  (bn1): BatchNorm2d(1688, eps=1e-05, momentum=0.1, affine=True,\
  \ track_running_stats=True)\n  (conv1): Conv2d(1688, 1688, kernel_size=(3, 3), stride=(1,\
  \ 1), padding=(1, 1), bias=False)\n  (bn2): BatchNorm2d(1688, eps=1e-05, momentum=0.1,\
  \ affine=True, track_running_stats=True)\n  (conv2): Conv2d(1688, 1688, kernel_size=(3,\
  \ 3), stride=(1, 1), padding=(1, 1), bias=False)\n))"
: count: 10
  value: 93526.29893614579
? "(25, 25, PreActBlock(\n  (bn1): BatchNorm2d(1744, eps=1e-05, momentum=0.1, affine=True,\
  \ track_running_stats=True)\n  (conv1): Conv2d(1744, 1744, kernel_size=(3, 3), stride=(1,\
  \ 1), padding=(1, 1), bias=False)\n  (bn2): BatchNorm2d(1744, eps=1e-05, momentum=0.1,\
  \ affine=True, track_running_stats=True)\n  (conv2): Conv2d(1744, 1744, kernel_size=(3,\
  \ 3), stride=(1, 1), padding=(1, 1), bias=False)\n))"
: count: 10
  value: 98669.23393776626
? "(25, 25, PreActBlock(\n  (bn1): BatchNorm2d(1792, eps=1e-05, momentum=0.1, affine=True,\
  \ track_running_stats=True)\n  (conv1): Conv2d(1792, 1792, kernel_size=(3, 3), stride=(1,\
  \ 1), padding=(1, 1), bias=False)\n  (bn2): BatchNorm2d(1792, eps=1e-05, momentum=0.1,\
  \ affine=True, track_running_stats=True)\n  (conv2): Conv2d(1792, 1792, kernel_size=(3,\
  \ 3), stride=(1, 1), padding=(1, 1), bias=False)\n))"
: count: 10
  value: 104474.08955503769
? "(25, 25, PreActBlock(\n  (bn1): BatchNorm2d(1840, eps=1e-05, momentum=0.1, affine=True,\
  \ track_running_stats=True)\n  (conv1): Conv2d(1840, 1840, kernel_size=(3, 3), stride=(1,\
  \ 1), padding=(1, 1), bias=False)\n  (bn2): BatchNorm2d(1840, eps=1e-05, momentum=0.1,\
  \ affine=True, track_running_stats=True)\n  (conv2): Conv2d(1840, 1840, kernel_size=(3,\
  \ 3), stride=(1, 1), padding=(1, 1), bias=False)\n))"
: count: 10
  value: 117017.04843796996
? "(25, 25, PreActBlock(\n  (bn1): BatchNorm2d(1896, eps=1e-05, momentum=0.1, affine=True,\
  \ track_running_stats=True)\n  (conv1): Conv2d(1896, 1896, kernel_size=(3, 3), stride=(1,\
  \ 1), padding=(1, 1), bias=False)\n  (bn2): BatchNorm2d(1896, eps=1e-05, momentum=0.1,\
  \ affine=True, track_running_stats=True)\n  (conv2): Conv2d(1896, 1896, kernel_size=(3,\
  \ 3), stride=(1, 1), padding=(1, 1), bias=False)\n))"
: count: 10
  value: 119499.36870068664
? "(25, 25, PreActBlock(\n  (bn1): BatchNorm2d(1944, eps=1e-05, momentum=0.1, affine=True,\
  \ track_running_stats=True)\n  (conv1): Conv2d(1944, 1944, kernel_size=(3, 3), stride=(1,\
  \ 1), padding=(1, 1), bias=False)\n  (bn2): BatchNorm2d(1944, eps=1e-05, momentum=0.1,\
  \ affine=True, track_running_stats=True)\n  (conv2): Conv2d(1944, 1944, kernel_size=(3,\
  \ 3), stride=(1, 1), padding=(1, 1), bias=False)\n))"
: count: 10
  value: 126305.25898098068
? "(25, 25, PreActBlock(\n  (bn1): BatchNorm2d(2000, eps=1e-05, momentum=0.1, affine=True,\
  \ track_running_stats=True)\n  (conv1): Conv2d(2000, 2000, kernel_size=(3, 3), stride=(1,\
  \ 1), padding=(1, 1), bias=False)\n  (bn2): BatchNorm2d(2000, eps=1e-05, momentum=0.1,\
  \ affine=True, track_running_stats=True)\n  (conv2): Conv2d(2000, 2000, kernel_size=(3,\
  \ 3), stride=(1, 1), padding=(1, 1), bias=False)\n))"
: count: 10
  value: 133312.57763751983
? "(25, 25, PreActBlock(\n  (bn1): BatchNorm2d(2048, eps=1e-05, momentum=0.1, affine=True,\
  \ track_running_stats=True)\n  (conv1): Conv2d(2048, 2048, kernel_size=(3, 3), stride=(1,\
  \ 1), padding=(1, 1), bias=False)\n  (bn2): BatchNorm2d(2048, eps=1e-05, momentum=0.1,\
  \ affine=True, track_running_stats=True)\n  (conv2): Conv2d(2048, 2048, kernel_size=(3,\
  \ 3), stride=(1, 1), padding=(1, 1), bias=False)\n))"
: count: 10
  value: 137245.92297265396
? "(25, 25, PreActBlock(\n  (bn1): BatchNorm2d(2096, eps=1e-05, momentum=0.1, affine=True,\
  \ track_running_stats=True)\n  (conv1): Conv2d(2096, 2096, kernel_size=(3, 3), stride=(1,\
  \ 1), padding=(1, 1), bias=False)\n  (bn2): BatchNorm2d(2096, eps=1e-05, momentum=0.1,\
  \ affine=True, track_running_stats=True)\n  (conv2): Conv2d(2096, 2096, kernel_size=(3,\
  \ 3), stride=(1, 1), padding=(1, 1), bias=False)\n))"
: count: 10
  value: 144318.28184595035
? "(25, 25, PreActBlock(\n  (bn1): BatchNorm2d(2152, eps=1e-05, momentum=0.1, affine=True,\
  \ track_running_stats=True)\n  (conv1): Conv2d(2152, 2152, kernel_size=(3, 3), stride=(1,\
  \ 1), padding=(1, 1), bias=False)\n  (bn2): BatchNorm2d(2152, eps=1e-05, momentum=0.1,\
  \ affine=True, track_running_stats=True)\n  (conv2): Conv2d(2152, 2152, kernel_size=(3,\
  \ 3), stride=(1, 1), padding=(1, 1), bias=False)\n))"
: count: 10
  value: 155344.0948021736
? "(25, 25, PreActBlock(\n  (bn1): BatchNorm2d(2200, eps=1e-05, momentum=0.1, affine=True,\
  \ track_running_stats=True)\n  (conv1): Conv2d(2200, 2200, kernel_size=(3, 3), stride=(1,\
  \ 1), padding=(1, 1), bias=False)\n  (bn2): BatchNorm2d(2200, eps=1e-05, momentum=0.1,\
  \ affine=True, track_running_stats=True)\n  (conv2): Conv2d(2200, 2200, kernel_size=(3,\
  \ 3), stride=(1, 1), padding=(1, 1), bias=False)\n))"
: count: 10
  value: 160006.53977047576
? "(25, 25, PreActBlock(\n  (bn1): BatchNorm2d(2256, eps=1e-05, momentum=0.1, affine=True,\
  \ track_running_stats=True)\n  (conv1): Conv2d(2256, 2256, kernel_size=(3, 3), stride=(1,\
  \ 1), padding=(1, 1), bias=False)\n  (bn2): BatchNorm2d(2256, eps=1e-05, momentum=0.1,\
  \ affine=True, track_running_stats=True)\n  (conv2): Conv2d(2256, 2256, kernel_size=(3,\
  \ 3), stride=(1, 1), padding=(1, 1), bias=False)\n))"
: count: 10
  value: 174342.38468926464
? "(25, 25, PreActBlock(\n  (bn1): BatchNorm2d(2304, eps=1e-05, momentum=0.1, affine=True,\
  \ track_running_stats=True)\n  (conv1): Conv2d(2304, 2304, kernel_size=(3, 3), stride=(1,\
  \ 1), padding=(1, 1), bias=False)\n  (bn2): BatchNorm2d(2304, eps=1e-05, momentum=0.1,\
  \ affine=True, track_running_stats=True)\n  (conv2): Conv2d(2304, 2304, kernel_size=(3,\
  \ 3), stride=(1, 1), padding=(1, 1), bias=False)\n))"
: count: 10
  value: 177686.88734541548
? "(25, 25, PreActBlock(\n  (bn1): BatchNorm2d(2352, eps=1e-05, momentum=0.1, affine=True,\
  \ track_running_stats=True)\n  (conv1): Conv2d(2352, 2352, kernel_size=(3, 3), stride=(1,\
  \ 1), padding=(1, 1), bias=False)\n  (bn2): BatchNorm2d(2352, eps=1e-05, momentum=0.1,\
  \ affine=True, track_running_stats=True)\n  (conv2): Conv2d(2352, 2352, kernel_size=(3,\
  \ 3), stride=(1, 1), padding=(1, 1), bias=False)\n))"
: count: 10
  value: 182081.4802242096
? "(25, 25, PreActBlock(\n  (bn1): BatchNorm2d(2408, eps=1e-05, momentum=0.1, affine=True,\
  \ track_running_stats=True)\n  (conv1): Conv2d(2408, 2408, kernel_size=(3, 3), stride=(1,\
  \ 1), padding=(1, 1), bias=False)\n  (bn2): BatchNorm2d(2408, eps=1e-05, momentum=0.1,\
  \ affine=True, track_running_stats=True)\n  (conv2): Conv2d(2408, 2408, kernel_size=(3,\
  \ 3), stride=(1, 1), padding=(1, 1), bias=False)\n))"
: count: 10
  value: 195657.60166358334
? "(25, 25, PreActBlock(\n  (bn1): BatchNorm2d(2456, eps=1e-05, momentum=0.1, affine=True,\
  \ track_running_stats=True)\n  (conv1): Conv2d(2456, 2456, kernel_size=(3, 3), stride=(1,\
  \ 1), padding=(1, 1), bias=False)\n  (bn2): BatchNorm2d(2456, eps=1e-05, momentum=0.1,\
  \ affine=True, track_running_stats=True)\n  (conv2): Conv2d(2456, 2456, kernel_size=(3,\
  \ 3), stride=(1, 1), padding=(1, 1), bias=False)\n))"
: count: 10
  value: 199331.8306122162
? "(25, 25, PreActBlock(\n  (bn1): BatchNorm2d(2512, eps=1e-05, momentum=0.1, affine=True,\
  \ track_running_stats=True)\n  (conv1): Conv2d(2512, 2512, kernel_size=(3, 3), stride=(1,\
  \ 1), padding=(1, 1), bias=False)\n  (bn2): BatchNorm2d(2512, eps=1e-05, momentum=0.1,\
  \ affine=True, track_running_stats=True)\n  (conv2): Conv2d(2512, 2512, kernel_size=(3,\
  \ 3), stride=(1, 1), padding=(1, 1), bias=False)\n))"
: count: 10
  value: 211022.7236554237
? "(25, 25, PreActBlock(\n  (bn1): BatchNorm2d(2560, eps=1e-05, momentum=0.1, affine=True,\
  \ track_running_stats=True)\n  (conv1): Conv2d(2560, 2560, kernel_size=(3, 3), stride=(1,\
  \ 1), padding=(1, 1), bias=False)\n  (bn2): BatchNorm2d(2560, eps=1e-05, momentum=0.1,\
  \ affine=True, track_running_stats=True)\n  (conv2): Conv2d(2560, 2560, kernel_size=(3,\
  \ 3), stride=(1, 1), padding=(1, 1), bias=False)\n))"
: count: 10
  value: 211972.5989382072
? "(25, 25, PreActBlock(\n  (bn1): BatchNorm2d(512, eps=1e-05, momentum=0.1, affine=True,\
  \ track_running_stats=True)\n  (conv1): Conv2d(512, 512, kernel_size=(3, 3), stride=(1,\
  \ 1), padding=(1, 1), bias=False)\n  (bn2): BatchNorm2d(512, eps=1e-05, momentum=0.1,\
  \ affine=True, track_running_stats=True)\n  (conv2): Conv2d(512, 512, kernel_size=(3,\
  \ 3), stride=(1, 1), padding=(1, 1), bias=False)\n))"
: count: 10
  value: 8926.06901390076
? "(25, 25, PreActBlock(\n  (bn1): BatchNorm2d(560, eps=1e-05, momentum=0.1, affine=True,\
  \ track_running_stats=True)\n  (conv1): Conv2d(560, 560, kernel_size=(3, 3), stride=(1,\
  \ 1), padding=(1, 1), bias=False)\n  (bn2): BatchNorm2d(560, eps=1e-05, momentum=0.1,\
  \ affine=True, track_running_stats=True)\n  (conv2): Conv2d(560, 560, kernel_size=(3,\
  \ 3), stride=(1, 1), padding=(1, 1), bias=False)\n))"
: count: 10
  value: 11351.117910024259
? "(25, 25, PreActBlock(\n  (bn1): BatchNorm2d(616, eps=1e-05, momentum=0.1, affine=True,\
  \ track_running_stats=True)\n  (conv1): Conv2d(616, 616, kernel_size=(3, 3), stride=(1,\
  \ 1), padding=(1, 1), bias=False)\n  (bn2): BatchNorm2d(616, eps=1e-05, momentum=0.1,\
  \ affine=True, track_running_stats=True)\n  (conv2): Conv2d(616, 616, kernel_size=(3,\
  \ 3), stride=(1, 1), padding=(1, 1), bias=False)\n))"
: count: 10
  value: 13927.3618438118
? "(25, 25, PreActBlock(\n  (bn1): BatchNorm2d(664, eps=1e-05, momentum=0.1, affine=True,\
  \ track_running_stats=True)\n  (conv1): Conv2d(664, 664, kernel_size=(3, 3), stride=(1,\
  \ 1), padding=(1, 1), bias=False)\n  (bn2): BatchNorm2d(664, eps=1e-05, momentum=0.1,\
  \ affine=True, track_running_stats=True)\n  (conv2): Conv2d(664, 664, kernel_size=(3,\
  \ 3), stride=(1, 1), padding=(1, 1), bias=False)\n))"
: count: 10
  value: 16115.192462345123
? "(25, 25, PreActBlock(\n  (bn1): BatchNorm2d(720, eps=1e-05, momentum=0.1, affine=True,\
  \ track_running_stats=True)\n  (conv1): Conv2d(720, 720, kernel_size=(3, 3), stride=(1,\
  \ 1), padding=(1, 1), bias=False)\n  (bn2): BatchNorm2d(720, eps=1e-05, momentum=0.1,\
  \ affine=True, track_running_stats=True)\n  (conv2): Conv2d(720, 720, kernel_size=(3,\
  \ 3), stride=(1, 1), padding=(1, 1), bias=False)\n))"
: count: 10
  value: 18986.781550175474
? "(25, 25, PreActBlock(\n  (bn1): BatchNorm2d(768, eps=1e-05, momentum=0.1, affine=True,\
  \ track_running_stats=True)\n  (conv1): Conv2d(768, 768, kernel_size=(3, 3), stride=(1,\
  \ 1), padding=(1, 1), bias=False)\n  (bn2): BatchNorm2d(768, eps=1e-05, momentum=0.1,\
  \ affine=True, track_running_stats=True)\n  (conv2): Conv2d(768, 768, kernel_size=(3,\
  \ 3), stride=(1, 1), padding=(1, 1), bias=False)\n))"
: count: 10
  value: 21008.1769462265
? "(25, 25, PreActBlock(\n  (bn1): BatchNorm2d(816, eps=1e-05, momentum=0.1, affine=True,\
  \ track_running_stats=True)\n  (conv1): Conv2d(816, 816, kernel_size=(3, 3), stride=(1,\
  \ 1), padding=(1, 1), bias=False)\n  (bn2): BatchNorm2d(816, eps=1e-05, momentum=0.1,\
  \ affine=True, track_running_stats=True)\n  (conv2): Conv2d(816, 816, kernel_size=(3,\
  \ 3), stride=(1, 1), padding=(1, 1), bias=False)\n))"
: count: 10
  value: 23326.378024736023
? "(25, 25, PreActBlock(\n  (bn1): BatchNorm2d(872, eps=1e-05, momentum=0.1, affine=True,\
  \ track_running_stats=True)\n  (conv1): Conv2d(872, 872, kernel_size=(3, 3), stride=(1,\
  \ 1), padding=(1, 1), bias=False)\n  (bn2): BatchNorm2d(872, eps=1e-05, momentum=0.1,\
  \ affine=True, track_running_stats=True)\n  (conv2): Conv2d(872, 872, kernel_size=(3,\
  \ 3), stride=(1, 1), padding=(1, 1), bias=False)\n))"
: count: 10
  value: 26830.01091012345
? "(25, 25, PreActBlock(\n  (bn1): BatchNorm2d(920, eps=1e-05, momentum=0.1, affine=True,\
  \ track_running_stats=True)\n  (conv1): Conv2d(920, 920, kernel_size=(3, 3), stride=(1,\
  \ 1), padding=(1, 1), bias=False)\n  (bn2): BatchNorm2d(920, eps=1e-05, momentum=0.1,\
  \ affine=True, track_running_stats=True)\n  (conv2): Conv2d(920, 920, kernel_size=(3,\
  \ 3), stride=(1, 1), padding=(1, 1), bias=False)\n))"
: count: 10
  value: 33953.5584586235
? "(25, 25, PreActBlock(\n  (bn1): BatchNorm2d(976, eps=1e-05, momentum=0.1, affine=True,\
  \ track_running_stats=True)\n  (conv1): Conv2d(976, 976, kernel_size=(3, 3), stride=(1,\
  \ 1), padding=(1, 1), bias=False)\n  (bn2): BatchNorm2d(976, eps=1e-05, momentum=0.1,\
  \ affine=True, track_running_stats=True)\n  (conv2): Conv2d(976, 976, kernel_size=(3,\
  \ 3), stride=(1, 1), padding=(1, 1), bias=False)\n))"
: count: 10
  value: 33182.05511068039
? "(51, 25, PreActBlock(\n  (bn1): BatchNorm2d(1000, eps=1e-05, momentum=0.1, affine=True,\
  \ track_running_stats=True)\n  (conv1): Conv2d(1000, 2000, kernel_size=(3, 3), stride=(2,\
  \ 2), padding=(1, 1), bias=False)\n  (bn2): BatchNorm2d(2000, eps=1e-05, momentum=0.1,\
  \ affine=True, track_running_stats=True)\n  (conv2): Conv2d(2000, 2000, kernel_size=(3,\
  \ 3), stride=(1, 1), padding=(1, 1), bias=False)\n  (shortcut): Sequential(\n  \
  \  (0): Conv2d(1000, 2000, kernel_size=(1, 1), stride=(2, 2), bias=False)\n  )\n\
  ))"
: count: 10
  value: 99300.31652689437
? "(51, 25, PreActBlock(\n  (bn1): BatchNorm2d(1024, eps=1e-05, momentum=0.1, affine=True,\
  \ track_running_stats=True)\n  (conv1): Conv2d(1024, 2048, kernel_size=(3, 3), stride=(2,\
  \ 2), padding=(1, 1), bias=False)\n  (bn2): BatchNorm2d(2048, eps=1e-05, momentum=0.1,\
  \ affine=True, track_running_stats=True)\n  (conv2): Conv2d(2048, 2048, kernel_size=(3,\
  \ 3), stride=(1, 1), padding=(1, 1), bias=False)\n  (shortcut): Sequential(\n  \
  \  (0): Conv2d(1024, 2048, kernel_size=(1, 1), stride=(2, 2), bias=False)\n  )\n\
  ))"
: count: 10
  value: 101595.0922582344
? "(51, 25, PreActBlock(\n  (bn1): BatchNorm2d(1048, eps=1e-05, momentum=0.1, affine=True,\
  \ track_running_stats=True)\n  (conv1): Conv2d(1048, 2096, kernel_size=(3, 3), stride=(2,\
  \ 2), padding=(1, 1), bias=False)\n  (bn2): BatchNorm2d(2096, eps=1e-05, momentum=0.1,\
  \ affine=True, track_running_stats=True)\n  (conv2): Conv2d(2096, 2096, kernel_size=(3,\
  \ 3), stride=(1, 1), padding=(1, 1), bias=False)\n  (shortcut): Sequential(\n  \
  \  (0): Conv2d(1048, 2096, kernel_size=(1, 1), stride=(2, 2), bias=False)\n  )\n\
  ))"
: count: 10
  value: 109960.34811336442
? "(51, 25, PreActBlock(\n  (bn1): BatchNorm2d(1072, eps=1e-05, momentum=0.1, affine=True,\
  \ track_running_stats=True)\n  (conv1): Conv2d(1072, 2152, kernel_size=(3, 3), stride=(2,\
  \ 2), padding=(1, 1), bias=False)\n  (bn2): BatchNorm2d(2152, eps=1e-05, momentum=0.1,\
  \ affine=True, track_running_stats=True)\n  (conv2): Conv2d(2152, 2152, kernel_size=(3,\
  \ 3), stride=(1, 1), padding=(1, 1), bias=False)\n  (shortcut): Sequential(\n  \
  \  (0): Conv2d(1072, 2152, kernel_size=(1, 1), stride=(2, 2), bias=False)\n  )\n\
  ))"
: count: 10
  value: 117176.90469034654
? "(51, 25, PreActBlock(\n  (bn1): BatchNorm2d(1104, eps=1e-05, momentum=0.1, affine=True,\
  \ track_running_stats=True)\n  (conv1): Conv2d(1104, 2200, kernel_size=(3, 3), stride=(2,\
  \ 2), padding=(1, 1), bias=False)\n  (bn2): BatchNorm2d(2200, eps=1e-05, momentum=0.1,\
  \ affine=True, track_running_stats=True)\n  (conv2): Conv2d(2200, 2200, kernel_size=(3,\
  \ 3), stride=(1, 1), padding=(1, 1), bias=False)\n  (shortcut): Sequential(\n  \
  \  (0): Conv2d(1104, 2200, kernel_size=(1, 1), stride=(2, 2), bias=False)\n  )\n\
  ))"
: count: 10
  value: 125461.86481505811
? "(51, 25, PreActBlock(\n  (bn1): BatchNorm2d(1128, eps=1e-05, momentum=0.1, affine=True,\
  \ track_running_stats=True)\n  (conv1): Conv2d(1128, 2256, kernel_size=(3, 3), stride=(2,\
  \ 2), padding=(1, 1), bias=False)\n  (bn2): BatchNorm2d(2256, eps=1e-05, momentum=0.1,\
  \ affine=True, track_running_stats=True)\n  (conv2): Conv2d(2256, 2256, kernel_size=(3,\
  \ 3), stride=(1, 1), padding=(1, 1), bias=False)\n  (shortcut): Sequential(\n  \
  \  (0): Conv2d(1128, 2256, kernel_size=(1, 1), stride=(2, 2), bias=False)\n  )\n\
  ))"
: count: 10
  value: 127824.56781390458
? "(51, 25, PreActBlock(\n  (bn1): BatchNorm2d(1152, eps=1e-05, momentum=0.1, affine=True,\
  \ track_running_stats=True)\n  (conv1): Conv2d(1152, 2304, kernel_size=(3, 3), stride=(2,\
  \ 2), padding=(1, 1), bias=False)\n  (bn2): BatchNorm2d(2304, eps=1e-05, momentum=0.1,\
  \ affine=True, track_running_stats=True)\n  (conv2): Conv2d(2304, 2304, kernel_size=(3,\
  \ 3), stride=(1, 1), padding=(1, 1), bias=False)\n  (shortcut): Sequential(\n  \
  \  (0): Conv2d(1152, 2304, kernel_size=(1, 1), stride=(2, 2), bias=False)\n  )\n\
  ))"
: count: 10
  value: 132819.6018335335
? "(51, 25, PreActBlock(\n  (bn1): BatchNorm2d(1176, eps=1e-05, momentum=0.1, affine=True,\
  \ track_running_stats=True)\n  (conv1): Conv2d(1176, 2352, kernel_size=(3, 3), stride=(2,\
  \ 2), padding=(1, 1), bias=False)\n  (bn2): BatchNorm2d(2352, eps=1e-05, momentum=0.1,\
  \ affine=True, track_running_stats=True)\n  (conv2): Conv2d(2352, 2352, kernel_size=(3,\
  \ 3), stride=(1, 1), padding=(1, 1), bias=False)\n  (shortcut): Sequential(\n  \
  \  (0): Conv2d(1176, 2352, kernel_size=(1, 1), stride=(2, 2), bias=False)\n  )\n\
  ))"
: count: 10
  value: 136308.5281009285
? "(51, 25, PreActBlock(\n  (bn1): BatchNorm2d(1200, eps=1e-05, momentum=0.1, affine=True,\
  \ track_running_stats=True)\n  (conv1): Conv2d(1200, 2408, kernel_size=(3, 3), stride=(2,\
  \ 2), padding=(1, 1), bias=False)\n  (bn2): BatchNorm2d(2408, eps=1e-05, momentum=0.1,\
  \ affine=True, track_running_stats=True)\n  (conv2): Conv2d(2408, 2408, kernel_size=(3,\
  \ 3), stride=(1, 1), padding=(1, 1), bias=False)\n  (shortcut): Sequential(\n  \
  \  (0): Conv2d(1200, 2408, kernel_size=(1, 1), stride=(2, 2), bias=False)\n  )\n\
  ))"
: count: 10
  value: 144228.31768240203
? "(51, 25, PreActBlock(\n  (bn1): BatchNorm2d(1232, eps=1e-05, momentum=0.1, affine=True,\
  \ track_running_stats=True)\n  (conv1): Conv2d(1232, 2456, kernel_size=(3, 3), stride=(2,\
  \ 2), padding=(1, 1), bias=False)\n  (bn2): BatchNorm2d(2456, eps=1e-05, momentum=0.1,\
  \ affine=True, track_running_stats=True)\n  (conv2): Conv2d(2456, 2456, kernel_size=(3,\
  \ 3), stride=(1, 1), padding=(1, 1), bias=False)\n  (shortcut): Sequential(\n  \
  \  (0): Conv2d(1232, 2456, kernel_size=(1, 1), stride=(2, 2), bias=False)\n  )\n\
  ))"
: count: 10
  value: 153044.84114493028
? "(51, 25, PreActBlock(\n  (bn1): BatchNorm2d(1256, eps=1e-05, momentum=0.1, affine=True,\
  \ track_running_stats=True)\n  (conv1): Conv2d(1256, 2512, kernel_size=(3, 3), stride=(2,\
  \ 2), padding=(1, 1), bias=False)\n  (bn2): BatchNorm2d(2512, eps=1e-05, momentum=0.1,\
  \ affine=True, track_running_stats=True)\n  (conv2): Conv2d(2512, 2512, kernel_size=(3,\
  \ 3), stride=(1, 1), padding=(1, 1), bias=False)\n  (shortcut): Sequential(\n  \
  \  (0): Conv2d(1256, 2512, kernel_size=(1, 1), stride=(2, 2), bias=False)\n  )\n\
  ))"
: count: 10
  value: 153183.77551244275
? "(51, 25, PreActBlock(\n  (bn1): BatchNorm2d(1280, eps=1e-05, momentum=0.1, affine=True,\
  \ track_running_stats=True)\n  (conv1): Conv2d(1280, 2560, kernel_size=(3, 3), stride=(2,\
  \ 2), padding=(1, 1), bias=False)\n  (bn2): BatchNorm2d(2560, eps=1e-05, momentum=0.1,\
  \ affine=True, track_running_stats=True)\n  (conv2): Conv2d(2560, 2560, kernel_size=(3,\
  \ 3), stride=(1, 1), padding=(1, 1), bias=False)\n  (shortcut): Sequential(\n  \
  \  (0): Conv2d(1280, 2560, kernel_size=(1, 1), stride=(2, 2), bias=False)\n  )\n\
  ))"
: count: 10
  value: 156648.3529013588
? "(51, 25, PreActBlock(\n  (bn1): BatchNorm2d(256, eps=1e-05, momentum=0.1, affine=True,\
  \ track_running_stats=True)\n  (conv1): Conv2d(256, 512, kernel_size=(3, 3), stride=(2,\
  \ 2), padding=(1, 1), bias=False)\n  (bn2): BatchNorm2d(512, eps=1e-05, momentum=0.1,\
  \ affine=True, track_running_stats=True)\n  (conv2): Conv2d(512, 512, kernel_size=(3,\
  \ 3), stride=(1, 1), padding=(1, 1), bias=False)\n  (shortcut): Sequential(\n  \
  \  (0): Conv2d(256, 512, kernel_size=(1, 1), stride=(2, 2), bias=False)\n  )\n))"
: count: 10
  value: 8172.850271844484
? "(51, 25, PreActBlock(\n  (bn1): BatchNorm2d(280, eps=1e-05, momentum=0.1, affine=True,\
  \ track_running_stats=True)\n  (conv1): Conv2d(280, 560, kernel_size=(3, 3), stride=(2,\
  \ 2), padding=(1, 1), bias=False)\n  (bn2): BatchNorm2d(560, eps=1e-05, momentum=0.1,\
  \ affine=True, track_running_stats=True)\n  (conv2): Conv2d(560, 560, kernel_size=(3,\
  \ 3), stride=(1, 1), padding=(1, 1), bias=False)\n  (shortcut): Sequential(\n  \
  \  (0): Conv2d(280, 560, kernel_size=(1, 1), stride=(2, 2), bias=False)\n  )\n))"
: count: 10
  value: 10249.211957429505
? "(51, 25, PreActBlock(\n  (bn1): BatchNorm2d(304, eps=1e-05, momentum=0.1, affine=True,\
  \ track_running_stats=True)\n  (conv1): Conv2d(304, 616, kernel_size=(3, 3), stride=(2,\
  \ 2), padding=(1, 1), bias=False)\n  (bn2): BatchNorm2d(616, eps=1e-05, momentum=0.1,\
  \ affine=True, track_running_stats=True)\n  (conv2): Conv2d(616, 616, kernel_size=(3,\
  \ 3), stride=(1, 1), padding=(1, 1), bias=False)\n  (shortcut): Sequential(\n  \
  \  (0): Conv2d(304, 616, kernel_size=(1, 1), stride=(2, 2), bias=False)\n  )\n))"
: count: 10
  value: 11874.97759436493
? "(51, 25, PreActBlock(\n  (bn1): BatchNorm2d(336, eps=1e-05, momentum=0.1, affine=True,\
  \ track_running_stats=True)\n  (conv1): Conv2d(336, 664, kernel_size=(3, 3), stride=(2,\
  \ 2), padding=(1, 1), bias=False)\n  (bn2): BatchNorm2d(664, eps=1e-05, momentum=0.1,\
  \ affine=True, track_running_stats=True)\n  (conv2): Conv2d(664, 664, kernel_size=(3,\
  \ 3), stride=(1, 1), padding=(1, 1), bias=False)\n  (shortcut): Sequential(\n  \
  \  (0): Conv2d(336, 664, kernel_size=(1, 1), stride=(2, 2), bias=False)\n  )\n))"
: count: 10
  value: 13470.125342370604
? "(51, 25, PreActBlock(\n  (bn1): BatchNorm2d(360, eps=1e-05, momentum=0.1, affine=True,\
  \ track_running_stats=True)\n  (conv1): Conv2d(360, 720, kernel_size=(3, 3), stride=(2,\
  \ 2), padding=(1, 1), bias=False)\n  (bn2): BatchNorm2d(720, eps=1e-05, momentum=0.1,\
  \ affine=True, track_running_stats=True)\n  (conv2): Conv2d(720, 720, kernel_size=(3,\
  \ 3), stride=(1, 1), padding=(1, 1), bias=False)\n  (shortcut): Sequential(\n  \
  \  (0): Conv2d(360, 720, kernel_size=(1, 1), stride=(2, 2), bias=False)\n  )\n))"
: count: 10
  value: 15112.12949058075
? "(51, 25, PreActBlock(\n  (bn1): BatchNorm2d(384, eps=1e-05, momentum=0.1, affine=True,\
  \ track_running_stats=True)\n  (conv1): Conv2d(384, 768, kernel_size=(3, 3), stride=(2,\
  \ 2), padding=(1, 1), bias=False)\n  (bn2): BatchNorm2d(768, eps=1e-05, momentum=0.1,\
  \ affine=True, track_running_stats=True)\n  (conv2): Conv2d(768, 768, kernel_size=(3,\
  \ 3), stride=(1, 1), padding=(1, 1), bias=False)\n  (shortcut): Sequential(\n  \
  \  (0): Conv2d(384, 768, kernel_size=(1, 1), stride=(2, 2), bias=False)\n  )\n))"
: count: 10
  value: 16461.000971685793
? "(51, 25, PreActBlock(\n  (bn1): BatchNorm2d(408, eps=1e-05, momentum=0.1, affine=True,\
  \ track_running_stats=True)\n  (conv1): Conv2d(408, 816, kernel_size=(3, 3), stride=(2,\
  \ 2), padding=(1, 1), bias=False)\n  (bn2): BatchNorm2d(816, eps=1e-05, momentum=0.1,\
  \ affine=True, track_running_stats=True)\n  (conv2): Conv2d(816, 816, kernel_size=(3,\
  \ 3), stride=(1, 1), padding=(1, 1), bias=False)\n  (shortcut): Sequential(\n  \
  \  (0): Conv2d(408, 816, kernel_size=(1, 1), stride=(2, 2), bias=False)\n  )\n))"
: count: 10
  value: 19395.40647242203
? "(51, 25, PreActBlock(\n  (bn1): BatchNorm2d(432, eps=1e-05, momentum=0.1, affine=True,\
  \ track_running_stats=True)\n  (conv1): Conv2d(432, 872, kernel_size=(3, 3), stride=(2,\
  \ 2), padding=(1, 1), bias=False)\n  (bn2): BatchNorm2d(872, eps=1e-05, momentum=0.1,\
  \ affine=True, track_running_stats=True)\n  (conv2): Conv2d(872, 872, kernel_size=(3,\
  \ 3), stride=(1, 1), padding=(1, 1), bias=False)\n  (shortcut): Sequential(\n  \
  \  (0): Conv2d(432, 872, kernel_size=(1, 1), stride=(2, 2), bias=False)\n  )\n))"
: count: 10
  value: 24814.27543711701
? "(51, 25, PreActBlock(\n  (bn1): BatchNorm2d(464, eps=1e-05, momentum=0.1, affine=True,\
  \ track_running_stats=True)\n  (conv1): Conv2d(464, 920, kernel_size=(3, 3), stride=(2,\
  \ 2), padding=(1, 1), bias=False)\n  (bn2): BatchNorm2d(920, eps=1e-05, momentum=0.1,\
  \ affine=True, track_running_stats=True)\n  (conv2): Conv2d(920, 920, kernel_size=(3,\
  \ 3), stride=(1, 1), padding=(1, 1), bias=False)\n  (shortcut): Sequential(\n  \
  \  (0): Conv2d(464, 920, kernel_size=(1, 1), stride=(2, 2), bias=False)\n  )\n))"
: count: 10
  value: 24353.430071249393
? "(51, 25, PreActBlock(\n  (bn1): BatchNorm2d(488, eps=1e-05, momentum=0.1, affine=True,\
  \ track_running_stats=True)\n  (conv1): Conv2d(488, 976, kernel_size=(3, 3), stride=(2,\
  \ 2), padding=(1, 1), bias=False)\n  (bn2): BatchNorm2d(976, eps=1e-05, momentum=0.1,\
  \ affine=True, track_running_stats=True)\n  (conv2): Conv2d(976, 976, kernel_size=(3,\
  \ 3), stride=(1, 1), padding=(1, 1), bias=False)\n  (shortcut): Sequential(\n  \
  \  (0): Conv2d(488, 976, kernel_size=(1, 1), stride=(2, 2), bias=False)\n  )\n))"
: count: 10
  value: 26649.22079732361
? "(51, 25, PreActBlock(\n  (bn1): BatchNorm2d(512, eps=1e-05, momentum=0.1, affine=True,\
  \ track_running_stats=True)\n  (conv1): Conv2d(512, 1024, kernel_size=(3, 3), stride=(2,\
  \ 2), padding=(1, 1), bias=False)\n  (bn2): BatchNorm2d(1024, eps=1e-05, momentum=0.1,\
  \ affine=True, track_running_stats=True)\n  (conv2): Conv2d(1024, 1024, kernel_size=(3,\
  \ 3), stride=(1, 1), padding=(1, 1), bias=False)\n  (shortcut): Sequential(\n  \
  \  (0): Conv2d(512, 1024, kernel_size=(1, 1), stride=(2, 2), bias=False)\n  )\n\
  ))"
: count: 10
  value: 28049.962563320918
? "(51, 25, PreActBlock(\n  (bn1): BatchNorm2d(536, eps=1e-05, momentum=0.1, affine=True,\
  \ track_running_stats=True)\n  (conv1): Conv2d(536, 1072, kernel_size=(3, 3), stride=(2,\
  \ 2), padding=(1, 1), bias=False)\n  (bn2): BatchNorm2d(1072, eps=1e-05, momentum=0.1,\
  \ affine=True, track_running_stats=True)\n  (conv2): Conv2d(1072, 1072, kernel_size=(3,\
  \ 3), stride=(1, 1), padding=(1, 1), bias=False)\n  (shortcut): Sequential(\n  \
  \  (0): Conv2d(536, 1072, kernel_size=(1, 1), stride=(2, 2), bias=False)\n  )\n\
  ))"
: count: 10
  value: 30813.267753366854
? "(51, 25, PreActBlock(\n  (bn1): BatchNorm2d(560, eps=1e-05, momentum=0.1, affine=True,\
  \ track_running_stats=True)\n  (conv1): Conv2d(560, 1128, kernel_size=(3, 3), stride=(2,\
  \ 2), padding=(1, 1), bias=False)\n  (bn2): BatchNorm2d(1128, eps=1e-05, momentum=0.1,\
  \ affine=True, track_running_stats=True)\n  (conv2): Conv2d(1128, 1128, kernel_size=(3,\
  \ 3), stride=(1, 1), padding=(1, 1), bias=False)\n  (shortcut): Sequential(\n  \
  \  (0): Conv2d(560, 1128, kernel_size=(1, 1), stride=(2, 2), bias=False)\n  )\n\
  ))"
: count: 10
  value: 38075.642048120106
? "(51, 25, PreActBlock(\n  (bn1): BatchNorm2d(592, eps=1e-05, momentum=0.1, affine=True,\
  \ track_running_stats=True)\n  (conv1): Conv2d(592, 1176, kernel_size=(3, 3), stride=(2,\
  \ 2), padding=(1, 1), bias=False)\n  (bn2): BatchNorm2d(1176, eps=1e-05, momentum=0.1,\
  \ affine=True, track_running_stats=True)\n  (conv2): Conv2d(1176, 1176, kernel_size=(3,\
  \ 3), stride=(1, 1), padding=(1, 1), bias=False)\n  (shortcut): Sequential(\n  \
  \  (0): Conv2d(592, 1176, kernel_size=(1, 1), stride=(2, 2), bias=False)\n  )\n\
  ))"
: count: 10
  value: 35499.903512255856
? "(51, 25, PreActBlock(\n  (bn1): BatchNorm2d(616, eps=1e-05, momentum=0.1, affine=True,\
  \ track_running_stats=True)\n  (conv1): Conv2d(616, 1232, kernel_size=(3, 3), stride=(2,\
  \ 2), padding=(1, 1), bias=False)\n  (bn2): BatchNorm2d(1232, eps=1e-05, momentum=0.1,\
  \ affine=True, track_running_stats=True)\n  (conv2): Conv2d(1232, 1232, kernel_size=(3,\
  \ 3), stride=(1, 1), padding=(1, 1), bias=False)\n  (shortcut): Sequential(\n  \
  \  (0): Conv2d(616, 1232, kernel_size=(1, 1), stride=(2, 2), bias=False)\n  )\n\
  ))"
: count: 10
  value: 38644.64661011505
? "(51, 25, PreActBlock(\n  (bn1): BatchNorm2d(640, eps=1e-05, momentum=0.1, affine=True,\
  \ track_running_stats=True)\n  (conv1): Conv2d(640, 1280, kernel_size=(3, 3), stride=(2,\
  \ 2), padding=(1, 1), bias=False)\n  (bn2): BatchNorm2d(1280, eps=1e-05, momentum=0.1,\
  \ affine=True, track_running_stats=True)\n  (conv2): Conv2d(1280, 1280, kernel_size=(3,\
  \ 3), stride=(1, 1), padding=(1, 1), bias=False)\n  (shortcut): Sequential(\n  \
  \  (0): Conv2d(640, 1280, kernel_size=(1, 1), stride=(2, 2), bias=False)\n  )\n\
  ))"
: count: 10
  value: 40072.23871409607
? "(51, 25, PreActBlock(\n  (bn1): BatchNorm2d(664, eps=1e-05, momentum=0.1, affine=True,\
  \ track_running_stats=True)\n  (conv1): Conv2d(664, 1328, kernel_size=(3, 3), stride=(2,\
  \ 2), padding=(1, 1), bias=False)\n  (bn2): BatchNorm2d(1328, eps=1e-05, momentum=0.1,\
  \ affine=True, track_running_stats=True)\n  (conv2): Conv2d(1328, 1328, kernel_size=(3,\
  \ 3), stride=(1, 1), padding=(1, 1), bias=False)\n  (shortcut): Sequential(\n  \
  \  (0): Conv2d(664, 1328, kernel_size=(1, 1), stride=(2, 2), bias=False)\n  )\n\
  ))"
: count: 10
  value: 46902.8754783371
? "(51, 25, PreActBlock(\n  (bn1): BatchNorm2d(688, eps=1e-05, momentum=0.1, affine=True,\
  \ track_running_stats=True)\n  (conv1): Conv2d(688, 1384, kernel_size=(3, 3), stride=(2,\
  \ 2), padding=(1, 1), bias=False)\n  (bn2): BatchNorm2d(1384, eps=1e-05, momentum=0.1,\
  \ affine=True, track_running_stats=True)\n  (conv2): Conv2d(1384, 1384, kernel_size=(3,\
  \ 3), stride=(1, 1), padding=(1, 1), bias=False)\n  (shortcut): Sequential(\n  \
  \  (0): Conv2d(688, 1384, kernel_size=(1, 1), stride=(2, 2), bias=False)\n  )\n\
  ))"
: count: 10
  value: 49547.57076701432
? "(51, 25, PreActBlock(\n  (bn1): BatchNorm2d(720, eps=1e-05, momentum=0.1, affine=True,\
  \ track_running_stats=True)\n  (conv1): Conv2d(720, 1432, kernel_size=(3, 3), stride=(2,\
  \ 2), padding=(1, 1), bias=False)\n  (bn2): BatchNorm2d(1432, eps=1e-05, momentum=0.1,\
  \ affine=True, track_running_stats=True)\n  (conv2): Conv2d(1432, 1432, kernel_size=(3,\
  \ 3), stride=(1, 1), padding=(1, 1), bias=False)\n  (shortcut): Sequential(\n  \
  \  (0): Conv2d(720, 1432, kernel_size=(1, 1), stride=(2, 2), bias=False)\n  )\n\
  ))"
: count: 10
  value: 53062.78812052156
? "(51, 25, PreActBlock(\n  (bn1): BatchNorm2d(744, eps=1e-05, momentum=0.1, affine=True,\
  \ track_running_stats=True)\n  (conv1): Conv2d(744, 1488, kernel_size=(3, 3), stride=(2,\
  \ 2), padding=(1, 1), bias=False)\n  (bn2): BatchNorm2d(1488, eps=1e-05, momentum=0.1,\
  \ affine=True, track_running_stats=True)\n  (conv2): Conv2d(1488, 1488, kernel_size=(3,\
  \ 3), stride=(1, 1), padding=(1, 1), bias=False)\n  (shortcut): Sequential(\n  \
  \  (0): Conv2d(744, 1488, kernel_size=(1, 1), stride=(2, 2), bias=False)\n  )\n\
  ))"
: count: 10
  value: 56648.736762046814
? "(51, 25, PreActBlock(\n  (bn1): BatchNorm2d(768, eps=1e-05, momentum=0.1, affine=True,\
  \ track_running_stats=True)\n  (conv1): Conv2d(768, 1536, kernel_size=(3, 3), stride=(2,\
  \ 2), padding=(1, 1), bias=False)\n  (bn2): BatchNorm2d(1536, eps=1e-05, momentum=0.1,\
  \ affine=True, track_running_stats=True)\n  (conv2): Conv2d(1536, 1536, kernel_size=(3,\
  \ 3), stride=(1, 1), padding=(1, 1), bias=False)\n  (shortcut): Sequential(\n  \
  \  (0): Conv2d(768, 1536, kernel_size=(1, 1), stride=(2, 2), bias=False)\n  )\n\
  ))"
: count: 10
  value: 64291.53507858429
? "(51, 25, PreActBlock(\n  (bn1): BatchNorm2d(792, eps=1e-05, momentum=0.1, affine=True,\
  \ track_running_stats=True)\n  (conv1): Conv2d(792, 1584, kernel_size=(3, 3), stride=(2,\
  \ 2), padding=(1, 1), bias=False)\n  (bn2): BatchNorm2d(1584, eps=1e-05, momentum=0.1,\
  \ affine=True, track_running_stats=True)\n  (conv2): Conv2d(1584, 1584, kernel_size=(3,\
  \ 3), stride=(1, 1), padding=(1, 1), bias=False)\n  (shortcut): Sequential(\n  \
  \  (0): Conv2d(792, 1584, kernel_size=(1, 1), stride=(2, 2), bias=False)\n  )\n\
  ))"
: count: 10
  value: 62059.85079070969
? "(51, 25, PreActBlock(\n  (bn1): BatchNorm2d(816, eps=1e-05, momentum=0.1, affine=True,\
  \ track_running_stats=True)\n  (conv1): Conv2d(816, 1640, kernel_size=(3, 3), stride=(2,\
  \ 2), padding=(1, 1), bias=False)\n  (bn2): BatchNorm2d(1640, eps=1e-05, momentum=0.1,\
  \ affine=True, track_running_stats=True)\n  (conv2): Conv2d(1640, 1640, kernel_size=(3,\
  \ 3), stride=(1, 1), padding=(1, 1), bias=False)\n  (shortcut): Sequential(\n  \
  \  (0): Conv2d(816, 1640, kernel_size=(1, 1), stride=(2, 2), bias=False)\n  )\n\
  ))"
: count: 10
  value: 65564.89909936828
? "(51, 25, PreActBlock(\n  (bn1): BatchNorm2d(848, eps=1e-05, momentum=0.1, affine=True,\
  \ track_running_stats=True)\n  (conv1): Conv2d(848, 1688, kernel_size=(3, 3), stride=(2,\
  \ 2), padding=(1, 1), bias=False)\n  (bn2): BatchNorm2d(1688, eps=1e-05, momentum=0.1,\
  \ affine=True, track_running_stats=True)\n  (conv2): Conv2d(1688, 1688, kernel_size=(3,\
  \ 3), stride=(1, 1), padding=(1, 1), bias=False)\n  (shortcut): Sequential(\n  \
  \  (0): Conv2d(848, 1688, kernel_size=(1, 1), stride=(2, 2), bias=False)\n  )\n\
  ))"
: count: 10
  value: 73547.33328382188
? "(51, 25, PreActBlock(\n  (bn1): BatchNorm2d(872, eps=1e-05, momentum=0.1, affine=True,\
  \ track_running_stats=True)\n  (conv1): Conv2d(872, 1744, kernel_size=(3, 3), stride=(2,\
  \ 2), padding=(1, 1), bias=False)\n  (bn2): BatchNorm2d(1744, eps=1e-05, momentum=0.1,\
  \ affine=True, track_running_stats=True)\n  (conv2): Conv2d(1744, 1744, kernel_size=(3,\
  \ 3), stride=(1, 1), padding=(1, 1), bias=False)\n  (shortcut): Sequential(\n  \
  \  (0): Conv2d(872, 1744, kernel_size=(1, 1), stride=(2, 2), bias=False)\n  )\n\
  ))"
: count: 10
  value: 76797.53450894011
? "(51, 25, PreActBlock(\n  (bn1): BatchNorm2d(896, eps=1e-05, momentum=0.1, affine=True,\
  \ track_running_stats=True)\n  (conv1): Conv2d(896, 1792, kernel_size=(3, 3), stride=(2,\
  \ 2), padding=(1, 1), bias=False)\n  (bn2): BatchNorm2d(1792, eps=1e-05, momentum=0.1,\
  \ affine=True, track_running_stats=True)\n  (conv2): Conv2d(1792, 1792, kernel_size=(3,\
  \ 3), stride=(1, 1), padding=(1, 1), bias=False)\n  (shortcut): Sequential(\n  \
  \  (0): Conv2d(896, 1792, kernel_size=(1, 1), stride=(2, 2), bias=False)\n  )\n\
  ))"
: count: 10
  value: 85099.51483068391
? "(51, 25, PreActBlock(\n  (bn1): BatchNorm2d(920, eps=1e-05, momentum=0.1, affine=True,\
  \ track_running_stats=True)\n  (conv1): Conv2d(920, 1840, kernel_size=(3, 3), stride=(2,\
  \ 2), padding=(1, 1), bias=False)\n  (bn2): BatchNorm2d(1840, eps=1e-05, momentum=0.1,\
  \ affine=True, track_running_stats=True)\n  (conv2): Conv2d(1840, 1840, kernel_size=(3,\
  \ 3), stride=(1, 1), padding=(1, 1), bias=False)\n  (shortcut): Sequential(\n  \
  \  (0): Conv2d(920, 1840, kernel_size=(1, 1), stride=(2, 2), bias=False)\n  )\n\
  ))"
: count: 10
  value: 86890.02758893052
? "(51, 25, PreActBlock(\n  (bn1): BatchNorm2d(944, eps=1e-05, momentum=0.1, affine=True,\
  \ track_running_stats=True)\n  (conv1): Conv2d(944, 1896, kernel_size=(3, 3), stride=(2,\
  \ 2), padding=(1, 1), bias=False)\n  (bn2): BatchNorm2d(1896, eps=1e-05, momentum=0.1,\
  \ affine=True, track_running_stats=True)\n  (conv2): Conv2d(1896, 1896, kernel_size=(3,\
  \ 3), stride=(1, 1), padding=(1, 1), bias=False)\n  (shortcut): Sequential(\n  \
  \  (0): Conv2d(944, 1896, kernel_size=(1, 1), stride=(2, 2), bias=False)\n  )\n\
  ))"
: count: 10
  value: 90398.30783519284
? "(51, 25, PreActBlock(\n  (bn1): BatchNorm2d(976, eps=1e-05, momentum=0.1, affine=True,\
  \ track_running_stats=True)\n  (conv1): Conv2d(976, 1944, kernel_size=(3, 3), stride=(2,\
  \ 2), padding=(1, 1), bias=False)\n  (bn2): BatchNorm2d(1944, eps=1e-05, momentum=0.1,\
  \ affine=True, track_running_stats=True)\n  (conv2): Conv2d(1944, 1944, kernel_size=(3,\
  \ 3), stride=(1, 1), padding=(1, 1), bias=False)\n  (shortcut): Sequential(\n  \
  \  (0): Conv2d(976, 1944, kernel_size=(1, 1), stride=(2, 2), bias=False)\n  )\n\
  ))"
: count: 10
  value: 95301.4503154007
? "(51, 51, PreActBlock(\n  (bn1): BatchNorm2d(1000, eps=1e-05, momentum=0.1, affine=True,\
  \ track_running_stats=True)\n  (conv1): Conv2d(1000, 1000, kernel_size=(3, 3), stride=(1,\
  \ 1), padding=(1, 1), bias=False)\n  (bn2): BatchNorm2d(1000, eps=1e-05, momentum=0.1,\
  \ affine=True, track_running_stats=True)\n  (conv2): Conv2d(1000, 1000, kernel_size=(3,\
  \ 3), stride=(1, 1), padding=(1, 1), bias=False)\n))"
: count: 10
  value: 102317.40187144317
? "(51, 51, PreActBlock(\n  (bn1): BatchNorm2d(1024, eps=1e-05, momentum=0.1, affine=True,\
  \ track_running_stats=True)\n  (conv1): Conv2d(1024, 1024, kernel_size=(3, 3), stride=(1,\
  \ 1), padding=(1, 1), bias=False)\n  (bn2): BatchNorm2d(1024, eps=1e-05, momentum=0.1,\
  \ affine=True, track_running_stats=True)\n  (conv2): Conv2d(1024, 1024, kernel_size=(3,\
  \ 3), stride=(1, 1), padding=(1, 1), bias=False)\n))"
: count: 10
  value: 105094.564329438
? "(51, 51, PreActBlock(\n  (bn1): BatchNorm2d(1048, eps=1e-05, momentum=0.1, affine=True,\
  \ track_running_stats=True)\n  (conv1): Conv2d(1048, 1048, kernel_size=(3, 3), stride=(1,\
  \ 1), padding=(1, 1), bias=False)\n  (bn2): BatchNorm2d(1048, eps=1e-05, momentum=0.1,\
  \ affine=True, track_running_stats=True)\n  (conv2): Conv2d(1048, 1048, kernel_size=(3,\
  \ 3), stride=(1, 1), padding=(1, 1), bias=False)\n))"
: count: 10
  value: 113537.61816888275
? "(51, 51, PreActBlock(\n  (bn1): BatchNorm2d(1072, eps=1e-05, momentum=0.1, affine=True,\
  \ track_running_stats=True)\n  (conv1): Conv2d(1072, 1072, kernel_size=(3, 3), stride=(1,\
  \ 1), padding=(1, 1), bias=False)\n  (bn2): BatchNorm2d(1072, eps=1e-05, momentum=0.1,\
  \ affine=True, track_running_stats=True)\n  (conv2): Conv2d(1072, 1072, kernel_size=(3,\
  \ 3), stride=(1, 1), padding=(1, 1), bias=False)\n))"
: count: 10
  value: 122543.66727975539
? "(51, 51, PreActBlock(\n  (bn1): BatchNorm2d(1104, eps=1e-05, momentum=0.1, affine=True,\
  \ track_running_stats=True)\n  (conv1): Conv2d(1104, 1104, kernel_size=(3, 3), stride=(1,\
  \ 1), padding=(1, 1), bias=False)\n  (bn2): BatchNorm2d(1104, eps=1e-05, momentum=0.1,\
  \ affine=True, track_running_stats=True)\n  (conv2): Conv2d(1104, 1104, kernel_size=(3,\
  \ 3), stride=(1, 1), padding=(1, 1), bias=False)\n))"
: count: 10
  value: 126246.39261434786
? "(51, 51, PreActBlock(\n  (bn1): BatchNorm2d(1128, eps=1e-05, momentum=0.1, affine=True,\
  \ track_running_stats=True)\n  (conv1): Conv2d(1128, 1128, kernel_size=(3, 3), stride=(1,\
  \ 1), padding=(1, 1), bias=False)\n  (bn2): BatchNorm2d(1128, eps=1e-05, momentum=0.1,\
  \ affine=True, track_running_stats=True)\n  (conv2): Conv2d(1128, 1128, kernel_size=(3,\
  \ 3), stride=(1, 1), padding=(1, 1), bias=False)\n))"
: count: 10
  value: 133243.04411410293
? "(51, 51, PreActBlock(\n  (bn1): BatchNorm2d(1152, eps=1e-05, momentum=0.1, affine=True,\
  \ track_running_stats=True)\n  (conv1): Conv2d(1152, 1152, kernel_size=(3, 3), stride=(1,\
  \ 1), padding=(1, 1), bias=False)\n  (bn2): BatchNorm2d(1152, eps=1e-05, momentum=0.1,\
  \ affine=True, track_running_stats=True)\n  (conv2): Conv2d(1152, 1152, kernel_size=(3,\
  \ 3), stride=(1, 1), padding=(1, 1), bias=False)\n))"
: count: 10
  value: 135592.4802960144
? "(51, 51, PreActBlock(\n  (bn1): BatchNorm2d(1176, eps=1e-05, momentum=0.1, affine=True,\
  \ track_running_stats=True)\n  (conv1): Conv2d(1176, 1176, kernel_size=(3, 3), stride=(1,\
  \ 1), padding=(1, 1), bias=False)\n  (bn2): BatchNorm2d(1176, eps=1e-05, momentum=0.1,\
  \ affine=True, track_running_stats=True)\n  (conv2): Conv2d(1176, 1176, kernel_size=(3,\
  \ 3), stride=(1, 1), padding=(1, 1), bias=False)\n))"
: count: 10
  value: 148235.5443088333
? "(51, 51, PreActBlock(\n  (bn1): BatchNorm2d(1200, eps=1e-05, momentum=0.1, affine=True,\
  \ track_running_stats=True)\n  (conv1): Conv2d(1200, 1200, kernel_size=(3, 3), stride=(1,\
  \ 1), padding=(1, 1), bias=False)\n  (bn2): BatchNorm2d(1200, eps=1e-05, momentum=0.1,\
  \ affine=True, track_running_stats=True)\n  (conv2): Conv2d(1200, 1200, kernel_size=(3,\
  \ 3), stride=(1, 1), padding=(1, 1), bias=False)\n))"
: count: 10
  value: 152941.49279765395
? "(51, 51, PreActBlock(\n  (bn1): BatchNorm2d(1232, eps=1e-05, momentum=0.1, affine=True,\
  \ track_running_stats=True)\n  (conv1): Conv2d(1232, 1232, kernel_size=(3, 3), stride=(1,\
  \ 1), padding=(1, 1), bias=False)\n  (bn2): BatchNorm2d(1232, eps=1e-05, momentum=0.1,\
  \ affine=True, track_running_stats=True)\n  (conv2): Conv2d(1232, 1232, kernel_size=(3,\
  \ 3), stride=(1, 1), padding=(1, 1), bias=False)\n))"
: count: 10
  value: 160507.86943480297
? "(51, 51, PreActBlock(\n  (bn1): BatchNorm2d(1256, eps=1e-05, momentum=0.1, affine=True,\
  \ track_running_stats=True)\n  (conv1): Conv2d(1256, 1256, kernel_size=(3, 3), stride=(1,\
  \ 1), padding=(1, 1), bias=False)\n  (bn2): BatchNorm2d(1256, eps=1e-05, momentum=0.1,\
  \ affine=True, track_running_stats=True)\n  (conv2): Conv2d(1256, 1256, kernel_size=(3,\
  \ 3), stride=(1, 1), padding=(1, 1), bias=False)\n))"
: count: 10
  value: 160714.29449636384
? "(51, 51, PreActBlock(\n  (bn1): BatchNorm2d(1280, eps=1e-05, momentum=0.1, affine=True,\
  \ track_running_stats=True)\n  (conv1): Conv2d(1280, 1280, kernel_size=(3, 3), stride=(1,\
  \ 1), padding=(1, 1), bias=False)\n  (bn2): BatchNorm2d(1280, eps=1e-05, momentum=0.1,\
  \ affine=True, track_running_stats=True)\n  (conv2): Conv2d(1280, 1280, kernel_size=(3,\
  \ 3), stride=(1, 1), padding=(1, 1), bias=False)\n))"
: count: 10
  value: 164435.74689314273
? "(51, 51, PreActBlock(\n  (bn1): BatchNorm2d(256, eps=1e-05, momentum=0.1, affine=True,\
  \ track_running_stats=True)\n  (conv1): Conv2d(256, 256, kernel_size=(3, 3), stride=(1,\
  \ 1), padding=(1, 1), bias=False)\n  (bn2): BatchNorm2d(256, eps=1e-05, momentum=0.1,\
  \ affine=True, track_running_stats=True)\n  (conv2): Conv2d(256, 256, kernel_size=(3,\
  \ 3), stride=(1, 1), padding=(1, 1), bias=False)\n))"
: count: 10
  value: 6360.627040649413
? "(51, 51, PreActBlock(\n  (bn1): BatchNorm2d(280, eps=1e-05, momentum=0.1, affine=True,\
  \ track_running_stats=True)\n  (conv1): Conv2d(280, 280, kernel_size=(3, 3), stride=(1,\
  \ 1), padding=(1, 1), bias=False)\n  (bn2): BatchNorm2d(280, eps=1e-05, momentum=0.1,\
  \ affine=True, track_running_stats=True)\n  (conv2): Conv2d(280, 280, kernel_size=(3,\
  \ 3), stride=(1, 1), padding=(1, 1), bias=False)\n))"
: count: 10
  value: 7461.34548670044
? "(51, 51, PreActBlock(\n  (bn1): BatchNorm2d(304, eps=1e-05, momentum=0.1, affine=True,\
  \ track_running_stats=True)\n  (conv1): Conv2d(304, 304, kernel_size=(3, 3), stride=(1,\
  \ 1), padding=(1, 1), bias=False)\n  (bn2): BatchNorm2d(304, eps=1e-05, momentum=0.1,\
  \ affine=True, track_running_stats=True)\n  (conv2): Conv2d(304, 304, kernel_size=(3,\
  \ 3), stride=(1, 1), padding=(1, 1), bias=False)\n))"
: count: 10
  value: 8658.99099822159
? "(51, 51, PreActBlock(\n  (bn1): BatchNorm2d(336, eps=1e-05, momentum=0.1, affine=True,\
  \ track_running_stats=True)\n  (conv1): Conv2d(336, 336, kernel_size=(3, 3), stride=(1,\
  \ 1), padding=(1, 1), bias=False)\n  (bn2): BatchNorm2d(336, eps=1e-05, momentum=0.1,\
  \ affine=True, track_running_stats=True)\n  (conv2): Conv2d(336, 336, kernel_size=(3,\
  \ 3), stride=(1, 1), padding=(1, 1), bias=False)\n))"
: count: 10
  value: 10448.380817325593
? "(51, 51, PreActBlock(\n  (bn1): BatchNorm2d(360, eps=1e-05, momentum=0.1, affine=True,\
  \ track_running_stats=True)\n  (conv1): Conv2d(360, 360, kernel_size=(3, 3), stride=(1,\
  \ 1), padding=(1, 1), bias=False)\n  (bn2): BatchNorm2d(360, eps=1e-05, momentum=0.1,\
  \ affine=True, track_running_stats=True)\n  (conv2): Conv2d(360, 360, kernel_size=(3,\
  \ 3), stride=(1, 1), padding=(1, 1), bias=False)\n))"
: count: 10
  value: 11893.797760804748
? "(51, 51, PreActBlock(\n  (bn1): BatchNorm2d(384, eps=1e-05, momentum=0.1, affine=True,\
  \ track_running_stats=True)\n  (conv1): Conv2d(384, 384, kernel_size=(3, 3), stride=(1,\
  \ 1), padding=(1, 1), bias=False)\n  (bn2): BatchNorm2d(384, eps=1e-05, momentum=0.1,\
  \ affine=True, track_running_stats=True)\n  (conv2): Conv2d(384, 384, kernel_size=(3,\
  \ 3), stride=(1, 1), padding=(1, 1), bias=False)\n))"
: count: 10
  value: 12581.35374298706
? "(51, 51, PreActBlock(\n  (bn1): BatchNorm2d(408, eps=1e-05, momentum=0.1, affine=True,\
  \ track_running_stats=True)\n  (conv1): Conv2d(408, 408, kernel_size=(3, 3), stride=(1,\
  \ 1), padding=(1, 1), bias=False)\n  (bn2): BatchNorm2d(408, eps=1e-05, momentum=0.1,\
  \ affine=True, track_running_stats=True)\n  (conv2): Conv2d(408, 408, kernel_size=(3,\
  \ 3), stride=(1, 1), padding=(1, 1), bias=False)\n))"
: count: 10
  value: 14984.867075503542
? "(51, 51, PreActBlock(\n  (bn1): BatchNorm2d(432, eps=1e-05, momentum=0.1, affine=True,\
  \ track_running_stats=True)\n  (conv1): Conv2d(432, 432, kernel_size=(3, 3), stride=(1,\
  \ 1), padding=(1, 1), bias=False)\n  (bn2): BatchNorm2d(432, eps=1e-05, momentum=0.1,\
  \ affine=True, track_running_stats=True)\n  (conv2): Conv2d(432, 432, kernel_size=(3,\
  \ 3), stride=(1, 1), padding=(1, 1), bias=False)\n))"
: count: 10
  value: 17184.188677167505
? "(51, 51, PreActBlock(\n  (bn1): BatchNorm2d(464, eps=1e-05, momentum=0.1, affine=True,\
  \ track_running_stats=True)\n  (conv1): Conv2d(464, 464, kernel_size=(3, 3), stride=(1,\
  \ 1), padding=(1, 1), bias=False)\n  (bn2): BatchNorm2d(464, eps=1e-05, momentum=0.1,\
  \ affine=True, track_running_stats=True)\n  (conv2): Conv2d(464, 464, kernel_size=(3,\
  \ 3), stride=(1, 1), padding=(1, 1), bias=False)\n))"
: count: 10
  value: 19894.013282778928
? "(51, 51, PreActBlock(\n  (bn1): BatchNorm2d(488, eps=1e-05, momentum=0.1, affine=True,\
  \ track_running_stats=True)\n  (conv1): Conv2d(488, 488, kernel_size=(3, 3), stride=(1,\
  \ 1), padding=(1, 1), bias=False)\n  (bn2): BatchNorm2d(488, eps=1e-05, momentum=0.1,\
  \ affine=True, track_running_stats=True)\n  (conv2): Conv2d(488, 488, kernel_size=(3,\
  \ 3), stride=(1, 1), padding=(1, 1), bias=False)\n))"
: count: 10
  value: 22958.757357852177
? "(51, 51, PreActBlock(\n  (bn1): BatchNorm2d(512, eps=1e-05, momentum=0.1, affine=True,\
  \ track_running_stats=True)\n  (conv1): Conv2d(512, 512, kernel_size=(3, 3), stride=(1,\
  \ 1), padding=(1, 1), bias=False)\n  (bn2): BatchNorm2d(512, eps=1e-05, momentum=0.1,\
  \ affine=True, track_running_stats=True)\n  (conv2): Conv2d(512, 512, kernel_size=(3,\
  \ 3), stride=(1, 1), padding=(1, 1), bias=False)\n))"
: count: 10
  value: 24072.496240809633
? "(51, 51, PreActBlock(\n  (bn1): BatchNorm2d(536, eps=1e-05, momentum=0.1, affine=True,\
  \ track_running_stats=True)\n  (conv1): Conv2d(536, 536, kernel_size=(3, 3), stride=(1,\
  \ 1), padding=(1, 1), bias=False)\n  (bn2): BatchNorm2d(536, eps=1e-05, momentum=0.1,\
  \ affine=True, track_running_stats=True)\n  (conv2): Conv2d(536, 536, kernel_size=(3,\
  \ 3), stride=(1, 1), padding=(1, 1), bias=False)\n))"
: count: 10
  value: 31100.424882671352
? "(51, 51, PreActBlock(\n  (bn1): BatchNorm2d(560, eps=1e-05, momentum=0.1, affine=True,\
  \ track_running_stats=True)\n  (conv1): Conv2d(560, 560, kernel_size=(3, 3), stride=(1,\
  \ 1), padding=(1, 1), bias=False)\n  (bn2): BatchNorm2d(560, eps=1e-05, momentum=0.1,\
  \ affine=True, track_running_stats=True)\n  (conv2): Conv2d(560, 560, kernel_size=(3,\
  \ 3), stride=(1, 1), padding=(1, 1), bias=False)\n))"
: count: 10
  value: 31792.833056263735
? "(51, 51, PreActBlock(\n  (bn1): BatchNorm2d(592, eps=1e-05, momentum=0.1, affine=True,\
  \ track_running_stats=True)\n  (conv1): Conv2d(592, 592, kernel_size=(3, 3), stride=(1,\
  \ 1), padding=(1, 1), bias=False)\n  (bn2): BatchNorm2d(592, eps=1e-05, momentum=0.1,\
  \ affine=True, track_running_stats=True)\n  (conv2): Conv2d(592, 592, kernel_size=(3,\
  \ 3), stride=(1, 1), padding=(1, 1), bias=False)\n))"
: count: 10
  value: 36937.242157848355
? "(51, 51, PreActBlock(\n  (bn1): BatchNorm2d(616, eps=1e-05, momentum=0.1, affine=True,\
  \ track_running_stats=True)\n  (conv1): Conv2d(616, 616, kernel_size=(3, 3), stride=(1,\
  \ 1), padding=(1, 1), bias=False)\n  (bn2): BatchNorm2d(616, eps=1e-05, momentum=0.1,\
  \ affine=True, track_running_stats=True)\n  (conv2): Conv2d(616, 616, kernel_size=(3,\
  \ 3), stride=(1, 1), padding=(1, 1), bias=False)\n))"
: count: 10
  value: 40796.475376629634
? "(51, 51, PreActBlock(\n  (bn1): BatchNorm2d(640, eps=1e-05, momentum=0.1, affine=True,\
  \ track_running_stats=True)\n  (conv1): Conv2d(640, 640, kernel_size=(3, 3), stride=(1,\
  \ 1), padding=(1, 1), bias=False)\n  (bn2): BatchNorm2d(640, eps=1e-05, momentum=0.1,\
  \ affine=True, track_running_stats=True)\n  (conv2): Conv2d(640, 640, kernel_size=(3,\
  \ 3), stride=(1, 1), padding=(1, 1), bias=False)\n))"
: count: 10
  value: 42444.90583798676
? "(51, 51, PreActBlock(\n  (bn1): BatchNorm2d(664, eps=1e-05, momentum=0.1, affine=True,\
  \ track_running_stats=True)\n  (conv1): Conv2d(664, 664, kernel_size=(3, 3), stride=(1,\
  \ 1), padding=(1, 1), bias=False)\n  (bn2): BatchNorm2d(664, eps=1e-05, momentum=0.1,\
  \ affine=True, track_running_stats=True)\n  (conv2): Conv2d(664, 664, kernel_size=(3,\
  \ 3), stride=(1, 1), padding=(1, 1), bias=False)\n))"
: count: 10
  value: 46858.45336715699
? "(51, 51, PreActBlock(\n  (bn1): BatchNorm2d(688, eps=1e-05, momentum=0.1, affine=True,\
  \ track_running_stats=True)\n  (conv1): Conv2d(688, 688, kernel_size=(3, 3), stride=(1,\
  \ 1), padding=(1, 1), bias=False)\n  (bn2): BatchNorm2d(688, eps=1e-05, momentum=0.1,\
  \ affine=True, track_running_stats=True)\n  (conv2): Conv2d(688, 688, kernel_size=(3,\
  \ 3), stride=(1, 1), padding=(1, 1), bias=False)\n))"
: count: 10
  value: 50443.70495856934
? "(51, 51, PreActBlock(\n  (bn1): BatchNorm2d(720, eps=1e-05, momentum=0.1, affine=True,\
  \ track_running_stats=True)\n  (conv1): Conv2d(720, 720, kernel_size=(3, 3), stride=(1,\
  \ 1), padding=(1, 1), bias=False)\n  (bn2): BatchNorm2d(720, eps=1e-05, momentum=0.1,\
  \ affine=True, track_running_stats=True)\n  (conv2): Conv2d(720, 720, kernel_size=(3,\
  \ 3), stride=(1, 1), padding=(1, 1), bias=False)\n))"
: count: 10
  value: 54942.32582627105
? "(51, 51, PreActBlock(\n  (bn1): BatchNorm2d(744, eps=1e-05, momentum=0.1, affine=True,\
  \ track_running_stats=True)\n  (conv1): Conv2d(744, 744, kernel_size=(3, 3), stride=(1,\
  \ 1), padding=(1, 1), bias=False)\n  (bn2): BatchNorm2d(744, eps=1e-05, momentum=0.1,\
  \ affine=True, track_running_stats=True)\n  (conv2): Conv2d(744, 744, kernel_size=(3,\
  \ 3), stride=(1, 1), padding=(1, 1), bias=False)\n))"
: count: 10
  value: 60165.022606983955
? "(51, 51, PreActBlock(\n  (bn1): BatchNorm2d(768, eps=1e-05, momentum=0.1, affine=True,\
  \ track_running_stats=True)\n  (conv1): Conv2d(768, 768, kernel_size=(3, 3), stride=(1,\
  \ 1), padding=(1, 1), bias=False)\n  (bn2): BatchNorm2d(768, eps=1e-05, momentum=0.1,\
  \ affine=True, track_running_stats=True)\n  (conv2): Conv2d(768, 768, kernel_size=(3,\
  \ 3), stride=(1, 1), padding=(1, 1), bias=False)\n))"
: count: 10
  value: 62008.06347498016
? "(51, 51, PreActBlock(\n  (bn1): BatchNorm2d(792, eps=1e-05, momentum=0.1, affine=True,\
  \ track_running_stats=True)\n  (conv1): Conv2d(792, 792, kernel_size=(3, 3), stride=(1,\
  \ 1), padding=(1, 1), bias=False)\n  (bn2): BatchNorm2d(792, eps=1e-05, momentum=0.1,\
  \ affine=True, track_running_stats=True)\n  (conv2): Conv2d(792, 792, kernel_size=(3,\
  \ 3), stride=(1, 1), padding=(1, 1), bias=False)\n))"
: count: 10
  value: 64856.5646222519
? "(51, 51, PreActBlock(\n  (bn1): BatchNorm2d(816, eps=1e-05, momentum=0.1, affine=True,\
  \ track_running_stats=True)\n  (conv1): Conv2d(816, 816, kernel_size=(3, 3), stride=(1,\
  \ 1), padding=(1, 1), bias=False)\n  (bn2): BatchNorm2d(816, eps=1e-05, momentum=0.1,\
  \ affine=True, track_running_stats=True)\n  (conv2): Conv2d(816, 816, kernel_size=(3,\
  \ 3), stride=(1, 1), padding=(1, 1), bias=False)\n))"
: count: 10
  value: 69143.13462467423
? "(51, 51, PreActBlock(\n  (bn1): BatchNorm2d(848, eps=1e-05, momentum=0.1, affine=True,\
  \ track_running_stats=True)\n  (conv1): Conv2d(848, 848, kernel_size=(3, 3), stride=(1,\
  \ 1), padding=(1, 1), bias=False)\n  (bn2): BatchNorm2d(848, eps=1e-05, momentum=0.1,\
  \ affine=True, track_running_stats=True)\n  (conv2): Conv2d(848, 848, kernel_size=(3,\
  \ 3), stride=(1, 1), padding=(1, 1), bias=False)\n))"
: count: 10
  value: 77177.48747918321
? "(51, 51, PreActBlock(\n  (bn1): BatchNorm2d(872, eps=1e-05, momentum=0.1, affine=True,\
  \ track_running_stats=True)\n  (conv1): Conv2d(872, 872, kernel_size=(3, 3), stride=(1,\
  \ 1), padding=(1, 1), bias=False)\n  (bn2): BatchNorm2d(872, eps=1e-05, momentum=0.1,\
  \ affine=True, track_running_stats=True)\n  (conv2): Conv2d(872, 872, kernel_size=(3,\
  \ 3), stride=(1, 1), padding=(1, 1), bias=False)\n))"
: count: 10
  value: 84065.13709548337
? "(51, 51, PreActBlock(\n  (bn1): BatchNorm2d(896, eps=1e-05, momentum=0.1, affine=True,\
  \ track_running_stats=True)\n  (conv1): Conv2d(896, 896, kernel_size=(3, 3), stride=(1,\
  \ 1), padding=(1, 1), bias=False)\n  (bn2): BatchNorm2d(896, eps=1e-05, momentum=0.1,\
  \ affine=True, track_running_stats=True)\n  (conv2): Conv2d(896, 896, kernel_size=(3,\
  \ 3), stride=(1, 1), padding=(1, 1), bias=False)\n))"
: count: 10
  value: 82639.3112328392
? "(51, 51, PreActBlock(\n  (bn1): BatchNorm2d(920, eps=1e-05, momentum=0.1, affine=True,\
  \ track_running_stats=True)\n  (conv1): Conv2d(920, 920, kernel_size=(3, 3), stride=(1,\
  \ 1), padding=(1, 1), bias=False)\n  (bn2): BatchNorm2d(920, eps=1e-05, momentum=0.1,\
  \ affine=True, track_running_stats=True)\n  (conv2): Conv2d(920, 920, kernel_size=(3,\
  \ 3), stride=(1, 1), padding=(1, 1), bias=False)\n))"
: count: 10
  value: 90036.47701320038
? "(51, 51, PreActBlock(\n  (bn1): BatchNorm2d(944, eps=1e-05, momentum=0.1, affine=True,\
  \ track_running_stats=True)\n  (conv1): Conv2d(944, 944, kernel_size=(3, 3), stride=(1,\
  \ 1), padding=(1, 1), bias=False)\n  (bn2): BatchNorm2d(944, eps=1e-05, momentum=0.1,\
  \ affine=True, track_running_stats=True)\n  (conv2): Conv2d(944, 944, kernel_size=(3,\
  \ 3), stride=(1, 1), padding=(1, 1), bias=False)\n))"
: count: 10
  value: 91636.80447946241
? "(51, 51, PreActBlock(\n  (bn1): BatchNorm2d(976, eps=1e-05, momentum=0.1, affine=True,\
  \ track_running_stats=True)\n  (conv1): Conv2d(976, 976, kernel_size=(3, 3), stride=(1,\
  \ 1), padding=(1, 1), bias=False)\n  (bn2): BatchNorm2d(976, eps=1e-05, momentum=0.1,\
  \ affine=True, track_running_stats=True)\n  (conv2): Conv2d(976, 976, kernel_size=(3,\
  \ 3), stride=(1, 1), padding=(1, 1), bias=False)\n))"
: count: 10
  value: 99372.53764314041
