(160, 160, Conv2d(3, 64, kernel_size=(3, 3), stride=(1, 1), padding=(1, 1), bias=False)):
  count: 105
  value: 229348.76850476186
? "(160, 160, PreActBlock(\n  (bn1): BatchNorm2d(104, eps=1e-05, momentum=0.1, affine=True,\
  \ track_running_stats=True)\n  (conv1): Conv2d(104, 104, kernel_size=(3, 3), stride=(1,\
  \ 1), padding=(1, 1), bias=False)\n  (bn2): BatchNorm2d(104, eps=1e-05, momentum=0.1,\
  \ affine=True, track_running_stats=True)\n  (conv2): Conv2d(104, 104, kernel_size=(3,\
  \ 3), stride=(1, 1), padding=(1, 1), bias=False)\n))"
: count: 5
  value: 1465828.662
? "(160, 160, PreActBlock(\n  (bn1): BatchNorm2d(112, eps=1e-05, momentum=0.1, affine=True,\
  \ track_running_stats=True)\n  (conv1): Conv2d(112, 112, kernel_size=(3, 3), stride=(1,\
  \ 1), padding=(1, 1), bias=False)\n  (bn2): BatchNorm2d(112, eps=1e-05, momentum=0.1,\
  \ affine=True, track_running_stats=True)\n  (conv2): Conv2d(112, 112, kernel_size=(3,\
  \ 3), stride=(1, 1), padding=(1, 1), bias=False)\n))"
: count: 10
  value: 1820194.4599000004
? "(160, 160, PreActBlock(\n  (bn1): BatchNorm2d(120, eps=1e-05, momentum=0.1, affine=True,\
  \ track_running_stats=True)\n  (conv1): Conv2d(120, 120, kernel_size=(3, 3), stride=(1,\
  \ 1), padding=(1, 1), bias=False)\n  (bn2): BatchNorm2d(120, eps=1e-05, momentum=0.1,\
  \ affine=True, track_running_stats=True)\n  (conv2): Conv2d(120, 120, kernel_size=(3,\
  \ 3), stride=(1, 1), padding=(1, 1), bias=False)\n))"
: count: 5
  value: 2076855.5206000004
? "(160, 160, PreActBlock(\n  (bn1): BatchNorm2d(128, eps=1e-05, momentum=0.1, affine=True,\
  \ track_running_stats=True)\n  (conv1): Conv2d(128, 128, kernel_size=(3, 3), stride=(1,\
  \ 1), padding=(1, 1), bias=False)\n  (bn2): BatchNorm2d(128, eps=1e-05, momentum=0.1,\
  \ affine=True, track_running_stats=True)\n  (conv2): Conv2d(128, 128, kernel_size=(3,\
  \ 3), stride=(1, 1), padding=(1, 1), bias=False)\n))"
: count: 5
  value: 2633878.4328
? "(160, 160, PreActBlock(\n  (bn1): BatchNorm2d(136, eps=1e-05, momentum=0.1, affine=True,\
  \ track_running_stats=True)\n  (conv1): Conv2d(136, 136, kernel_size=(3, 3), stride=(1,\
  \ 1), padding=(1, 1), bias=False)\n  (bn2): BatchNorm2d(136, eps=1e-05, momentum=0.1,\
  \ affine=True, track_running_stats=True)\n  (conv2): Conv2d(136, 136, kernel_size=(3,\
  \ 3), stride=(1, 1), padding=(1, 1), bias=False)\n))"
: count: 5
  value: 2591794.7822000002
? "(160, 160, PreActBlock(\n  (bn1): BatchNorm2d(144, eps=1e-05, momentum=0.1, affine=True,\
  \ track_running_stats=True)\n  (conv1): Conv2d(144, 144, kernel_size=(3, 3), stride=(1,\
  \ 1), padding=(1, 1), bias=False)\n  (bn2): BatchNorm2d(144, eps=1e-05, momentum=0.1,\
  \ affine=True, track_running_stats=True)\n  (conv2): Conv2d(144, 144, kernel_size=(3,\
  \ 3), stride=(1, 1), padding=(1, 1), bias=False)\n))"
: count: 10
  value: 2006002.1785000004
? "(160, 160, PreActBlock(\n  (bn1): BatchNorm2d(152, eps=1e-05, momentum=0.1, affine=True,\
  \ track_running_stats=True)\n  (conv1): Conv2d(152, 152, kernel_size=(3, 3), stride=(1,\
  \ 1), padding=(1, 1), bias=False)\n  (bn2): BatchNorm2d(152, eps=1e-05, momentum=0.1,\
  \ affine=True, track_running_stats=True)\n  (conv2): Conv2d(152, 152, kernel_size=(3,\
  \ 3), stride=(1, 1), padding=(1, 1), bias=False)\n))"
: count: 5
  value: 2678235.4880000004
? "(160, 160, PreActBlock(\n  (bn1): BatchNorm2d(160, eps=1e-05, momentum=0.1, affine=True,\
  \ track_running_stats=True)\n  (conv1): Conv2d(160, 160, kernel_size=(3, 3), stride=(1,\
  \ 1), padding=(1, 1), bias=False)\n  (bn2): BatchNorm2d(160, eps=1e-05, momentum=0.1,\
  \ affine=True, track_running_stats=True)\n  (conv2): Conv2d(160, 160, kernel_size=(3,\
  \ 3), stride=(1, 1), padding=(1, 1), bias=False)\n))"
: count: 5
  value: 3100225.3932
? "(160, 160, PreActBlock(\n  (bn1): BatchNorm2d(168, eps=1e-05, momentum=0.1, affine=True,\
  \ track_running_stats=True)\n  (conv1): Conv2d(168, 168, kernel_size=(3, 3), stride=(1,\
  \ 1), padding=(1, 1), bias=False)\n  (bn2): BatchNorm2d(168, eps=1e-05, momentum=0.1,\
  \ affine=True, track_running_stats=True)\n  (conv2): Conv2d(168, 168, kernel_size=(3,\
  \ 3), stride=(1, 1), padding=(1, 1), bias=False)\n))"
: count: 5
  value: 4894289.320799999
? "(160, 160, PreActBlock(\n  (bn1): BatchNorm2d(176, eps=1e-05, momentum=0.1, affine=True,\
  \ track_running_stats=True)\n  (conv1): Conv2d(176, 176, kernel_size=(3, 3), stride=(1,\
  \ 1), padding=(1, 1), bias=False)\n  (bn2): BatchNorm2d(176, eps=1e-05, momentum=0.1,\
  \ affine=True, track_running_stats=True)\n  (conv2): Conv2d(176, 176, kernel_size=(3,\
  \ 3), stride=(1, 1), padding=(1, 1), bias=False)\n))"
: count: 10
  value: 5241782.336499999
? "(160, 160, PreActBlock(\n  (bn1): BatchNorm2d(184, eps=1e-05, momentum=0.1, affine=True,\
  \ track_running_stats=True)\n  (conv1): Conv2d(184, 184, kernel_size=(3, 3), stride=(1,\
  \ 1), padding=(1, 1), bias=False)\n  (bn2): BatchNorm2d(184, eps=1e-05, momentum=0.1,\
  \ affine=True, track_running_stats=True)\n  (conv2): Conv2d(184, 184, kernel_size=(3,\
  \ 3), stride=(1, 1), padding=(1, 1), bias=False)\n))"
: count: 5
  value: 5236001.4298
? "(160, 160, PreActBlock(\n  (bn1): BatchNorm2d(192, eps=1e-05, momentum=0.1, affine=True,\
  \ track_running_stats=True)\n  (conv1): Conv2d(192, 192, kernel_size=(3, 3), stride=(1,\
  \ 1), padding=(1, 1), bias=False)\n  (bn2): BatchNorm2d(192, eps=1e-05, momentum=0.1,\
  \ affine=True, track_running_stats=True)\n  (conv2): Conv2d(192, 192, kernel_size=(3,\
  \ 3), stride=(1, 1), padding=(1, 1), bias=False)\n))"
: count: 5
  value: 3883720.7514
? "(160, 160, PreActBlock(\n  (bn1): BatchNorm2d(64, eps=1e-05, momentum=0.1, affine=True,\
  \ track_running_stats=True)\n  (conv1): Conv2d(64, 104, kernel_size=(3, 3), stride=(1,\
  \ 1), padding=(1, 1), bias=False)\n  (bn2): BatchNorm2d(104, eps=1e-05, momentum=0.1,\
  \ affine=True, track_running_stats=True)\n  (conv2): Conv2d(104, 104, kernel_size=(3,\
  \ 3), stride=(1, 1), padding=(1, 1), bias=False)\n  (shortcut): Sequential(\n  \
  \  (0): Conv2d(64, 104, kernel_size=(1, 1), stride=(1, 1), bias=False)\n  )\n))"
: count: 5
  value: 1265521.558
? "(160, 160, PreActBlock(\n  (bn1): BatchNorm2d(64, eps=1e-05, momentum=0.1, affine=True,\
  \ track_running_stats=True)\n  (conv1): Conv2d(64, 112, kernel_size=(3, 3), stride=(1,\
  \ 1), padding=(1, 1), bias=False)\n  (bn2): BatchNorm2d(112, eps=1e-05, momentum=0.1,\
  \ affine=True, track_running_stats=True)\n  (conv2): Conv2d(112, 112, kernel_size=(3,\
  \ 3), stride=(1, 1), padding=(1, 1), bias=False)\n  (shortcut): Sequential(\n  \
  \  (0): Conv2d(64, 112, kernel_size=(1, 1), stride=(1, 1), bias=False)\n  )\n))"
: count: 10
  value: 1550804.7519
? "(160, 160, PreActBlock(\n  (bn1): BatchNorm2d(64, eps=1e-05, momentum=0.1, affine=True,\
  \ track_running_stats=True)\n  (conv1): Conv2d(64, 120, kernel_size=(3, 3), stride=(1,\
  \ 1), padding=(1, 1), bias=False)\n  (bn2): BatchNorm2d(120, eps=1e-05, momentum=0.1,\
  \ affine=True, track_running_stats=True)\n  (conv2): Conv2d(120, 120, kernel_size=(3,\
  \ 3), stride=(1, 1), padding=(1, 1), bias=False)\n  (shortcut): Sequential(\n  \
  \  (0): Conv2d(64, 120, kernel_size=(1, 1), stride=(1, 1), bias=False)\n  )\n))"
: count: 5
  value: 1702203.4342
? "(160, 160, PreActBlock(\n  (bn1): BatchNorm2d(64, eps=1e-05, momentum=0.1, affine=True,\
  \ track_running_stats=True)\n  (conv1): Conv2d(64, 128, kernel_size=(3, 3), stride=(1,\
  \ 1), padding=(1, 1), bias=False)\n  (bn2): BatchNorm2d(128, eps=1e-05, momentum=0.1,\
  \ affine=True, track_running_stats=True)\n  (conv2): Conv2d(128, 128, kernel_size=(3,\
  \ 3), stride=(1, 1), padding=(1, 1), bias=False)\n  (shortcut): Sequential(\n  \
  \  (0): Conv2d(64, 128, kernel_size=(1, 1), stride=(1, 1), bias=False)\n  )\n))"
: count: 5
  value: 2107548.5149999997
? "(160, 160, PreActBlock(\n  (bn1): BatchNorm2d(64, eps=1e-05, momentum=0.1, affine=True,\
  \ track_running_stats=True)\n  (conv1): Conv2d(64, 136, kernel_size=(3, 3), stride=(1,\
  \ 1), padding=(1, 1), bias=False)\n  (bn2): BatchNorm2d(136, eps=1e-05, momentum=0.1,\
  \ affine=True, track_running_stats=True)\n  (conv2): Conv2d(136, 136, kernel_size=(3,\
  \ 3), stride=(1, 1), padding=(1, 1), bias=False)\n  (shortcut): Sequential(\n  \
  \  (0): Conv2d(64, 136, kernel_size=(1, 1), stride=(1, 1), bias=False)\n  )\n))"
: count: 5
  value: 2032121.0976
? "(160, 160, PreActBlock(\n  (bn1): BatchNorm2d(64, eps=1e-05, momentum=0.1, affine=True,\
  \ track_running_stats=True)\n  (conv1): Conv2d(64, 144, kernel_size=(3, 3), stride=(1,\
  \ 1), padding=(1, 1), bias=False)\n  (bn2): BatchNorm2d(144, eps=1e-05, momentum=0.1,\
  \ affine=True, track_running_stats=True)\n  (conv2): Conv2d(144, 144, kernel_size=(3,\
  \ 3), stride=(1, 1), padding=(1, 1), bias=False)\n  (shortcut): Sequential(\n  \
  \  (0): Conv2d(64, 144, kernel_size=(1, 1), stride=(1, 1), bias=False)\n  )\n))"
: count: 10
  value: 1532716.8143000002
? "(160, 160, PreActBlock(\n  (bn1): BatchNorm2d(64, eps=1e-05, momentum=0.1, affine=True,\
  \ track_running_stats=True)\n  (conv1): Conv2d(64, 152, kernel_size=(3, 3), stride=(1,\
  \ 1), padding=(1, 1), bias=False)\n  (bn2): BatchNorm2d(152, eps=1e-05, momentum=0.1,\
  \ affine=True, track_running_stats=True)\n  (conv2): Conv2d(152, 152, kernel_size=(3,\
  \ 3), stride=(1, 1), padding=(1, 1), bias=False)\n  (shortcut): Sequential(\n  \
  \  (0): Conv2d(64, 152, kernel_size=(1, 1), stride=(1, 1), bias=False)\n  )\n))"
: count: 5
  value: 2027889.651
? "(160, 160, PreActBlock(\n  (bn1): BatchNorm2d(64, eps=1e-05, momentum=0.1, affine=True,\
  \ track_running_stats=True)\n  (conv1): Conv2d(64, 160, kernel_size=(3, 3), stride=(1,\
  \ 1), padding=(1, 1), bias=False)\n  (bn2): BatchNorm2d(160, eps=1e-05, momentum=0.1,\
  \ affine=True, track_running_stats=True)\n  (conv2): Conv2d(160, 160, kernel_size=(3,\
  \ 3), stride=(1, 1), padding=(1, 1), bias=False)\n  (shortcut): Sequential(\n  \
  \  (0): Conv2d(64, 160, kernel_size=(1, 1), stride=(1, 1), bias=False)\n  )\n))"
: count: 5
  value: 2314899.2027999996
? "(160, 160, PreActBlock(\n  (bn1): BatchNorm2d(64, eps=1e-05, momentum=0.1, affine=True,\
  \ track_running_stats=True)\n  (conv1): Conv2d(64, 168, kernel_size=(3, 3), stride=(1,\
  \ 1), padding=(1, 1), bias=False)\n  (bn2): BatchNorm2d(168, eps=1e-05, momentum=0.1,\
  \ affine=True, track_running_stats=True)\n  (conv2): Conv2d(168, 168, kernel_size=(3,\
  \ 3), stride=(1, 1), padding=(1, 1), bias=False)\n  (shortcut): Sequential(\n  \
  \  (0): Conv2d(64, 168, kernel_size=(1, 1), stride=(1, 1), bias=False)\n  )\n))"
: count: 5
  value: 3240295.981599999
? "(160, 160, PreActBlock(\n  (bn1): BatchNorm2d(64, eps=1e-05, momentum=0.1, affine=True,\
  \ track_running_stats=True)\n  (conv1): Conv2d(64, 176, kernel_size=(3, 3), stride=(1,\
  \ 1), padding=(1, 1), bias=False)\n  (bn2): BatchNorm2d(176, eps=1e-05, momentum=0.1,\
  \ affine=True, track_running_stats=True)\n  (conv2): Conv2d(176, 176, kernel_size=(3,\
  \ 3), stride=(1, 1), padding=(1, 1), bias=False)\n  (shortcut): Sequential(\n  \
  \  (0): Conv2d(64, 176, kernel_size=(1, 1), stride=(1, 1), bias=False)\n  )\n))"
: count: 10
  value: 3548585.0275
? "(160, 160, PreActBlock(\n  (bn1): BatchNorm2d(64, eps=1e-05, momentum=0.1, affine=True,\
  \ track_running_stats=True)\n  (conv1): Conv2d(64, 184, kernel_size=(3, 3), stride=(1,\
  \ 1), padding=(1, 1), bias=False)\n  (bn2): BatchNorm2d(184, eps=1e-05, momentum=0.1,\
  \ affine=True, track_running_stats=True)\n  (conv2): Conv2d(184, 184, kernel_size=(3,\
  \ 3), stride=(1, 1), padding=(1, 1), bias=False)\n  (shortcut): Sequential(\n  \
  \  (0): Conv2d(64, 184, kernel_size=(1, 1), stride=(1, 1), bias=False)\n  )\n))"
: count: 5
  value: 3839241.986799999
? "(160, 160, PreActBlock(\n  (bn1): BatchNorm2d(64, eps=1e-05, momentum=0.1, affine=True,\
  \ track_running_stats=True)\n  (conv1): Conv2d(64, 192, kernel_size=(3, 3), stride=(1,\
  \ 1), padding=(1, 1), bias=False)\n  (bn2): BatchNorm2d(192, eps=1e-05, momentum=0.1,\
  \ affine=True, track_running_stats=True)\n  (conv2): Conv2d(192, 192, kernel_size=(3,\
  \ 3), stride=(1, 1), padding=(1, 1), bias=False)\n  (shortcut): Sequential(\n  \
  \  (0): Conv2d(64, 192, kernel_size=(1, 1), stride=(1, 1), bias=False)\n  )\n))"
: count: 5
  value: 2657641.3168
? "(160, 160, PreActBlock(\n  (bn1): BatchNorm2d(64, eps=1e-05, momentum=0.1, affine=True,\
  \ track_running_stats=True)\n  (conv1): Conv2d(64, 64, kernel_size=(3, 3), stride=(1,\
  \ 1), padding=(1, 1), bias=False)\n  (bn2): BatchNorm2d(64, eps=1e-05, momentum=0.1,\
  \ affine=True, track_running_stats=True)\n  (conv2): Conv2d(64, 64, kernel_size=(3,\
  \ 3), stride=(1, 1), padding=(1, 1), bias=False)\n))"
: count: 10
  value: 404887.75085000007
? "(160, 160, PreActBlock(\n  (bn1): BatchNorm2d(64, eps=1e-05, momentum=0.1, affine=True,\
  \ track_running_stats=True)\n  (conv1): Conv2d(64, 72, kernel_size=(3, 3), stride=(1,\
  \ 1), padding=(1, 1), bias=False)\n  (bn2): BatchNorm2d(72, eps=1e-05, momentum=0.1,\
  \ affine=True, track_running_stats=True)\n  (conv2): Conv2d(72, 72, kernel_size=(3,\
  \ 3), stride=(1, 1), padding=(1, 1), bias=False)\n  (shortcut): Sequential(\n  \
  \  (0): Conv2d(64, 72, kernel_size=(1, 1), stride=(1, 1), bias=False)\n  )\n))"
: count: 5
  value: 977298.6130000001
? "(160, 160, PreActBlock(\n  (bn1): BatchNorm2d(64, eps=1e-05, momentum=0.1, affine=True,\
  \ track_running_stats=True)\n  (conv1): Conv2d(64, 80, kernel_size=(3, 3), stride=(1,\
  \ 1), padding=(1, 1), bias=False)\n  (bn2): BatchNorm2d(80, eps=1e-05, momentum=0.1,\
  \ affine=True, track_running_stats=True)\n  (conv2): Conv2d(80, 80, kernel_size=(3,\
  \ 3), stride=(1, 1), padding=(1, 1), bias=False)\n  (shortcut): Sequential(\n  \
  \  (0): Conv2d(64, 80, kernel_size=(1, 1), stride=(1, 1), bias=False)\n  )\n))"
: count: 10
  value: 1338307.278
? "(160, 160, PreActBlock(\n  (bn1): BatchNorm2d(64, eps=1e-05, momentum=0.1, affine=True,\
  \ track_running_stats=True)\n  (conv1): Conv2d(64, 88, kernel_size=(3, 3), stride=(1,\
  \ 1), padding=(1, 1), bias=False)\n  (bn2): BatchNorm2d(88, eps=1e-05, momentum=0.1,\
  \ affine=True, track_running_stats=True)\n  (conv2): Conv2d(88, 88, kernel_size=(3,\
  \ 3), stride=(1, 1), padding=(1, 1), bias=False)\n  (shortcut): Sequential(\n  \
  \  (0): Conv2d(64, 88, kernel_size=(1, 1), stride=(1, 1), bias=False)\n  )\n))"
: count: 5
  value: 1311776.0138
? "(160, 160, PreActBlock(\n  (bn1): BatchNorm2d(64, eps=1e-05, momentum=0.1, affine=True,\
  \ track_running_stats=True)\n  (conv1): Conv2d(64, 96, kernel_size=(3, 3), stride=(1,\
  \ 1), padding=(1, 1), bias=False)\n  (bn2): BatchNorm2d(96, eps=1e-05, momentum=0.1,\
  \ affine=True, track_running_stats=True)\n  (conv2): Conv2d(96, 96, kernel_size=(3,\
  \ 3), stride=(1, 1), padding=(1, 1), bias=False)\n  (shortcut): Sequential(\n  \
  \  (0): Conv2d(64, 96, kernel_size=(1, 1), stride=(1, 1), bias=False)\n  )\n))"
: count: 5
  value: 939886.5913999999
? "(160, 160, PreActBlock(\n  (bn1): BatchNorm2d(72, eps=1e-05, momentum=0.1, affine=True,\
  \ track_running_stats=True)\n  (conv1): Conv2d(72, 72, kernel_size=(3, 3), stride=(1,\
  \ 1), padding=(1, 1), bias=False)\n  (bn2): BatchNorm2d(72, eps=1e-05, momentum=0.1,\
  \ affine=True, track_running_stats=True)\n  (conv2): Conv2d(72, 72, kernel_size=(3,\
  \ 3), stride=(1, 1), padding=(1, 1), bias=False)\n))"
: count: 5
  value: 995065.2038
? "(160, 160, PreActBlock(\n  (bn1): BatchNorm2d(80, eps=1e-05, momentum=0.1, affine=True,\
  \ track_running_stats=True)\n  (conv1): Conv2d(80, 80, kernel_size=(3, 3), stride=(1,\
  \ 1), padding=(1, 1), bias=False)\n  (bn2): BatchNorm2d(80, eps=1e-05, momentum=0.1,\
  \ affine=True, track_running_stats=True)\n  (conv2): Conv2d(80, 80, kernel_size=(3,\
  \ 3), stride=(1, 1), padding=(1, 1), bias=False)\n))"
: count: 10
  value: 1383027.9637
? "(160, 160, PreActBlock(\n  (bn1): BatchNorm2d(88, eps=1e-05, momentum=0.1, affine=True,\
  \ track_running_stats=True)\n  (conv1): Conv2d(88, 88, kernel_size=(3, 3), stride=(1,\
  \ 1), padding=(1, 1), bias=False)\n  (bn2): BatchNorm2d(88, eps=1e-05, momentum=0.1,\
  \ affine=True, track_running_stats=True)\n  (conv2): Conv2d(88, 88, kernel_size=(3,\
  \ 3), stride=(1, 1), padding=(1, 1), bias=False)\n))"
: count: 5
  value: 1467775.7778
? "(160, 160, PreActBlock(\n  (bn1): BatchNorm2d(96, eps=1e-05, momentum=0.1, affine=True,\
  \ track_running_stats=True)\n  (conv1): Conv2d(96, 96, kernel_size=(3, 3), stride=(1,\
  \ 1), padding=(1, 1), bias=False)\n  (bn2): BatchNorm2d(96, eps=1e-05, momentum=0.1,\
  \ affine=True, track_running_stats=True)\n  (conv2): Conv2d(96, 96, kernel_size=(3,\
  \ 3), stride=(1, 1), padding=(1, 1), bias=False)\n))"
: count: 5
  value: 1065048.2264
? "(160, 80, PreActBlock(\n  (bn1): BatchNorm2d(104, eps=1e-05, momentum=0.1, affine=True,\
  \ track_running_stats=True)\n  (conv1): Conv2d(104, 208, kernel_size=(3, 3), stride=(2,\
  \ 2), padding=(1, 1), bias=False)\n  (bn2): BatchNorm2d(208, eps=1e-05, momentum=0.1,\
  \ affine=True, track_running_stats=True)\n  (conv2): Conv2d(208, 208, kernel_size=(3,\
  \ 3), stride=(1, 1), padding=(1, 1), bias=False)\n  (shortcut): Sequential(\n  \
  \  (0): Conv2d(104, 208, kernel_size=(1, 1), stride=(2, 2), bias=False)\n  )\n))"
: count: 5
  value: 1149714.0185999998
? "(160, 80, PreActBlock(\n  (bn1): BatchNorm2d(112, eps=1e-05, momentum=0.1, affine=True,\
  \ track_running_stats=True)\n  (conv1): Conv2d(112, 216, kernel_size=(3, 3), stride=(2,\
  \ 2), padding=(1, 1), bias=False)\n  (bn2): BatchNorm2d(216, eps=1e-05, momentum=0.1,\
  \ affine=True, track_running_stats=True)\n  (conv2): Conv2d(216, 216, kernel_size=(3,\
  \ 3), stride=(1, 1), padding=(1, 1), bias=False)\n  (shortcut): Sequential(\n  \
  \  (0): Conv2d(112, 216, kernel_size=(1, 1), stride=(2, 2), bias=False)\n  )\n))"
: count: 5
  value: 1200891.4382
? "(160, 80, PreActBlock(\n  (bn1): BatchNorm2d(112, eps=1e-05, momentum=0.1, affine=True,\
  \ track_running_stats=True)\n  (conv1): Conv2d(112, 232, kernel_size=(3, 3), stride=(2,\
  \ 2), padding=(1, 1), bias=False)\n  (bn2): BatchNorm2d(232, eps=1e-05, momentum=0.1,\
  \ affine=True, track_running_stats=True)\n  (conv2): Conv2d(232, 232, kernel_size=(3,\
  \ 3), stride=(1, 1), padding=(1, 1), bias=False)\n  (shortcut): Sequential(\n  \
  \  (0): Conv2d(112, 232, kernel_size=(1, 1), stride=(2, 2), bias=False)\n  )\n))"
: count: 5
  value: 1383393.5225999998
? "(160, 80, PreActBlock(\n  (bn1): BatchNorm2d(120, eps=1e-05, momentum=0.1, affine=True,\
  \ track_running_stats=True)\n  (conv1): Conv2d(120, 240, kernel_size=(3, 3), stride=(2,\
  \ 2), padding=(1, 1), bias=False)\n  (bn2): BatchNorm2d(240, eps=1e-05, momentum=0.1,\
  \ affine=True, track_running_stats=True)\n  (conv2): Conv2d(240, 240, kernel_size=(3,\
  \ 3), stride=(1, 1), padding=(1, 1), bias=False)\n  (shortcut): Sequential(\n  \
  \  (0): Conv2d(120, 240, kernel_size=(1, 1), stride=(2, 2), bias=False)\n  )\n))"
: count: 5
  value: 1234528.9328
? "(160, 80, PreActBlock(\n  (bn1): BatchNorm2d(128, eps=1e-05, momentum=0.1, affine=True,\
  \ track_running_stats=True)\n  (conv1): Conv2d(128, 256, kernel_size=(3, 3), stride=(2,\
  \ 2), padding=(1, 1), bias=False)\n  (bn2): BatchNorm2d(256, eps=1e-05, momentum=0.1,\
  \ affine=True, track_running_stats=True)\n  (conv2): Conv2d(256, 256, kernel_size=(3,\
  \ 3), stride=(1, 1), padding=(1, 1), bias=False)\n  (shortcut): Sequential(\n  \
  \  (0): Conv2d(128, 256, kernel_size=(1, 1), stride=(2, 2), bias=False)\n  )\n))"
: count: 5
  value: 1603893.3525999999
? "(160, 80, PreActBlock(\n  (bn1): BatchNorm2d(136, eps=1e-05, momentum=0.1, affine=True,\
  \ track_running_stats=True)\n  (conv1): Conv2d(136, 272, kernel_size=(3, 3), stride=(2,\
  \ 2), padding=(1, 1), bias=False)\n  (bn2): BatchNorm2d(272, eps=1e-05, momentum=0.1,\
  \ affine=True, track_running_stats=True)\n  (conv2): Conv2d(272, 272, kernel_size=(3,\
  \ 3), stride=(1, 1), padding=(1, 1), bias=False)\n  (shortcut): Sequential(\n  \
  \  (0): Conv2d(136, 272, kernel_size=(1, 1), stride=(2, 2), bias=False)\n  )\n))"
: count: 5
  value: 1896041.6824
? "(160, 80, PreActBlock(\n  (bn1): BatchNorm2d(144, eps=1e-05, momentum=0.1, affine=True,\
  \ track_running_stats=True)\n  (conv1): Conv2d(144, 280, kernel_size=(3, 3), stride=(2,\
  \ 2), padding=(1, 1), bias=False)\n  (bn2): BatchNorm2d(280, eps=1e-05, momentum=0.1,\
  \ affine=True, track_running_stats=True)\n  (conv2): Conv2d(280, 280, kernel_size=(3,\
  \ 3), stride=(1, 1), padding=(1, 1), bias=False)\n  (shortcut): Sequential(\n  \
  \  (0): Conv2d(144, 280, kernel_size=(1, 1), stride=(2, 2), bias=False)\n  )\n))"
: count: 5
  value: 1968281.4622000002
? "(160, 80, PreActBlock(\n  (bn1): BatchNorm2d(144, eps=1e-05, momentum=0.1, affine=True,\
  \ track_running_stats=True)\n  (conv1): Conv2d(144, 296, kernel_size=(3, 3), stride=(2,\
  \ 2), padding=(1, 1), bias=False)\n  (bn2): BatchNorm2d(296, eps=1e-05, momentum=0.1,\
  \ affine=True, track_running_stats=True)\n  (conv2): Conv2d(296, 296, kernel_size=(3,\
  \ 3), stride=(1, 1), padding=(1, 1), bias=False)\n  (shortcut): Sequential(\n  \
  \  (0): Conv2d(144, 296, kernel_size=(1, 1), stride=(2, 2), bias=False)\n  )\n))"
: count: 5
  value: 1872396.3704
? "(160, 80, PreActBlock(\n  (bn1): BatchNorm2d(152, eps=1e-05, momentum=0.1, affine=True,\
  \ track_running_stats=True)\n  (conv1): Conv2d(152, 304, kernel_size=(3, 3), stride=(2,\
  \ 2), padding=(1, 1), bias=False)\n  (bn2): BatchNorm2d(304, eps=1e-05, momentum=0.1,\
  \ affine=True, track_running_stats=True)\n  (conv2): Conv2d(304, 304, kernel_size=(3,\
  \ 3), stride=(1, 1), padding=(1, 1), bias=False)\n  (shortcut): Sequential(\n  \
  \  (0): Conv2d(152, 304, kernel_size=(1, 1), stride=(2, 2), bias=False)\n  )\n))"
: count: 5
  value: 2084562.7901999995
? "(160, 80, PreActBlock(\n  (bn1): BatchNorm2d(160, eps=1e-05, momentum=0.1, affine=True,\
  \ track_running_stats=True)\n  (conv1): Conv2d(160, 320, kernel_size=(3, 3), stride=(2,\
  \ 2), padding=(1, 1), bias=False)\n  (bn2): BatchNorm2d(320, eps=1e-05, momentum=0.1,\
  \ affine=True, track_running_stats=True)\n  (conv2): Conv2d(320, 320, kernel_size=(3,\
  \ 3), stride=(1, 1), padding=(1, 1), bias=False)\n  (shortcut): Sequential(\n  \
  \  (0): Conv2d(160, 320, kernel_size=(1, 1), stride=(2, 2), bias=False)\n  )\n))"
: count: 5
  value: 2522809.7052
? "(160, 80, PreActBlock(\n  (bn1): BatchNorm2d(168, eps=1e-05, momentum=0.1, affine=True,\
  \ track_running_stats=True)\n  (conv1): Conv2d(168, 336, kernel_size=(3, 3), stride=(2,\
  \ 2), padding=(1, 1), bias=False)\n  (bn2): BatchNorm2d(336, eps=1e-05, momentum=0.1,\
  \ affine=True, track_running_stats=True)\n  (conv2): Conv2d(336, 336, kernel_size=(3,\
  \ 3), stride=(1, 1), padding=(1, 1), bias=False)\n  (shortcut): Sequential(\n  \
  \  (0): Conv2d(168, 336, kernel_size=(1, 1), stride=(2, 2), bias=False)\n  )\n))"
: count: 5
  value: 2487364.0236
? "(160, 80, PreActBlock(\n  (bn1): BatchNorm2d(176, eps=1e-05, momentum=0.1, affine=True,\
  \ track_running_stats=True)\n  (conv1): Conv2d(176, 344, kernel_size=(3, 3), stride=(2,\
  \ 2), padding=(1, 1), bias=False)\n  (bn2): BatchNorm2d(344, eps=1e-05, momentum=0.1,\
  \ affine=True, track_running_stats=True)\n  (conv2): Conv2d(344, 344, kernel_size=(3,\
  \ 3), stride=(1, 1), padding=(1, 1), bias=False)\n  (shortcut): Sequential(\n  \
  \  (0): Conv2d(176, 344, kernel_size=(1, 1), stride=(2, 2), bias=False)\n  )\n))"
: count: 5
  value: 2731981.2788000004
? "(160, 80, PreActBlock(\n  (bn1): BatchNorm2d(176, eps=1e-05, momentum=0.1, affine=True,\
  \ track_running_stats=True)\n  (conv1): Conv2d(176, 360, kernel_size=(3, 3), stride=(2,\
  \ 2), padding=(1, 1), bias=False)\n  (bn2): BatchNorm2d(360, eps=1e-05, momentum=0.1,\
  \ affine=True, track_running_stats=True)\n  (conv2): Conv2d(360, 360, kernel_size=(3,\
  \ 3), stride=(1, 1), padding=(1, 1), bias=False)\n  (shortcut): Sequential(\n  \
  \  (0): Conv2d(176, 360, kernel_size=(1, 1), stride=(2, 2), bias=False)\n  )\n))"
: count: 5
  value: 2811151.6865999997
? "(160, 80, PreActBlock(\n  (bn1): BatchNorm2d(184, eps=1e-05, momentum=0.1, affine=True,\
  \ track_running_stats=True)\n  (conv1): Conv2d(184, 368, kernel_size=(3, 3), stride=(2,\
  \ 2), padding=(1, 1), bias=False)\n  (bn2): BatchNorm2d(368, eps=1e-05, momentum=0.1,\
  \ affine=True, track_running_stats=True)\n  (conv2): Conv2d(368, 368, kernel_size=(3,\
  \ 3), stride=(1, 1), padding=(1, 1), bias=False)\n  (shortcut): Sequential(\n  \
  \  (0): Conv2d(184, 368, kernel_size=(1, 1), stride=(2, 2), bias=False)\n  )\n))"
: count: 5
  value: 3474794.315
? "(160, 80, PreActBlock(\n  (bn1): BatchNorm2d(192, eps=1e-05, momentum=0.1, affine=True,\
  \ track_running_stats=True)\n  (conv1): Conv2d(192, 384, kernel_size=(3, 3), stride=(2,\
  \ 2), padding=(1, 1), bias=False)\n  (bn2): BatchNorm2d(384, eps=1e-05, momentum=0.1,\
  \ affine=True, track_running_stats=True)\n  (conv2): Conv2d(384, 384, kernel_size=(3,\
  \ 3), stride=(1, 1), padding=(1, 1), bias=False)\n  (shortcut): Sequential(\n  \
  \  (0): Conv2d(192, 384, kernel_size=(1, 1), stride=(2, 2), bias=False)\n  )\n))"
: count: 5
  value: 2847284.0193999996
? "(160, 80, PreActBlock(\n  (bn1): BatchNorm2d(64, eps=1e-05, momentum=0.1, affine=True,\
  \ track_running_stats=True)\n  (conv1): Conv2d(64, 128, kernel_size=(3, 3), stride=(2,\
  \ 2), padding=(1, 1), bias=False)\n  (bn2): BatchNorm2d(128, eps=1e-05, momentum=0.1,\
  \ affine=True, track_running_stats=True)\n  (conv2): Conv2d(128, 128, kernel_size=(3,\
  \ 3), stride=(1, 1), padding=(1, 1), bias=False)\n  (shortcut): Sequential(\n  \
  \  (0): Conv2d(64, 128, kernel_size=(1, 1), stride=(2, 2), bias=False)\n  )\n))"
: count: 5
  value: 614484.0626000001
? "(160, 80, PreActBlock(\n  (bn1): BatchNorm2d(72, eps=1e-05, momentum=0.1, affine=True,\
  \ track_running_stats=True)\n  (conv1): Conv2d(72, 144, kernel_size=(3, 3), stride=(2,\
  \ 2), padding=(1, 1), bias=False)\n  (bn2): BatchNorm2d(144, eps=1e-05, momentum=0.1,\
  \ affine=True, track_running_stats=True)\n  (conv2): Conv2d(144, 144, kernel_size=(3,\
  \ 3), stride=(1, 1), padding=(1, 1), bias=False)\n  (shortcut): Sequential(\n  \
  \  (0): Conv2d(72, 144, kernel_size=(1, 1), stride=(2, 2), bias=False)\n  )\n))"
: count: 5
  value: 525723.4308
? "(160, 80, PreActBlock(\n  (bn1): BatchNorm2d(80, eps=1e-05, momentum=0.1, affine=True,\
  \ track_running_stats=True)\n  (conv1): Conv2d(80, 152, kernel_size=(3, 3), stride=(2,\
  \ 2), padding=(1, 1), bias=False)\n  (bn2): BatchNorm2d(152, eps=1e-05, momentum=0.1,\
  \ affine=True, track_running_stats=True)\n  (conv2): Conv2d(152, 152, kernel_size=(3,\
  \ 3), stride=(1, 1), padding=(1, 1), bias=False)\n  (shortcut): Sequential(\n  \
  \  (0): Conv2d(80, 152, kernel_size=(1, 1), stride=(2, 2), bias=False)\n  )\n))"
: count: 5
  value: 659288.5066000002
? "(160, 80, PreActBlock(\n  (bn1): BatchNorm2d(80, eps=1e-05, momentum=0.1, affine=True,\
  \ track_running_stats=True)\n  (conv1): Conv2d(80, 168, kernel_size=(3, 3), stride=(2,\
  \ 2), padding=(1, 1), bias=False)\n  (bn2): BatchNorm2d(168, eps=1e-05, momentum=0.1,\
  \ affine=True, track_running_stats=True)\n  (conv2): Conv2d(168, 168, kernel_size=(3,\
  \ 3), stride=(1, 1), padding=(1, 1), bias=False)\n  (shortcut): Sequential(\n  \
  \  (0): Conv2d(80, 168, kernel_size=(1, 1), stride=(2, 2), bias=False)\n  )\n))"
: count: 5
  value: 768700.8484000001
? "(160, 80, PreActBlock(\n  (bn1): BatchNorm2d(88, eps=1e-05, momentum=0.1, affine=True,\
  \ track_running_stats=True)\n  (conv1): Conv2d(88, 176, kernel_size=(3, 3), stride=(2,\
  \ 2), padding=(1, 1), bias=False)\n  (bn2): BatchNorm2d(176, eps=1e-05, momentum=0.1,\
  \ affine=True, track_running_stats=True)\n  (conv2): Conv2d(176, 176, kernel_size=(3,\
  \ 3), stride=(1, 1), padding=(1, 1), bias=False)\n  (shortcut): Sequential(\n  \
  \  (0): Conv2d(88, 176, kernel_size=(1, 1), stride=(2, 2), bias=False)\n  )\n))"
: count: 5
  value: 970975.0938000001
? "(160, 80, PreActBlock(\n  (bn1): BatchNorm2d(96, eps=1e-05, momentum=0.1, affine=True,\
  \ track_running_stats=True)\n  (conv1): Conv2d(96, 192, kernel_size=(3, 3), stride=(2,\
  \ 2), padding=(1, 1), bias=False)\n  (bn2): BatchNorm2d(192, eps=1e-05, momentum=0.1,\
  \ affine=True, track_running_stats=True)\n  (conv2): Conv2d(192, 192, kernel_size=(3,\
  \ 3), stride=(1, 1), padding=(1, 1), bias=False)\n  (shortcut): Sequential(\n  \
  \  (0): Conv2d(96, 192, kernel_size=(1, 1), stride=(2, 2), bias=False)\n  )\n))"
: count: 5
  value: 818493.4603999999
(20, 20, Linear(in_features=1024, out_features=100, bias=True)):
  count: 5
  value: 561.7314
(20, 20, Linear(in_features=1072, out_features=100, bias=True)):
  count: 5
  value: 732.5996
(20, 20, Linear(in_features=1128, out_features=100, bias=True)):
  count: 5
  value: 559.8820000000001
(20, 20, Linear(in_features=1176, out_features=100, bias=True)):
…
(20, 20, Linear(in_features=720, out_features=100, bias=True)):
  count: 5
  value: 417.321
(20, 20, Linear(in_features=768, out_features=100, bias=True)):
  count: 5
  value: 456.8860000000001
(20, 20, Linear(in_features=816, out_features=100, bias=True)):
  count: 5
  value: 529.6931999999999
(20, 20, Linear(in_features=872, out_features=100, bias=True)):
  count: 5
  value: 460.0612
(20, 20, Linear(in_features=920, out_features=100, bias=True)):
  count: 5
  value: 496.701
(20, 20, Linear(in_features=976, out_features=100, bias=True)):
  count: 5
  value: 467.66940000000005
? "(20, 20, PreActBlock(\n  (bn1): BatchNorm2d(1024, eps=1e-05, momentum=0.1, affine=True,\
  \ track_running_stats=True)\n  (conv1): Conv2d(1024, 1024, kernel_size=(3, 3), stride=(1,\
  \ 1), padding=(1, 1), bias=False)\n  (bn2): BatchNorm2d(1024, eps=1e-05, momentum=0.1,\
  \ affine=True, track_running_stats=True)\n  (conv2): Conv2d(1024, 1024, kernel_size=(3,\
  \ 3), stride=(1, 1), padding=(1, 1), bias=False)\n))"
: count: 5
  value: 1641580.7244000002
? "(20, 20, PreActBlock(\n  (bn1): BatchNorm2d(1072, eps=1e-05, momentum=0.1, affine=True,\
  \ track_running_stats=True)\n  (conv1): Conv2d(1072, 1072, kernel_size=(3, 3), stride=(1,\
  \ 1), padding=(1, 1), bias=False)\n  (bn2): BatchNorm2d(1072, eps=1e-05, momentum=0.1,\
  \ affine=True, track_running_stats=True)\n  (conv2): Conv2d(1072, 1072, kernel_size=(3,\
  \ 3), stride=(1, 1), padding=(1, 1), bias=False)\n))"
: count: 5
  value: 1785313.0425999998
? "(20, 20, PreActBlock(\n  (bn1): BatchNorm2d(1128, eps=1e-05, momentum=0.1, affine=True,\
  \ track_running_stats=True)\n  (conv1): Conv2d(1128, 1128, kernel_size=(3, 3), stride=(1,\
  \ 1), padding=(1, 1), bias=False)\n  (bn2): BatchNorm2d(1128, eps=1e-05, momentum=0.1,\
  \ affine=True, track_running_stats=True)\n  (conv2): Conv2d(1128, 1128, kernel_size=(3,\
  \ 3), stride=(1, 1), padding=(1, 1), bias=False)\n))"
: count: 5
  value: 1956692.8288000003
? "(20, 20, PreActBlock(\n  (bn1): BatchNorm2d(1176, eps=1e-05, momentum=0.1, affine=True,\
  \ track_running_stats=True)\n  (conv1): Conv2d(1176, 1176, kernel_size=(3, 3), stride=(1,\
  \ 1), padding=(1, 1), bias=False)\n  (bn2): BatchNorm2d(1176, eps=1e-05, momentum=0.1,\
  \ affine=True, track_running_stats=True)\n  (conv2): Conv2d(1176, 1176, kernel_size=(3,\
  \ 3), stride=(1, 1), padding=(1, 1), bias=False)\n))"
: count: 5
  value: 2123901.3932
? "(20, 20, PreActBlock(\n  (bn1): BatchNorm2d(1232, eps=1e-05, momentum=0.1, affine=True,\
  \ track_running_stats=True)\n  (conv1): Conv2d(1232, 1232, kernel_size=(3, 3), stride=(1,\
  \ 1), padding=(1, 1), bias=False)\n  (bn2): BatchNorm2d(1232, eps=1e-05, momentum=0.1,\
  \ affine=True, track_running_stats=True)\n  (conv2): Conv2d(1232, 1232, kernel_size=(3,\
  \ 3), stride=(1, 1), padding=(1, 1), bias=False)\n))"
: count: 5
  value: 2328388.3896
? "(20, 20, PreActBlock(\n  (bn1): BatchNorm2d(1280, eps=1e-05, momentum=0.1, affine=True,\
  \ track_running_stats=True)\n  (conv1): Conv2d(1280, 1280, kernel_size=(3, 3), stride=(1,\
  \ 1), padding=(1, 1), bias=False)\n  (bn2): BatchNorm2d(1280, eps=1e-05, momentum=0.1,\
  \ affine=True, track_running_stats=True)\n  (conv2): Conv2d(1280, 1280, kernel_size=(3,\
  \ 3), stride=(1, 1), padding=(1, 1), bias=False)\n))"
: count: 5
  value: 2510462.4180000005
? "(20, 20, PreActBlock(\n  (bn1): BatchNorm2d(1328, eps=1e-05, momentum=0.1, affine=True,\
  \ track_running_stats=True)\n  (conv1): Conv2d(1328, 1328, kernel_size=(3, 3), stride=(1,\
  \ 1), padding=(1, 1), bias=False)\n  (bn2): BatchNorm2d(1328, eps=1e-05, momentum=0.1,\
  \ affine=True, track_running_stats=True)\n  (conv2): Conv2d(1328, 1328, kernel_size=(3,\
  \ 3), stride=(1, 1), padding=(1, 1), bias=False)\n))"
: count: 5
  value: 2668106.7208
? "(20, 20, PreActBlock(\n  (bn1): BatchNorm2d(1384, eps=1e-05, momentum=0.1, affine=True,\
  \ track_running_stats=True)\n  (conv1): Conv2d(1384, 1384, kernel_size=(3, 3), stride=(1,\
  \ 1), padding=(1, 1), bias=False)\n  (bn2): BatchNorm2d(1384, eps=1e-05, momentum=0.1,\
  \ affine=True, track_running_stats=True)\n  (conv2): Conv2d(1384, 1384, kernel_size=(3,\
  \ 3), stride=(1, 1), padding=(1, 1), bias=False)\n))"
: count: 5
  value: 2887592.4144
? "(20, 20, PreActBlock(\n  (bn1): BatchNorm2d(1432, eps=1e-05, momentum=0.1, affine=True,\
  \ track_running_stats=True)\n  (conv1): Conv2d(1432, 1432, kernel_size=(3, 3), stride=(1,\
  \ 1), padding=(1, 1), bias=False)\n  (bn2): BatchNorm2d(1432, eps=1e-05, momentum=0.1,\
  \ affine=True, track_running_stats=True)\n  (conv2): Conv2d(1432, 1432, kernel_size=(3,\
  \ 3), stride=(1, 1), padding=(1, 1), bias=False)\n))"
: count: 5
  value: 3050891.3942
? "(20, 20, PreActBlock(\n  (bn1): BatchNorm2d(1488, eps=1e-05, momentum=0.1, affine=True,\
  \ track_running_stats=True)\n  (conv1): Conv2d(1488, 1488, kernel_size=(3, 3), stride=(1,\
  \ 1), padding=(1, 1), bias=False)\n  (bn2): BatchNorm2d(1488, eps=1e-05, momentum=0.1,\
  \ affine=True, track_running_stats=True)\n  (conv2): Conv2d(1488, 1488, kernel_size=(3,\
  \ 3), stride=(1, 1), padding=(1, 1), bias=False)\n))"
: count: 5
  value: 3187340.6245999997
? "(20, 20, PreActBlock(\n  (bn1): BatchNorm2d(1536, eps=1e-05, momentum=0.1, affine=True,\
  \ track_running_stats=True)\n  (conv1): Conv2d(1536, 1536, kernel_size=(3, 3), stride=(1,\
  \ 1), padding=(1, 1), bias=False)\n  (bn2): BatchNorm2d(1536, eps=1e-05, momentum=0.1,\
  \ affine=True, track_running_stats=True)\n  (conv2): Conv2d(1536, 1536, kernel_size=(3,\
  \ 3), stride=(1, 1), padding=(1, 1), bias=False)\n))"
: count: 5
  value: 3398065.6986000002
? "(20, 20, PreActBlock(\n  (bn1): BatchNorm2d(512, eps=1e-05, momentum=0.1, affine=True,\
  \ track_running_stats=True)\n  (conv1): Conv2d(512, 512, kernel_size=(3, 3), stride=(1,\
  \ 1), padding=(1, 1), bias=False)\n  (bn2): BatchNorm2d(512, eps=1e-05, momentum=0.1,\
  \ affine=True, track_running_stats=True)\n  (conv2): Conv2d(512, 512, kernel_size=(3,\
  \ 3), stride=(1, 1), padding=(1, 1), bias=False)\n))"
: count: 5
  value: 491112.034
? "(20, 20, PreActBlock(\n  (bn1): BatchNorm2d(560, eps=1e-05, momentum=0.1, affine=True,\
  \ track_running_stats=True)\n  (conv1): Conv2d(560, 560, kernel_size=(3, 3), stride=(1,\
  \ 1), padding=(1, 1), bias=False)\n  (bn2): BatchNorm2d(560, eps=1e-05, momentum=0.1,\
  \ affine=True, track_running_stats=True)\n  (conv2): Conv2d(560, 560, kernel_size=(3,\
  \ 3), stride=(1, 1), padding=(1, 1), bias=False)\n))"
: count: 5
  value: 579825.2321999999
? "(20, 20, PreActBlock(\n  (bn1): BatchNorm2d(616, eps=1e-05, momentum=0.1, affine=True,\
  \ track_running_stats=True)\n  (conv1): Conv2d(616, 616, kernel_size=(3, 3), stride=(1,\
  \ 1), padding=(1, 1), bias=False)\n  (bn2): BatchNorm2d(616, eps=1e-05, momentum=0.1,\
  \ affine=True, track_running_stats=True)\n  (conv2): Conv2d(616, 616, kernel_size=(3,\
  \ 3), stride=(1, 1), padding=(1, 1), bias=False)\n))"
: count: 5
  value: 667923.5616
? "(20, 20, PreActBlock(\n  (bn1): BatchNorm2d(664, eps=1e-05, momentum=0.1, affine=True,\
  \ track_running_stats=True)\n  (conv1): Conv2d(664, 664, kernel_size=(3, 3), stride=(1,\
  \ 1), padding=(1, 1), bias=False)\n  (bn2): BatchNorm2d(664, eps=1e-05, momentum=0.1,\
  \ affine=True, track_running_stats=True)\n  (conv2): Conv2d(664, 664, kernel_size=(3,\
  \ 3), stride=(1, 1), padding=(1, 1), bias=False)\n))"
: count: 5
  value: 792318.6928000001
? "(20, 20, PreActBlock(\n  (bn1): BatchNorm2d(720, eps=1e-05, momentum=0.1, affine=True,\
  \ track_running_stats=True)\n  (conv1): Conv2d(720, 720, kernel_size=(3, 3), stride=(1,\
  \ 1), padding=(1, 1), bias=False)\n  (bn2): BatchNorm2d(720, eps=1e-05, momentum=0.1,\
  \ affine=True, track_running_stats=True)\n  (conv2): Conv2d(720, 720, kernel_size=(3,\
  \ 3), stride=(1, 1), padding=(1, 1), bias=False)\n))"
: count: 5
  value: 800173.7094
? "(20, 20, PreActBlock(\n  (bn1): BatchNorm2d(768, eps=1e-05, momentum=0.1, affine=True,\
  \ track_running_stats=True)\n  (conv1): Conv2d(768, 768, kernel_size=(3, 3), stride=(1,\
  \ 1), padding=(1, 1), bias=False)\n  (bn2): BatchNorm2d(768, eps=1e-05, momentum=0.1,\
  \ affine=True, track_running_stats=True)\n  (conv2): Conv2d(768, 768, kernel_size=(3,\
  \ 3), stride=(1, 1), padding=(1, 1), bias=False)\n))"
: count: 5
  value: 927157.1318
? "(20, 20, PreActBlock(\n  (bn1): BatchNorm2d(816, eps=1e-05, momentum=0.1, affine=True,\
  \ track_running_stats=True)\n  (conv1): Conv2d(816, 816, kernel_size=(3, 3), stride=(1,\
  \ 1), padding=(1, 1), bias=False)\n  (bn2): BatchNorm2d(816, eps=1e-05, momentum=0.1,\
  \ affine=True, track_running_stats=True)\n  (conv2): Conv2d(816, 816, kernel_size=(3,\
  \ 3), stride=(1, 1), padding=(1, 1), bias=False)\n))"
: count: 5
  value: 1023730.4125999998
? "(20, 20, PreActBlock(\n  (bn1): BatchNorm2d(872, eps=1e-05, momentum=0.1, affine=True,\
  \ track_running_stats=True)\n  (conv1): Conv2d(872, 872, kernel_size=(3, 3), stride=(1,\
  \ 1), padding=(1, 1), bias=False)\n  (bn2): BatchNorm2d(872, eps=1e-05, momentum=0.1,\
  \ affine=True, track_running_stats=True)\n  (conv2): Conv2d(872, 872, kernel_size=(3,\
  \ 3), stride=(1, 1), padding=(1, 1), bias=False)\n))"
: count: 5
  value: 1232943.9199999997
? "(20, 20, PreActBlock(\n  (bn1): BatchNorm2d(920, eps=1e-05, momentum=0.1, affine=True,\
  \ track_running_stats=True)\n  (conv1): Conv2d(920, 920, kernel_size=(3, 3), stride=(1,\
  \ 1), padding=(1, 1), bias=False)\n  (bn2): BatchNorm2d(920, eps=1e-05, momentum=0.1,\
  \ affine=True, track_running_stats=True)\n  (conv2): Conv2d(920, 920, kernel_size=(3,\
  \ 3), stride=(1, 1), padding=(1, 1), bias=False)\n))"
: count: 5
  value: 1339996.0304
? "(20, 20, PreActBlock(\n  (bn1): BatchNorm2d(976, eps=1e-05, momentum=0.1, affine=True,\
  \ track_running_stats=True)\n  (conv1): Conv2d(976, 976, kernel_size=(3, 3), stride=(1,\
  \ 1), padding=(1, 1), bias=False)\n  (bn2): BatchNorm2d(976, eps=1e-05, momentum=0.1,\
  \ affine=True, track_running_stats=True)\n  (conv2): Conv2d(976, 976, kernel_size=(3,\
  \ 3), stride=(1, 1), padding=(1, 1), bias=False)\n))"
: count: 5
  value: 1491121.3960000002
? "(40, 20, PreActBlock(\n  (bn1): BatchNorm2d(256, eps=1e-05, momentum=0.1, affine=True,\
  \ track_running_stats=True)\n  (conv1): Conv2d(256, 512, kernel_size=(3, 3), stride=(2,\
  \ 2), padding=(1, 1), bias=False)\n  (bn2): BatchNorm2d(512, eps=1e-05, momentum=0.1,\
  \ affine=True, track_running_stats=True)\n  (conv2): Conv2d(512, 512, kernel_size=(3,\
  \ 3), stride=(1, 1), padding=(1, 1), bias=False)\n  (shortcut): Sequential(\n  \
  \  (0): Conv2d(256, 512, kernel_size=(1, 1), stride=(2, 2), bias=False)\n  )\n))"
: count: 5
  value: 407685.4228
? "(40, 20, PreActBlock(\n  (bn1): BatchNorm2d(280, eps=1e-05, momentum=0.1, affine=True,\
  \ track_running_stats=True)\n  (conv1): Conv2d(280, 560, kernel_size=(3, 3), stride=(2,\
  \ 2), padding=(1, 1), bias=False)\n  (bn2): BatchNorm2d(560, eps=1e-05, momentum=0.1,\
  \ affine=True, track_running_stats=True)\n  (conv2): Conv2d(560, 560, kernel_size=(3,\
  \ 3), stride=(1, 1), padding=(1, 1), bias=False)\n  (shortcut): Sequential(\n  \
  \  (0): Conv2d(280, 560, kernel_size=(1, 1), stride=(2, 2), bias=False)\n  )\n))"
: count: 5
  value: 481344.5338
? "(40, 20, PreActBlock(\n  (bn1): BatchNorm2d(304, eps=1e-05, momentum=0.1, affine=True,\
  \ track_running_stats=True)\n  (conv1): Conv2d(304, 616, kernel_size=(3, 3), stride=(2,\
  \ 2), padding=(1, 1), bias=False)\n  (bn2): BatchNorm2d(616, eps=1e-05, momentum=0.1,\
  \ affine=True, track_running_stats=True)\n  (conv2): Conv2d(616, 616, kernel_size=(3,\
  \ 3), stride=(1, 1), padding=(1, 1), bias=False)\n  (shortcut): Sequential(\n  \
  \  (0): Conv2d(304, 616, kernel_size=(1, 1), stride=(2, 2), bias=False)\n  )\n))"
: count: 5
  value: 551162.4432
? "(40, 20, PreActBlock(\n  (bn1): BatchNorm2d(336, eps=1e-05, momentum=0.1, affine=True,\
  \ track_running_stats=True)\n  (conv1): Conv2d(336, 664, kernel_size=(3, 3), stride=(2,\
  \ 2), padding=(1, 1), bias=False)\n  (bn2): BatchNorm2d(664, eps=1e-05, momentum=0.1,\
  \ affine=True, track_running_stats=True)\n  (conv2): Conv2d(664, 664, kernel_size=(3,\
  \ 3), stride=(1, 1), padding=(1, 1), bias=False)\n  (shortcut): Sequential(\n  \
  \  (0): Conv2d(336, 664, kernel_size=(1, 1), stride=(2, 2), bias=False)\n  )\n))"
: count: 5
  value: 646867.5636
? "(40, 20, PreActBlock(\n  (bn1): BatchNorm2d(360, eps=1e-05, momentum=0.1, affine=True,\
  \ track_running_stats=True)\n  (conv1): Conv2d(360, 720, kernel_size=(3, 3), stride=(2,\
  \ 2), padding=(1, 1), bias=False)\n  (bn2): BatchNorm2d(720, eps=1e-05, momentum=0.1,\
  \ affine=True, track_running_stats=True)\n  (conv2): Conv2d(720, 720, kernel_size=(3,\
  \ 3), stride=(1, 1), padding=(1, 1), bias=False)\n  (shortcut): Sequential(\n  \
  \  (0): Conv2d(360, 720, kernel_size=(1, 1), stride=(2, 2), bias=False)\n  )\n))"
: count: 5
  value: 656122.6772
? "(40, 20, PreActBlock(\n  (bn1): BatchNorm2d(384, eps=1e-05, momentum=0.1, affine=True,\
  \ track_running_stats=True)\n  (conv1): Conv2d(384, 768, kernel_size=(3, 3), stride=(2,\
  \ 2), padding=(1, 1), bias=False)\n  (bn2): BatchNorm2d(768, eps=1e-05, momentum=0.1,\
  \ affine=True, track_running_stats=True)\n  (conv2): Conv2d(768, 768, kernel_size=(3,\
  \ 3), stride=(1, 1), padding=(1, 1), bias=False)\n  (shortcut): Sequential(\n  \
  \  (0): Conv2d(384, 768, kernel_size=(1, 1), stride=(2, 2), bias=False)\n  )\n))"
: count: 5
  value: 759206.6828
? "(40, 20, PreActBlock(\n  (bn1): BatchNorm2d(408, eps=1e-05, momentum=0.1, affine=True,\
  \ track_running_stats=True)\n  (conv1): Conv2d(408, 816, kernel_size=(3, 3), stride=(2,\
  \ 2), padding=(1, 1), bias=False)\n  (bn2): BatchNorm2d(816, eps=1e-05, momentum=0.1,\
  \ affine=True, track_running_stats=True)\n  (conv2): Conv2d(816, 816, kernel_size=(3,\
  \ 3), stride=(1, 1), padding=(1, 1), bias=False)\n  (shortcut): Sequential(\n  \
  \  (0): Conv2d(408, 816, kernel_size=(1, 1), stride=(2, 2), bias=False)\n  )\n))"
: count: 5
  value: 891609.2536
? "(40, 20, PreActBlock(\n  (bn1): BatchNorm2d(432, eps=1e-05, momentum=0.1, affine=True,\
  \ track_running_stats=True)\n  (conv1): Conv2d(432, 872, kernel_size=(3, 3), stride=(2,\
  \ 2), padding=(1, 1), bias=False)\n  (bn2): BatchNorm2d(872, eps=1e-05, momentum=0.1,\
  \ affine=True, track_running_stats=True)\n  (conv2): Conv2d(872, 872, kernel_size=(3,\
  \ 3), stride=(1, 1), padding=(1, 1), bias=False)\n  (shortcut): Sequential(\n  \
  \  (0): Conv2d(432, 872, kernel_size=(1, 1), stride=(2, 2), bias=False)\n  )\n))"
: count: 5
  value: 1003464.5876
? "(40, 20, PreActBlock(\n  (bn1): BatchNorm2d(464, eps=1e-05, momentum=0.1, affine=True,\
  \ track_running_stats=True)\n  (conv1): Conv2d(464, 920, kernel_size=(3, 3), stride=(2,\
  \ 2), padding=(1, 1), bias=False)\n  (bn2): BatchNorm2d(920, eps=1e-05, momentum=0.1,\
  \ affine=True, track_running_stats=True)\n  (conv2): Conv2d(920, 920, kernel_size=(3,\
  \ 3), stride=(1, 1), padding=(1, 1), bias=False)\n  (shortcut): Sequential(\n  \
  \  (0): Conv2d(464, 920, kernel_size=(1, 1), stride=(2, 2), bias=False)\n  )\n))"
: count: 5
  value: 1143698.3566
? "(40, 20, PreActBlock(\n  (bn1): BatchNorm2d(488, eps=1e-05, momentum=0.1, affine=True,\
  \ track_running_stats=True)\n  (conv1): Conv2d(488, 976, kernel_size=(3, 3), stride=(2,\
  \ 2), padding=(1, 1), bias=False)\n  (bn2): BatchNorm2d(976, eps=1e-05, momentum=0.1,\
  \ affine=True, track_running_stats=True)\n  (conv2): Conv2d(976, 976, kernel_size=(3,\
  \ 3), stride=(1, 1), padding=(1, 1), bias=False)\n  (shortcut): Sequential(\n  \
  \  (0): Conv2d(488, 976, kernel_size=(1, 1), stride=(2, 2), bias=False)\n  )\n))"
: count: 5
  value: 1229256.5340000002
? "(40, 20, PreActBlock(\n  (bn1): BatchNorm2d(512, eps=1e-05, momentum=0.1, affine=True,\
  \ track_running_stats=True)\n  (conv1): Conv2d(512, 1024, kernel_size=(3, 3), stride=(2,\
  \ 2), padding=(1, 1), bias=False)\n  (bn2): BatchNorm2d(1024, eps=1e-05, momentum=0.1,\
  \ affine=True, track_running_stats=True)\n  (conv2): Conv2d(1024, 1024, kernel_size=(3,\
  \ 3), stride=(1, 1), padding=(1, 1), bias=False)\n  (shortcut): Sequential(\n  \
  \  (0): Conv2d(512, 1024, kernel_size=(1, 1), stride=(2, 2), bias=False)\n  )\n\
  ))"
: count: 5
  value: 1374503.4244000001
? "(40, 20, PreActBlock(\n  (bn1): BatchNorm2d(536, eps=1e-05, momentum=0.1, affine=True,\
  \ track_running_stats=True)\n  (conv1): Conv2d(536, 1072, kernel_size=(3, 3), stride=(2,\
  \ 2), padding=(1, 1), bias=False)\n  (bn2): BatchNorm2d(1072, eps=1e-05, momentum=0.1,\
  \ affine=True, track_running_stats=True)\n  (conv2): Conv2d(1072, 1072, kernel_size=(3,\
  \ 3), stride=(1, 1), padding=(1, 1), bias=False)\n  (shortcut): Sequential(\n  \
  \  (0): Conv2d(536, 1072, kernel_size=(1, 1), stride=(2, 2), bias=False)\n  )\n\
  ))"
: count: 5
  value: 1426266.243
? "(40, 20, PreActBlock(\n  (bn1): BatchNorm2d(560, eps=1e-05, momentum=0.1, affine=True,\
  \ track_running_stats=True)\n  (conv1): Conv2d(560, 1128, kernel_size=(3, 3), stride=(2,\
  \ 2), padding=(1, 1), bias=False)\n  (bn2): BatchNorm2d(1128, eps=1e-05, momentum=0.1,\
  \ affine=True, track_running_stats=True)\n  (conv2): Conv2d(1128, 1128, kernel_size=(3,\
  \ 3), stride=(1, 1), padding=(1, 1), bias=False)\n  (shortcut): Sequential(\n  \
  \  (0): Conv2d(560, 1128, kernel_size=(1, 1), stride=(2, 2), bias=False)\n  )\n\
  ))"
: count: 5
  value: 1588065.8934
? "(40, 20, PreActBlock(\n  (bn1): BatchNorm2d(592, eps=1e-05, momentum=0.1, affine=True,\
  \ track_running_stats=True)\n  (conv1): Conv2d(592, 1176, kernel_size=(3, 3), stride=(2,\
  \ 2), padding=(1, 1), bias=False)\n  (bn2): BatchNorm2d(1176, eps=1e-05, momentum=0.1,\
  \ affine=True, track_running_stats=True)\n  (conv2): Conv2d(1176, 1176, kernel_size=(3,\
  \ 3), stride=(1, 1), padding=(1, 1), bias=False)\n  (shortcut): Sequential(\n  \
  \  (0): Conv2d(592, 1176, kernel_size=(1, 1), stride=(2, 2), bias=False)\n  )\n\
  ))"
: count: 5
  value: 1713685.5625999998
? "(40, 20, PreActBlock(\n  (bn1): BatchNorm2d(616, eps=1e-05, momentum=0.1, affine=True,\
  \ track_running_stats=True)\n  (conv1): Conv2d(616, 1232, kernel_size=(3, 3), stride=(2,\
  \ 2), padding=(1, 1), bias=False)\n  (bn2): BatchNorm2d(1232, eps=1e-05, momentum=0.1,\
  \ affine=True, track_running_stats=True)\n  (conv2): Conv2d(1232, 1232, kernel_size=(3,\
  \ 3), stride=(1, 1), padding=(1, 1), bias=False)\n  (shortcut): Sequential(\n  \
  \  (0): Conv2d(616, 1232, kernel_size=(1, 1), stride=(2, 2), bias=False)\n  )\n\
  ))"
: count: 5
  value: 1869324.0424000002
? "(40, 20, PreActBlock(\n  (bn1): BatchNorm2d(640, eps=1e-05, momentum=0.1, affine=True,\
  \ track_running_stats=True)\n  (conv1): Conv2d(640, 1280, kernel_size=(3, 3), stride=(2,\
  \ 2), padding=(1, 1), bias=False)\n  (bn2): BatchNorm2d(1280, eps=1e-05, momentum=0.1,\
  \ affine=True, track_running_stats=True)\n  (conv2): Conv2d(1280, 1280, kernel_size=(3,\
  \ 3), stride=(1, 1), padding=(1, 1), bias=False)\n  (shortcut): Sequential(\n  \
  \  (0): Conv2d(640, 1280, kernel_size=(1, 1), stride=(2, 2), bias=False)\n  )\n\
  ))"
: count: 5
  value: 1990592.7958
? "(40, 20, PreActBlock(\n  (bn1): BatchNorm2d(664, eps=1e-05, momentum=0.1, affine=True,\
  \ track_running_stats=True)\n  (conv1): Conv2d(664, 1328, kernel_size=(3, 3), stride=(2,\
  \ 2), padding=(1, 1), bias=False)\n  (bn2): BatchNorm2d(1328, eps=1e-05, momentum=0.1,\
  \ affine=True, track_running_stats=True)\n  (conv2): Conv2d(1328, 1328, kernel_size=(3,\
  \ 3), stride=(1, 1), padding=(1, 1), bias=False)\n  (shortcut): Sequential(\n  \
  \  (0): Conv2d(664, 1328, kernel_size=(1, 1), stride=(2, 2), bias=False)\n  )\n\
  ))"
: count: 5
  value: 2133122.2583999997
? "(40, 20, PreActBlock(\n  (bn1): BatchNorm2d(688, eps=1e-05, momentum=0.1, affine=True,\
  \ track_running_stats=True)\n  (conv1): Conv2d(688, 1384, kernel_size=(3, 3), stride=(2,\
  \ 2), padding=(1, 1), bias=False)\n  (bn2): BatchNorm2d(1384, eps=1e-05, momentum=0.1,\
  \ affine=True, track_running_stats=True)\n  (conv2): Conv2d(1384, 1384, kernel_size=(3,\
  \ 3), stride=(1, 1), padding=(1, 1), bias=False)\n  (shortcut): Sequential(\n  \
  \  (0): Conv2d(688, 1384, kernel_size=(1, 1), stride=(2, 2), bias=False)\n  )\n\
  ))"
: count: 5
  value: 2329904.5979999998
? "(40, 20, PreActBlock(\n  (bn1): BatchNorm2d(720, eps=1e-05, momentum=0.1, affine=True,\
  \ track_running_stats=True)\n  (conv1): Conv2d(720, 1432, kernel_size=(3, 3), stride=(2,\
  \ 2), padding=(1, 1), bias=False)\n  (bn2): BatchNorm2d(1432, eps=1e-05, momentum=0.1,\
  \ affine=True, track_running_stats=True)\n  (conv2): Conv2d(1432, 1432, kernel_size=(3,\
  \ 3), stride=(1, 1), padding=(1, 1), bias=False)\n  (shortcut): Sequential(\n  \
  \  (0): Conv2d(720, 1432, kernel_size=(1, 1), stride=(2, 2), bias=False)\n  )\n\
  ))"
: count: 5
  value: 2468474.2326
? "(40, 20, PreActBlock(\n  (bn1): BatchNorm2d(744, eps=1e-05, momentum=0.1, affine=True,\
  \ track_running_stats=True)\n  (conv1): Conv2d(744, 1488, kernel_size=(3, 3), stride=(2,\
  \ 2), padding=(1, 1), bias=False)\n  (bn2): BatchNorm2d(1488, eps=1e-05, momentum=0.1,\
  \ affine=True, track_running_stats=True)\n  (conv2): Conv2d(1488, 1488, kernel_size=(3,\
  \ 3), stride=(1, 1), padding=(1, 1), bias=False)\n  (shortcut): Sequential(\n  \
  \  (0): Conv2d(744, 1488, kernel_size=(1, 1), stride=(2, 2), bias=False)\n  )\n\
  ))"
: count: 5
  value: 2548136.3876
? "(40, 20, PreActBlock(\n  (bn1): BatchNorm2d(768, eps=1e-05, momentum=0.1, affine=True,\
  \ track_running_stats=True)\n  (conv1): Conv2d(768, 1536, kernel_size=(3, 3), stride=(2,\
  \ 2), padding=(1, 1), bias=False)\n  (bn2): BatchNorm2d(1536, eps=1e-05, momentum=0.1,\
  \ affine=True, track_running_stats=True)\n  (conv2): Conv2d(1536, 1536, kernel_size=(3,\
  \ 3), stride=(1, 1), padding=(1, 1), bias=False)\n  (shortcut): Sequential(\n  \
  \  (0): Conv2d(768, 1536, kernel_size=(1, 1), stride=(2, 2), bias=False)\n  )\n\
  ))"
: count: 5
  value: 2702907.2717999993
? "(40, 40, PreActBlock(\n  (bn1): BatchNorm2d(256, eps=1e-05, momentum=0.1, affine=True,\
  \ track_running_stats=True)\n  (conv1): Conv2d(256, 256, kernel_size=(3, 3), stride=(1,\
  \ 1), padding=(1, 1), bias=False)\n  (bn2): BatchNorm2d(256, eps=1e-05, momentum=0.1,\
  \ affine=True, track_running_stats=True)\n  (conv2): Conv2d(256, 256, kernel_size=(3,\
  \ 3), stride=(1, 1), padding=(1, 1), bias=False)\n))"
: count: 5
  value: 480288.5852
? "(40, 40, PreActBlock(\n  (bn1): BatchNorm2d(280, eps=1e-05, momentum=0.1, affine=True,\
  \ track_running_stats=True)\n  (conv1): Conv2d(280, 280, kernel_size=(3, 3), stride=(1,\
  \ 1), padding=(1, 1), bias=False)\n  (bn2): BatchNorm2d(280, eps=1e-05, momentum=0.1,\
  \ affine=True, track_running_stats=True)\n  (conv2): Conv2d(280, 280, kernel_size=(3,\
  \ 3), stride=(1, 1), padding=(1, 1), bias=False)\n))"
: count: 5
  value: 593029.1258
? "(40, 40, PreActBlock(\n  (bn1): BatchNorm2d(304, eps=1e-05, momentum=0.1, affine=True,\
  \ track_running_stats=True)\n  (conv1): Conv2d(304, 304, kernel_size=(3, 3), stride=(1,\
  \ 1), padding=(1, 1), bias=False)\n  (bn2): BatchNorm2d(304, eps=1e-05, momentum=0.1,\
  \ affine=True, track_running_stats=True)\n  (conv2): Conv2d(304, 304, kernel_size=(3,\
  \ 3), stride=(1, 1), padding=(1, 1), bias=False)\n))"
: count: 5
  value: 647492.5964
? "(40, 40, PreActBlock(\n  (bn1): BatchNorm2d(336, eps=1e-05, momentum=0.1, affine=True,\
  \ track_running_stats=True)\n  (conv1): Conv2d(336, 336, kernel_size=(3, 3), stride=(1,\
  \ 1), padding=(1, 1), bias=False)\n  (bn2): BatchNorm2d(336, eps=1e-05, momentum=0.1,\
  \ affine=True, track_running_stats=True)\n  (conv2): Conv2d(336, 336, kernel_size=(3,\
  \ 3), stride=(1, 1), padding=(1, 1), bias=False)\n))"
: count: 5
  value: 682583.0888
? "(40, 40, PreActBlock(\n  (bn1): BatchNorm2d(360, eps=1e-05, momentum=0.1, affine=True,\
  \ track_running_stats=True)\n  (conv1): Conv2d(360, 360, kernel_size=(3, 3), stride=(1,\
  \ 1), padding=(1, 1), bias=False)\n  (bn2): BatchNorm2d(360, eps=1e-05, momentum=0.1,\
  \ affine=True, track_running_stats=True)\n  (conv2): Conv2d(360, 360, kernel_size=(3,\
  \ 3), stride=(1, 1), padding=(1, 1), bias=False)\n))"
: count: 5
  value: 839893.7694
? "(40, 40, PreActBlock(\n  (bn1): BatchNorm2d(384, eps=1e-05, momentum=0.1, affine=True,\
  \ track_running_stats=True)\n  (conv1): Conv2d(384, 384, kernel_size=(3, 3), stride=(1,\
  \ 1), padding=(1, 1), bias=False)\n  (bn2): BatchNorm2d(384, eps=1e-05, momentum=0.1,\
  \ affine=True, track_running_stats=True)\n  (conv2): Conv2d(384, 384, kernel_size=(3,\
  \ 3), stride=(1, 1), padding=(1, 1), bias=False)\n))"
: count: 5
  value: 874744.0833999999
? "(40, 40, PreActBlock(\n  (bn1): BatchNorm2d(408, eps=1e-05, momentum=0.1, affine=True,\
  \ track_running_stats=True)\n  (conv1): Conv2d(408, 408, kernel_size=(3, 3), stride=(1,\
  \ 1), padding=(1, 1), bias=False)\n  (bn2): BatchNorm2d(408, eps=1e-05, momentum=0.1,\
  \ affine=True, track_running_stats=True)\n  (conv2): Conv2d(408, 408, kernel_size=(3,\
  \ 3), stride=(1, 1), padding=(1, 1), bias=False)\n))"
: count: 5
  value: 1118364.6206
? "(40, 40, PreActBlock(\n  (bn1): BatchNorm2d(432, eps=1e-05, momentum=0.1, affine=True,\
  \ track_running_stats=True)\n  (conv1): Conv2d(432, 432, kernel_size=(3, 3), stride=(1,\
  \ 1), padding=(1, 1), bias=False)\n  (bn2): BatchNorm2d(432, eps=1e-05, momentum=0.1,\
  \ affine=True, track_running_stats=True)\n  (conv2): Conv2d(432, 432, kernel_size=(3,\
  \ 3), stride=(1, 1), padding=(1, 1), bias=False)\n))"
: count: 5
  value: 1047280.1744000001
? "(40, 40, PreActBlock(\n  (bn1): BatchNorm2d(464, eps=1e-05, momentum=0.1, affine=True,\
  \ track_running_stats=True)\n  (conv1): Conv2d(464, 464, kernel_size=(3, 3), stride=(1,\
  \ 1), padding=(1, 1), bias=False)\n  (bn2): BatchNorm2d(464, eps=1e-05, momentum=0.1,\
  \ affine=True, track_running_stats=True)\n  (conv2): Conv2d(464, 464, kernel_size=(3,\
  \ 3), stride=(1, 1), padding=(1, 1), bias=False)\n))"
: count: 5
  value: 1450121.6718
? "(40, 40, PreActBlock(\n  (bn1): BatchNorm2d(488, eps=1e-05, momentum=0.1, affine=True,\
  \ track_running_stats=True)\n  (conv1): Conv2d(488, 488, kernel_size=(3, 3), stride=(1,\
  \ 1), padding=(1, 1), bias=False)\n  (bn2): BatchNorm2d(488, eps=1e-05, momentum=0.1,\
  \ affine=True, track_running_stats=True)\n  (conv2): Conv2d(488, 488, kernel_size=(3,\
  \ 3), stride=(1, 1), padding=(1, 1), bias=False)\n))"
: count: 5
  value: 1471303.3321999998
? "(40, 40, PreActBlock(\n  (bn1): BatchNorm2d(512, eps=1e-05, momentum=0.1, affine=True,\
  \ track_running_stats=True)\n  (conv1): Conv2d(512, 512, kernel_size=(3, 3), stride=(1,\
  \ 1), padding=(1, 1), bias=False)\n  (bn2): BatchNorm2d(512, eps=1e-05, momentum=0.1,\
  \ affine=True, track_running_stats=True)\n  (conv2): Conv2d(512, 512, kernel_size=(3,\
  \ 3), stride=(1, 1), padding=(1, 1), bias=False)\n))"
: count: 5
  value: 1711751.6729999997
? "(40, 40, PreActBlock(\n  (bn1): BatchNorm2d(536, eps=1e-05, momentum=0.1, affine=True,\
  \ track_running_stats=True)\n  (conv1): Conv2d(536, 536, kernel_size=(3, 3), stride=(1,\
  \ 1), padding=(1, 1), bias=False)\n  (bn2): BatchNorm2d(536, eps=1e-05, momentum=0.1,\
  \ affine=True, track_running_stats=True)\n  (conv2): Conv2d(536, 536, kernel_size=(3,\
  \ 3), stride=(1, 1), padding=(1, 1), bias=False)\n))"
: count: 5
  value: 1666499.2686
? "(40, 40, PreActBlock(\n  (bn1): BatchNorm2d(560, eps=1e-05, momentum=0.1, affine=True,\
  \ track_running_stats=True)\n  (conv1): Conv2d(560, 560, kernel_size=(3, 3), stride=(1,\
  \ 1), padding=(1, 1), bias=False)\n  (bn2): BatchNorm2d(560, eps=1e-05, momentum=0.1,\
  \ affine=True, track_running_stats=True)\n  (conv2): Conv2d(560, 560, kernel_size=(3,\
  \ 3), stride=(1, 1), padding=(1, 1), bias=False)\n))"
: count: 5
  value: 1990884.9268
? "(40, 40, PreActBlock(\n  (bn1): BatchNorm2d(592, eps=1e-05, momentum=0.1, affine=True,\
  \ track_running_stats=True)\n  (conv1): Conv2d(592, 592, kernel_size=(3, 3), stride=(1,\
  \ 1), padding=(1, 1), bias=False)\n  (bn2): BatchNorm2d(592, eps=1e-05, momentum=0.1,\
  \ affine=True, track_running_stats=True)\n  (conv2): Conv2d(592, 592, kernel_size=(3,\
  \ 3), stride=(1, 1), padding=(1, 1), bias=False)\n))"
: count: 5
  value: 2146133.518
? "(40, 40, PreActBlock(\n  (bn1): BatchNorm2d(616, eps=1e-05, momentum=0.1, affine=True,\
  \ track_running_stats=True)\n  (conv1): Conv2d(616, 616, kernel_size=(3, 3), stride=(1,\
  \ 1), padding=(1, 1), bias=False)\n  (bn2): BatchNorm2d(616, eps=1e-05, momentum=0.1,\
  \ affine=True, track_running_stats=True)\n  (conv2): Conv2d(616, 616, kernel_size=(3,\
  \ 3), stride=(1, 1), padding=(1, 1), bias=False)\n))"
: count: 5
  value: 2296535.0328
? "(40, 40, PreActBlock(\n  (bn1): BatchNorm2d(640, eps=1e-05, momentum=0.1, affine=True,\
  \ track_running_stats=True)\n  (conv1): Conv2d(640, 640, kernel_size=(3, 3), stride=(1,\
  \ 1), padding=(1, 1), bias=False)\n  (bn2): BatchNorm2d(640, eps=1e-05, momentum=0.1,\
  \ affine=True, track_running_stats=True)\n  (conv2): Conv2d(640, 640, kernel_size=(3,\
  \ 3), stride=(1, 1), padding=(1, 1), bias=False)\n))"
: count: 5
  value: 2420543.2474
? "(40, 40, PreActBlock(\n  (bn1): BatchNorm2d(664, eps=1e-05, momentum=0.1, affine=True,\
  \ track_running_stats=True)\n  (conv1): Conv2d(664, 664, kernel_size=(3, 3), stride=(1,\
  \ 1), padding=(1, 1), bias=False)\n  (bn2): BatchNorm2d(664, eps=1e-05, momentum=0.1,\
  \ affine=True, track_running_stats=True)\n  (conv2): Conv2d(664, 664, kernel_size=(3,\
  \ 3), stride=(1, 1), padding=(1, 1), bias=False)\n))"
: count: 5
  value: 2666942.0099999993
? "(40, 40, PreActBlock(\n  (bn1): BatchNorm2d(688, eps=1e-05, momentum=0.1, affine=True,\
  \ track_running_stats=True)\n  (conv1): Conv2d(688, 688, kernel_size=(3, 3), stride=(1,\
  \ 1), padding=(1, 1), bias=False)\n  (bn2): BatchNorm2d(688, eps=1e-05, momentum=0.1,\
  \ affine=True, track_running_stats=True)\n  (conv2): Conv2d(688, 688, kernel_size=(3,\
  \ 3), stride=(1, 1), padding=(1, 1), bias=False)\n))"
: count: 5
  value: 2763228.6554000005
? "(40, 40, PreActBlock(\n  (bn1): BatchNorm2d(720, eps=1e-05, momentum=0.1, affine=True,\
  \ track_running_stats=True)\n  (conv1): Conv2d(720, 720, kernel_size=(3, 3), stride=(1,\
  \ 1), padding=(1, 1), bias=False)\n  (bn2): BatchNorm2d(720, eps=1e-05, momentum=0.1,\
  \ affine=True, track_running_stats=True)\n  (conv2): Conv2d(720, 720, kernel_size=(3,\
  \ 3), stride=(1, 1), padding=(1, 1), bias=False)\n))"
: count: 5
  value: 2918108.5038
? "(40, 40, PreActBlock(\n  (bn1): BatchNorm2d(744, eps=1e-05, momentum=0.1, affine=True,\
  \ track_running_stats=True)\n  (conv1): Conv2d(744, 744, kernel_size=(3, 3), stride=(1,\
  \ 1), padding=(1, 1), bias=False)\n  (bn2): BatchNorm2d(744, eps=1e-05, momentum=0.1,\
  \ affine=True, track_running_stats=True)\n  (conv2): Conv2d(744, 744, kernel_size=(3,\
  \ 3), stride=(1, 1), padding=(1, 1), bias=False)\n))"
: count: 5
  value: 3387201.6058
? "(40, 40, PreActBlock(\n  (bn1): BatchNorm2d(768, eps=1e-05, momentum=0.1, affine=True,\
  \ track_running_stats=True)\n  (conv1): Conv2d(768, 768, kernel_size=(3, 3), stride=(1,\
  \ 1), padding=(1, 1), bias=False)\n  (bn2): BatchNorm2d(768, eps=1e-05, momentum=0.1,\
  \ affine=True, track_running_stats=True)\n  (conv2): Conv2d(768, 768, kernel_size=(3,\
  \ 3), stride=(1, 1), padding=(1, 1), bias=False)\n))"
: count: 5
  value: 3153249.949
? "(80, 40, PreActBlock(\n  (bn1): BatchNorm2d(128, eps=1e-05, momentum=0.1, affine=True,\
  \ track_running_stats=True)\n  (conv1): Conv2d(128, 256, kernel_size=(3, 3), stride=(2,\
  \ 2), padding=(1, 1), bias=False)\n  (bn2): BatchNorm2d(256, eps=1e-05, momentum=0.1,\
  \ affine=True, track_running_stats=True)\n  (conv2): Conv2d(256, 256, kernel_size=(3,\
  \ 3), stride=(1, 1), padding=(1, 1), bias=False)\n  (shortcut): Sequential(\n  \
  \  (0): Conv2d(128, 256, kernel_size=(1, 1), stride=(2, 2), bias=False)\n  )\n))"
: count: 5
  value: 409957.4346
? "(80, 40, PreActBlock(\n  (bn1): BatchNorm2d(144, eps=1e-05, momentum=0.1, affine=True,\
  \ track_running_stats=True)\n  (conv1): Conv2d(144, 280, kernel_size=(3, 3), stride=(2,\
  \ 2), padding=(1, 1), bias=False)\n  (bn2): BatchNorm2d(280, eps=1e-05, momentum=0.1,\
  \ affine=True, track_running_stats=True)\n  (conv2): Conv2d(280, 280, kernel_size=(3,\
  \ 3), stride=(1, 1), padding=(1, 1), bias=False)\n  (shortcut): Sequential(\n  \
  \  (0): Conv2d(144, 280, kernel_size=(1, 1), stride=(2, 2), bias=False)\n  )\n))"
: count: 5
  value: 523822.5346
? "(80, 40, PreActBlock(\n  (bn1): BatchNorm2d(152, eps=1e-05, momentum=0.1, affine=True,\
  \ track_running_stats=True)\n  (conv1): Conv2d(152, 304, kernel_size=(3, 3), stride=(2,\
  \ 2), padding=(1, 1), bias=False)\n  (bn2): BatchNorm2d(304, eps=1e-05, momentum=0.1,\
  \ affine=True, track_running_stats=True)\n  (conv2): Conv2d(304, 304, kernel_size=(3,\
  \ 3), stride=(1, 1), padding=(1, 1), bias=False)\n  (shortcut): Sequential(\n  \
  \  (0): Conv2d(152, 304, kernel_size=(1, 1), stride=(2, 2), bias=False)\n  )\n))"
: count: 5
  value: 550065.601
? "(80, 40, PreActBlock(\n  (bn1): BatchNorm2d(168, eps=1e-05, momentum=0.1, affine=True,\
  \ track_running_stats=True)\n  (conv1): Conv2d(168, 336, kernel_size=(3, 3), stride=(2,\
  \ 2), padding=(1, 1), bias=False)\n  (bn2): BatchNorm2d(336, eps=1e-05, momentum=0.1,\
  \ affine=True, track_running_stats=True)\n  (conv2): Conv2d(336, 336, kernel_size=(3,\
  \ 3), stride=(1, 1), padding=(1, 1), bias=False)\n  (shortcut): Sequential(\n  \
  \  (0): Conv2d(168, 336, kernel_size=(1, 1), stride=(2, 2), bias=False)\n  )\n))"
: count: 5
  value: 567406.1292
? "(80, 40, PreActBlock(\n  (bn1): BatchNorm2d(176, eps=1e-05, momentum=0.1, affine=True,\
  \ track_running_stats=True)\n  (conv1): Conv2d(176, 360, kernel_size=(3, 3), stride=(2,\
  \ 2), padding=(1, 1), bias=False)\n  (bn2): BatchNorm2d(360, eps=1e-05, momentum=0.1,\
  \ affine=True, track_running_stats=True)\n  (conv2): Conv2d(360, 360, kernel_size=(3,\
  \ 3), stride=(1, 1), padding=(1, 1), bias=False)\n  (shortcut): Sequential(\n  \
  \  (0): Conv2d(176, 360, kernel_size=(1, 1), stride=(2, 2), bias=False)\n  )\n))"
: count: 5
  value: 706081.2148
? "(80, 40, PreActBlock(\n  (bn1): BatchNorm2d(192, eps=1e-05, momentum=0.1, affine=True,\
  \ track_running_stats=True)\n  (conv1): Conv2d(192, 384, kernel_size=(3, 3), stride=(2,\
  \ 2), padding=(1, 1), bias=False)\n  (bn2): BatchNorm2d(384, eps=1e-05, momentum=0.1,\
  \ affine=True, track_running_stats=True)\n  (conv2): Conv2d(384, 384, kernel_size=(3,\
  \ 3), stride=(1, 1), padding=(1, 1), bias=False)\n  (shortcut): Sequential(\n  \
  \  (0): Conv2d(192, 384, kernel_size=(1, 1), stride=(2, 2), bias=False)\n  )\n))"
: count: 5
  value: 750998.2432
? "(80, 40, PreActBlock(\n  (bn1): BatchNorm2d(208, eps=1e-05, momentum=0.1, affine=True,\
  \ track_running_stats=True)\n  (conv1): Conv2d(208, 408, kernel_size=(3, 3), stride=(2,\
  \ 2), padding=(1, 1), bias=False)\n  (bn2): BatchNorm2d(408, eps=1e-05, momentum=0.1,\
  \ affine=True, track_running_stats=True)\n  (conv2): Conv2d(408, 408, kernel_size=(3,\
  \ 3), stride=(1, 1), padding=(1, 1), bias=False)\n  (shortcut): Sequential(\n  \
  \  (0): Conv2d(208, 408, kernel_size=(1, 1), stride=(2, 2), bias=False)\n  )\n))"
: count: 5
  value: 947669.8564000002
? "(80, 40, PreActBlock(\n  (bn1): BatchNorm2d(216, eps=1e-05, momentum=0.1, affine=True,\
  \ track_running_stats=True)\n  (conv1): Conv2d(216, 432, kernel_size=(3, 3), stride=(2,\
  \ 2), padding=(1, 1), bias=False)\n  (bn2): BatchNorm2d(432, eps=1e-05, momentum=0.1,\
  \ affine=True, track_running_stats=True)\n  (conv2): Conv2d(432, 432, kernel_size=(3,\
  \ 3), stride=(1, 1), padding=(1, 1), bias=False)\n  (shortcut): Sequential(\n  \
  \  (0): Conv2d(216, 432, kernel_size=(1, 1), stride=(2, 2), bias=False)\n  )\n))"
: count: 5
  value: 883903.7308
? "(80, 40, PreActBlock(\n  (bn1): BatchNorm2d(232, eps=1e-05, momentum=0.1, affine=True,\
  \ track_running_stats=True)\n  (conv1): Conv2d(232, 464, kernel_size=(3, 3), stride=(2,\
  \ 2), padding=(1, 1), bias=False)\n  (bn2): BatchNorm2d(464, eps=1e-05, momentum=0.1,\
  \ affine=True, track_running_stats=True)\n  (conv2): Conv2d(464, 464, kernel_size=(3,\
  \ 3), stride=(1, 1), padding=(1, 1), bias=False)\n  (shortcut): Sequential(\n  \
  \  (0): Conv2d(232, 464, kernel_size=(1, 1), stride=(2, 2), bias=False)\n  )\n))"
: count: 5
  value: 1164309.3280000002
? "(80, 40, PreActBlock(\n  (bn1): BatchNorm2d(240, eps=1e-05, momentum=0.1, affine=True,\
  \ track_running_stats=True)\n  (conv1): Conv2d(240, 488, kernel_size=(3, 3), stride=(2,\
  \ 2), padding=(1, 1), bias=False)\n  (bn2): BatchNorm2d(488, eps=1e-05, momentum=0.1,\
  \ affine=True, track_running_stats=True)\n  (conv2): Conv2d(488, 488, kernel_size=(3,\
  \ 3), stride=(1, 1), padding=(1, 1), bias=False)\n  (shortcut): Sequential(\n  \
  \  (0): Conv2d(240, 488, kernel_size=(1, 1), stride=(2, 2), bias=False)\n  )\n))"
: count: 5
  value: 1193941.7728
? "(80, 40, PreActBlock(\n  (bn1): BatchNorm2d(256, eps=1e-05, momentum=0.1, affine=True,\
  \ track_running_stats=True)\n  (conv1): Conv2d(256, 512, kernel_size=(3, 3), stride=(2,\
  \ 2), padding=(1, 1), bias=False)\n  (bn2): BatchNorm2d(512, eps=1e-05, momentum=0.1,\
  \ affine=True, track_running_stats=True)\n  (conv2): Conv2d(512, 512, kernel_size=(3,\
  \ 3), stride=(1, 1), padding=(1, 1), bias=False)\n  (shortcut): Sequential(\n  \
  \  (0): Conv2d(256, 512, kernel_size=(1, 1), stride=(2, 2), bias=False)\n  )\n))"
: count: 5
  value: 1393566.0869999998
? "(80, 40, PreActBlock(\n  (bn1): BatchNorm2d(272, eps=1e-05, momentum=0.1, affine=True,\
  \ track_running_stats=True)\n  (conv1): Conv2d(272, 536, kernel_size=(3, 3), stride=(2,\
  \ 2), padding=(1, 1), bias=False)\n  (bn2): BatchNorm2d(536, eps=1e-05, momentum=0.1,\
  \ affine=True, track_running_stats=True)\n  (conv2): Conv2d(536, 536, kernel_size=(3,\
  \ 3), stride=(1, 1), padding=(1, 1), bias=False)\n  (shortcut): Sequential(\n  \
  \  (0): Conv2d(272, 536, kernel_size=(1, 1), stride=(2, 2), bias=False)\n  )\n))"
: count: 5
  value: 1389456.9004000002
? "(80, 40, PreActBlock(\n  (bn1): BatchNorm2d(280, eps=1e-05, momentum=0.1, affine=True,\
  \ track_running_stats=True)\n  (conv1): Conv2d(280, 560, kernel_size=(3, 3), stride=(2,\
  \ 2), padding=(1, 1), bias=False)\n  (bn2): BatchNorm2d(560, eps=1e-05, momentum=0.1,\
  \ affine=True, track_running_stats=True)\n  (conv2): Conv2d(560, 560, kernel_size=(3,\
  \ 3), stride=(1, 1), padding=(1, 1), bias=False)\n  (shortcut): Sequential(\n  \
  \  (0): Conv2d(280, 560, kernel_size=(1, 1), stride=(2, 2), bias=False)\n  )\n))"
: count: 5
  value: 1672944.9647999997
? "(80, 40, PreActBlock(\n  (bn1): BatchNorm2d(296, eps=1e-05, momentum=0.1, affine=True,\
  \ track_running_stats=True)\n  (conv1): Conv2d(296, 592, kernel_size=(3, 3), stride=(2,\
  \ 2), padding=(1, 1), bias=False)\n  (bn2): BatchNorm2d(592, eps=1e-05, momentum=0.1,\
  \ affine=True, track_running_stats=True)\n  (conv2): Conv2d(592, 592, kernel_size=(3,\
  \ 3), stride=(1, 1), padding=(1, 1), bias=False)\n  (shortcut): Sequential(\n  \
  \  (0): Conv2d(296, 592, kernel_size=(1, 1), stride=(2, 2), bias=False)\n  )\n))"
: count: 5
  value: 1723851.3643999998
? "(80, 40, PreActBlock(\n  (bn1): BatchNorm2d(304, eps=1e-05, momentum=0.1, affine=True,\
  \ track_running_stats=True)\n  (conv1): Conv2d(304, 616, kernel_size=(3, 3), stride=(2,\
  \ 2), padding=(1, 1), bias=False)\n  (bn2): BatchNorm2d(616, eps=1e-05, momentum=0.1,\
  \ affine=True, track_running_stats=True)\n  (conv2): Conv2d(616, 616, kernel_size=(3,\
  \ 3), stride=(1, 1), padding=(1, 1), bias=False)\n  (shortcut): Sequential(\n  \
  \  (0): Conv2d(304, 616, kernel_size=(1, 1), stride=(2, 2), bias=False)\n  )\n))"
: count: 5
  value: 1873813.6580000003
? "(80, 40, PreActBlock(\n  (bn1): BatchNorm2d(320, eps=1e-05, momentum=0.1, affine=True,\
  \ track_running_stats=True)\n  (conv1): Conv2d(320, 640, kernel_size=(3, 3), stride=(2,\
  \ 2), padding=(1, 1), bias=False)\n  (bn2): BatchNorm2d(640, eps=1e-05, momentum=0.1,\
  \ affine=True, track_running_stats=True)\n  (conv2): Conv2d(640, 640, kernel_size=(3,\
  \ 3), stride=(1, 1), padding=(1, 1), bias=False)\n  (shortcut): Sequential(\n  \
  \  (0): Conv2d(320, 640, kernel_size=(1, 1), stride=(2, 2), bias=False)\n  )\n))"
: count: 5
  value: 1970426.0855999999
? "(80, 40, PreActBlock(\n  (bn1): BatchNorm2d(336, eps=1e-05, momentum=0.1, affine=True,\
  \ track_running_stats=True)\n  (conv1): Conv2d(336, 664, kernel_size=(3, 3), stride=(2,\
  \ 2), padding=(1, 1), bias=False)\n  (bn2): BatchNorm2d(664, eps=1e-05, momentum=0.1,\
  \ affine=True, track_running_stats=True)\n  (conv2): Conv2d(664, 664, kernel_size=(3,\
  \ 3), stride=(1, 1), padding=(1, 1), bias=False)\n  (shortcut): Sequential(\n  \
  \  (0): Conv2d(336, 664, kernel_size=(1, 1), stride=(2, 2), bias=False)\n  )\n))"
: count: 5
  value: 2168724.6636
? "(80, 40, PreActBlock(\n  (bn1): BatchNorm2d(344, eps=1e-05, momentum=0.1, affine=True,\
  \ track_running_stats=True)\n  (conv1): Conv2d(344, 688, kernel_size=(3, 3), stride=(2,\
  \ 2), padding=(1, 1), bias=False)\n  (bn2): BatchNorm2d(688, eps=1e-05, momentum=0.1,\
  \ affine=True, track_running_stats=True)\n  (conv2): Conv2d(688, 688, kernel_size=(3,\
  \ 3), stride=(1, 1), padding=(1, 1), bias=False)\n  (shortcut): Sequential(\n  \
  \  (0): Conv2d(344, 688, kernel_size=(1, 1), stride=(2, 2), bias=False)\n  )\n))"
: count: 5
  value: 2294946.9454
? "(80, 40, PreActBlock(\n  (bn1): BatchNorm2d(360, eps=1e-05, momentum=0.1, affine=True,\
  \ track_running_stats=True)\n  (conv1): Conv2d(360, 720, kernel_size=(3, 3), stride=(2,\
  \ 2), padding=(1, 1), bias=False)\n  (bn2): BatchNorm2d(720, eps=1e-05, momentum=0.1,\
  \ affine=True, track_running_stats=True)\n  (conv2): Conv2d(720, 720, kernel_size=(3,\
  \ 3), stride=(1, 1), padding=(1, 1), bias=False)\n  (shortcut): Sequential(\n  \
  \  (0): Conv2d(360, 720, kernel_size=(1, 1), stride=(2, 2), bias=False)\n  )\n))"
: count: 5
  value: 2364636.5645999997
? "(80, 40, PreActBlock(\n  (bn1): BatchNorm2d(368, eps=1e-05, momentum=0.1, affine=True,\
  \ track_running_stats=True)\n  (conv1): Conv2d(368, 744, kernel_size=(3, 3), stride=(2,\
  \ 2), padding=(1, 1), bias=False)\n  (bn2): BatchNorm2d(744, eps=1e-05, momentum=0.1,\
  \ affine=True, track_running_stats=True)\n  (conv2): Conv2d(744, 744, kernel_size=(3,\
  \ 3), stride=(1, 1), padding=(1, 1), bias=False)\n  (shortcut): Sequential(\n  \
  \  (0): Conv2d(368, 744, kernel_size=(1, 1), stride=(2, 2), bias=False)\n  )\n))"
: count: 5
  value: 2765141.5745999995
? "(80, 40, PreActBlock(\n  (bn1): BatchNorm2d(384, eps=1e-05, momentum=0.1, affine=True,\
  \ track_running_stats=True)\n  (conv1): Conv2d(384, 768, kernel_size=(3, 3), stride=(2,\
  \ 2), padding=(1, 1), bias=False)\n  (bn2): BatchNorm2d(768, eps=1e-05, momentum=0.1,\
  \ affine=True, track_running_stats=True)\n  (conv2): Conv2d(768, 768, kernel_size=(3,\
  \ 3), stride=(1, 1), padding=(1, 1), bias=False)\n  (shortcut): Sequential(\n  \
  \  (0): Conv2d(384, 768, kernel_size=(1, 1), stride=(2, 2), bias=False)\n  )\n))"
: count: 5
  value: 2623619.4748000004
? "(80, 80, PreActBlock(\n  (bn1): BatchNorm2d(128, eps=1e-05, momentum=0.1, affine=True,\
  \ track_running_stats=True)\n  (conv1): Conv2d(128, 128, kernel_size=(3, 3), stride=(1,\
  \ 1), padding=(1, 1), bias=False)\n  (bn2): BatchNorm2d(128, eps=1e-05, momentum=0.1,\
  \ affine=True, track_running_stats=True)\n  (conv2): Conv2d(128, 128, kernel_size=(3,\
  \ 3), stride=(1, 1), padding=(1, 1), bias=False)\n))"
: count: 5
  value: 674783.7833999998
? "(80, 80, PreActBlock(\n  (bn1): BatchNorm2d(144, eps=1e-05, momentum=0.1, affine=True,\
  \ track_running_stats=True)\n  (conv1): Conv2d(144, 144, kernel_size=(3, 3), stride=(1,\
  \ 1), padding=(1, 1), bias=False)\n  (bn2): BatchNorm2d(144, eps=1e-05, momentum=0.1,\
  \ affine=True, track_running_stats=True)\n  (conv2): Conv2d(144, 144, kernel_size=(3,\
  \ 3), stride=(1, 1), padding=(1, 1), bias=False)\n))"
: count: 5
  value: 530551.9888
? "(80, 80, PreActBlock(\n  (bn1): BatchNorm2d(152, eps=1e-05, momentum=0.1, affine=True,\
  \ track_running_stats=True)\n  (conv1): Conv2d(152, 152, kernel_size=(3, 3), stride=(1,\
  \ 1), padding=(1, 1), bias=False)\n  (bn2): BatchNorm2d(152, eps=1e-05, momentum=0.1,\
  \ affine=True, track_running_stats=True)\n  (conv2): Conv2d(152, 152, kernel_size=(3,\
  \ 3), stride=(1, 1), padding=(1, 1), bias=False)\n))"
: count: 5
  value: 681015.6127999999
? "(80, 80, PreActBlock(\n  (bn1): BatchNorm2d(168, eps=1e-05, momentum=0.1, affine=True,\
  \ track_running_stats=True)\n  (conv1): Conv2d(168, 168, kernel_size=(3, 3), stride=(1,\
  \ 1), padding=(1, 1), bias=False)\n  (bn2): BatchNorm2d(168, eps=1e-05, momentum=0.1,\
  \ affine=True, track_running_stats=True)\n  (conv2): Conv2d(168, 168, kernel_size=(3,\
  \ 3), stride=(1, 1), padding=(1, 1), bias=False)\n))"
: count: 5
  value: 862269.1256000001
? "(80, 80, PreActBlock(\n  (bn1): BatchNorm2d(176, eps=1e-05, momentum=0.1, affine=True,\
  \ track_running_stats=True)\n  (conv1): Conv2d(176, 176, kernel_size=(3, 3), stride=(1,\
  \ 1), padding=(1, 1), bias=False)\n  (bn2): BatchNorm2d(176, eps=1e-05, momentum=0.1,\
  \ affine=True, track_running_stats=True)\n  (conv2): Conv2d(176, 176, kernel_size=(3,\
  \ 3), stride=(1, 1), padding=(1, 1), bias=False)\n))"
: count: 5
  value: 1081037.2222
? "(80, 80, PreActBlock(\n  (bn1): BatchNorm2d(192, eps=1e-05, momentum=0.1, affine=True,\
  \ track_running_stats=True)\n  (conv1): Conv2d(192, 192, kernel_size=(3, 3), stride=(1,\
  \ 1), padding=(1, 1), bias=False)\n  (bn2): BatchNorm2d(192, eps=1e-05, momentum=0.1,\
  \ affine=True, track_running_stats=True)\n  (conv2): Conv2d(192, 192, kernel_size=(3,\
  \ 3), stride=(1, 1), padding=(1, 1), bias=False)\n))"
: count: 5
  value: 902246.7116000003
? "(80, 80, PreActBlock(\n  (bn1): BatchNorm2d(208, eps=1e-05, momentum=0.1, affine=True,\
  \ track_running_stats=True)\n  (conv1): Conv2d(208, 208, kernel_size=(3, 3), stride=(1,\
  \ 1), padding=(1, 1), bias=False)\n  (bn2): BatchNorm2d(208, eps=1e-05, momentum=0.1,\
  \ affine=True, track_running_stats=True)\n  (conv2): Conv2d(208, 208, kernel_size=(3,\
  \ 3), stride=(1, 1), padding=(1, 1), bias=False)\n))"
: count: 5
  value: 1331852.406
? "(80, 80, PreActBlock(\n  (bn1): BatchNorm2d(216, eps=1e-05, momentum=0.1, affine=True,\
  \ track_running_stats=True)\n  (conv1): Conv2d(216, 216, kernel_size=(3, 3), stride=(1,\
  \ 1), padding=(1, 1), bias=False)\n  (bn2): BatchNorm2d(216, eps=1e-05, momentum=0.1,\
  \ affine=True, track_running_stats=True)\n  (conv2): Conv2d(216, 216, kernel_size=(3,\
  \ 3), stride=(1, 1), padding=(1, 1), bias=False)\n))"
: count: 5
  value: 1337794.8554
? "(80, 80, PreActBlock(\n  (bn1): BatchNorm2d(232, eps=1e-05, momentum=0.1, affine=True,\
  \ track_running_stats=True)\n  (conv1): Conv2d(232, 232, kernel_size=(3, 3), stride=(1,\
  \ 1), padding=(1, 1), bias=False)\n  (bn2): BatchNorm2d(232, eps=1e-05, momentum=0.1,\
  \ affine=True, track_running_stats=True)\n  (conv2): Conv2d(232, 232, kernel_size=(3,\
  \ 3), stride=(1, 1), padding=(1, 1), bias=False)\n))"
: count: 5
  value: 1624596.7868000001
? "(80, 80, PreActBlock(\n  (bn1): BatchNorm2d(240, eps=1e-05, momentum=0.1, affine=True,\
  \ track_running_stats=True)\n  (conv1): Conv2d(240, 240, kernel_size=(3, 3), stride=(1,\
  \ 1), padding=(1, 1), bias=False)\n  (bn2): BatchNorm2d(240, eps=1e-05, momentum=0.1,\
  \ affine=True, track_running_stats=True)\n  (conv2): Conv2d(240, 240, kernel_size=(3,\
  \ 3), stride=(1, 1), padding=(1, 1), bias=False)\n))"
: count: 5
  value: 1362082.8783999998
? "(80, 80, PreActBlock(\n  (bn1): BatchNorm2d(256, eps=1e-05, momentum=0.1, affine=True,\
  \ track_running_stats=True)\n  (conv1): Conv2d(256, 256, kernel_size=(3, 3), stride=(1,\
  \ 1), padding=(1, 1), bias=False)\n  (bn2): BatchNorm2d(256, eps=1e-05, momentum=0.1,\
  \ affine=True, track_running_stats=True)\n  (conv2): Conv2d(256, 256, kernel_size=(3,\
  \ 3), stride=(1, 1), padding=(1, 1), bias=False)\n))"
: count: 5
  value: 1863680.0862
? "(80, 80, PreActBlock(\n  (bn1): BatchNorm2d(272, eps=1e-05, momentum=0.1, affine=True,\
  \ track_running_stats=True)\n  (conv1): Conv2d(272, 272, kernel_size=(3, 3), stride=(1,\
  \ 1), padding=(1, 1), bias=False)\n  (bn2): BatchNorm2d(272, eps=1e-05, momentum=0.1,\
  \ affine=True, track_running_stats=True)\n  (conv2): Conv2d(272, 272, kernel_size=(3,\
  \ 3), stride=(1, 1), padding=(1, 1), bias=False)\n))"
: count: 5
  value: 2226115.5874
? "(80, 80, PreActBlock(\n  (bn1): BatchNorm2d(280, eps=1e-05, momentum=0.1, affine=True,\
  \ track_running_stats=True)\n  (conv1): Conv2d(280, 280, kernel_size=(3, 3), stride=(1,\
  \ 1), padding=(1, 1), bias=False)\n  (bn2): BatchNorm2d(280, eps=1e-05, momentum=0.1,\
  \ affine=True, track_running_stats=True)\n  (conv2): Conv2d(280, 280, kernel_size=(3,\
  \ 3), stride=(1, 1), padding=(1, 1), bias=False)\n))"
: count: 5
  value: 2306367.0708
? "(80, 80, PreActBlock(\n  (bn1): BatchNorm2d(296, eps=1e-05, momentum=0.1, affine=True,\
  \ track_running_stats=True)\n  (conv1): Conv2d(296, 296, kernel_size=(3, 3), stride=(1,\
  \ 1), padding=(1, 1), bias=False)\n  (bn2): BatchNorm2d(296, eps=1e-05, momentum=0.1,\
  \ affine=True, track_running_stats=True)\n  (conv2): Conv2d(296, 296, kernel_size=(3,\
  \ 3), stride=(1, 1), padding=(1, 1), bias=False)\n))"
: count: 5
  value: 2151829.7318
? "(80, 80, PreActBlock(\n  (bn1): BatchNorm2d(304, eps=1e-05, momentum=0.1, affine=True,\
  \ track_running_stats=True)\n  (conv1): Conv2d(304, 304, kernel_size=(3, 3), stride=(1,\
  \ 1), padding=(1, 1), bias=False)\n  (bn2): BatchNorm2d(304, eps=1e-05, momentum=0.1,\
  \ affine=True, track_running_stats=True)\n  (conv2): Conv2d(304, 304, kernel_size=(3,\
  \ 3), stride=(1, 1), padding=(1, 1), bias=False)\n))"
: count: 5
  value: 2468062.2882
? "(80, 80, PreActBlock(\n  (bn1): BatchNorm2d(320, eps=1e-05, momentum=0.1, affine=True,\
  \ track_running_stats=True)\n  (conv1): Conv2d(320, 320, kernel_size=(3, 3), stride=(1,\
  \ 1), padding=(1, 1), bias=False)\n  (bn2): BatchNorm2d(320, eps=1e-05, momentum=0.1,\
  \ affine=True, track_running_stats=True)\n  (conv2): Conv2d(320, 320, kernel_size=(3,\
  \ 3), stride=(1, 1), padding=(1, 1), bias=False)\n))"
: count: 5
  value: 2920770.3588
? "(80, 80, PreActBlock(\n  (bn1): BatchNorm2d(336, eps=1e-05, momentum=0.1, affine=True,\
  \ track_running_stats=True)\n  (conv1): Conv2d(336, 336, kernel_size=(3, 3), stride=(1,\
  \ 1), padding=(1, 1), bias=False)\n  (bn2): BatchNorm2d(336, eps=1e-05, momentum=0.1,\
  \ affine=True, track_running_stats=True)\n  (conv2): Conv2d(336, 336, kernel_size=(3,\
  \ 3), stride=(1, 1), padding=(1, 1), bias=False)\n))"
: count: 5
  value: 2971219.0230000005
? "(80, 80, PreActBlock(\n  (bn1): BatchNorm2d(344, eps=1e-05, momentum=0.1, affine=True,\
  \ track_running_stats=True)\n  (conv1): Conv2d(344, 344, kernel_size=(3, 3), stride=(1,\
  \ 1), padding=(1, 1), bias=False)\n  (bn2): BatchNorm2d(344, eps=1e-05, momentum=0.1,\
  \ affine=True, track_running_stats=True)\n  (conv2): Conv2d(344, 344, kernel_size=(3,\
  \ 3), stride=(1, 1), padding=(1, 1), bias=False)\n))"
: count: 5
  value: 3329759.7958000004
? "(80, 80, PreActBlock(\n  (bn1): BatchNorm2d(360, eps=1e-05, momentum=0.1, affine=True,\
  \ track_running_stats=True)\n  (conv1): Conv2d(360, 360, kernel_size=(3, 3), stride=(1,\
  \ 1), padding=(1, 1), bias=False)\n  (bn2): BatchNorm2d(360, eps=1e-05, momentum=0.1,\
  \ affine=True, track_running_stats=True)\n  (conv2): Conv2d(360, 360, kernel_size=(3,\
  \ 3), stride=(1, 1), padding=(1, 1), bias=False)\n))"
: count: 5
  value: 3278338.7
? "(80, 80, PreActBlock(\n  (bn1): BatchNorm2d(368, eps=1e-05, momentum=0.1, affine=True,\
  \ track_running_stats=True)\n  (conv1): Conv2d(368, 368, kernel_size=(3, 3), stride=(1,\
  \ 1), padding=(1, 1), bias=False)\n  (bn2): BatchNorm2d(368, eps=1e-05, momentum=0.1,\
  \ affine=True, track_running_stats=True)\n  (conv2): Conv2d(368, 368, kernel_size=(3,\
  \ 3), stride=(1, 1), padding=(1, 1), bias=False)\n))"
: count: 5
  value: 4162262.2724000006
? "(80, 80, PreActBlock(\n  (bn1): BatchNorm2d(384, eps=1e-05, momentum=0.1, affine=True,\
  \ track_running_stats=True)\n  (conv1): Conv2d(384, 384, kernel_size=(3, 3), stride=(1,\
  \ 1), padding=(1, 1), bias=False)\n  (bn2): BatchNorm2d(384, eps=1e-05, momentum=0.1,\
  \ affine=True, track_running_stats=True)\n  (conv2): Conv2d(384, 384, kernel_size=(3,\
  \ 3), stride=(1, 1), padding=(1, 1), bias=False)\n))"
: count: 5
  value: 3270451.7822000002
