(112, 112, Conv2d(3, 64, kernel_size=(3, 3), stride=(1, 1), padding=(1, 1), bias=False)):
  count: 105
  value: 5192.389827737862
? "(112, 112, PreActBlock(\n  (bn1): BatchNorm2d(104, eps=1e-05, momentum=0.1, affine=True,\
  \ track_running_stats=True)\n  (conv1): Conv2d(104, 104, kernel_size=(3, 3), stride=(1,\
  \ 1), padding=(1, 1), bias=False)\n  (bn2): BatchNorm2d(104, eps=1e-05, momentum=0.1,\
  \ affine=True, track_running_stats=True)\n  (conv2): Conv2d(104, 104, kernel_size=(3,\
  \ 3), stride=(1, 1), padding=(1, 1), bias=False)\n))"
: count: 5
  value: 47694.52895656738
? "(112, 112, PreActBlock(\n  (bn1): BatchNorm2d(112, eps=1e-05, momentum=0.1, affine=True,\
  \ track_running_stats=True)\n  (conv1): Conv2d(112, 112, kernel_size=(3, 3), stride=(1,\
  \ 1), padding=(1, 1), bias=False)\n  (bn2): BatchNorm2d(112, eps=1e-05, momentum=0.1,\
  \ affine=True, track_running_stats=True)\n  (conv2): Conv2d(112, 112, kernel_size=(3,\
  \ 3), stride=(1, 1), padding=(1, 1), bias=False)\n))"
: count: 10
  value: 51791.63587366639
? "(112, 112, PreActBlock(\n  (bn1): BatchNorm2d(120, eps=1e-05, momentum=0.1, affine=True,\
  \ track_running_stats=True)\n  (conv1): Conv2d(120, 120, kernel_size=(3, 3), stride=(1,\
  \ 1), padding=(1, 1), bias=False)\n  (bn2): BatchNorm2d(120, eps=1e-05, momentum=0.1,\
  \ affine=True, track_running_stats=True)\n  (conv2): Conv2d(120, 120, kernel_size=(3,\
  \ 3), stride=(1, 1), padding=(1, 1), bias=False)\n))"
: count: 5
  value: 56402.273277868655
? "(112, 112, PreActBlock(\n  (bn1): BatchNorm2d(128, eps=1e-05, momentum=0.1, affine=True,\
  \ track_running_stats=True)\n  (conv1): Conv2d(128, 128, kernel_size=(3, 3), stride=(1,\
  \ 1), padding=(1, 1), bias=False)\n  (bn2): BatchNorm2d(128, eps=1e-05, momentum=0.1,\
  \ affine=True, track_running_stats=True)\n  (conv2): Conv2d(128, 128, kernel_size=(3,\
  \ 3), stride=(1, 1), padding=(1, 1), bias=False)\n))"
: count: 5
  value: 59786.49518485718
? "(112, 112, PreActBlock(\n  (bn1): BatchNorm2d(136, eps=1e-05, momentum=0.1, affine=True,\
  \ track_running_stats=True)\n  (conv1): Conv2d(136, 136, kernel_size=(3, 3), stride=(1,\
  \ 1), padding=(1, 1), bias=False)\n  (bn2): BatchNorm2d(136, eps=1e-05, momentum=0.1,\
  \ affine=True, track_running_stats=True)\n  (conv2): Conv2d(136, 136, kernel_size=(3,\
  \ 3), stride=(1, 1), padding=(1, 1), bias=False)\n))"
: count: 5
  value: 81641.7576220703
? "(112, 112, PreActBlock(\n  (bn1): BatchNorm2d(144, eps=1e-05, momentum=0.1, affine=True,\
  \ track_running_stats=True)\n  (conv1): Conv2d(144, 144, kernel_size=(3, 3), stride=(1,\
  \ 1), padding=(1, 1), bias=False)\n  (bn2): BatchNorm2d(144, eps=1e-05, momentum=0.1,\
  \ affine=True, track_running_stats=True)\n  (conv2): Conv2d(144, 144, kernel_size=(3,\
  \ 3), stride=(1, 1), padding=(1, 1), bias=False)\n))"
: count: 10
  value: 80408.93802910768
? "(112, 112, PreActBlock(\n  (bn1): BatchNorm2d(152, eps=1e-05, momentum=0.1, affine=True,\
  \ track_running_stats=True)\n  (conv1): Conv2d(152, 152, kernel_size=(3, 3), stride=(1,\
  \ 1), padding=(1, 1), bias=False)\n  (bn2): BatchNorm2d(152, eps=1e-05, momentum=0.1,\
  \ affine=True, track_running_stats=True)\n  (conv2): Conv2d(152, 152, kernel_size=(3,\
  \ 3), stride=(1, 1), padding=(1, 1), bias=False)\n))"
: count: 5
  value: 85022.31593173828
? "(112, 112, PreActBlock(\n  (bn1): BatchNorm2d(160, eps=1e-05, momentum=0.1, affine=True,\
  \ track_running_stats=True)\n  (conv1): Conv2d(160, 160, kernel_size=(3, 3), stride=(1,\
  \ 1), padding=(1, 1), bias=False)\n  (bn2): BatchNorm2d(160, eps=1e-05, momentum=0.1,\
  \ affine=True, track_running_stats=True)\n  (conv2): Conv2d(160, 160, kernel_size=(3,\
  \ 3), stride=(1, 1), padding=(1, 1), bias=False)\n))"
: count: 5
  value: 108872.20162805787
? "(112, 112, PreActBlock(\n  (bn1): BatchNorm2d(168, eps=1e-05, momentum=0.1, affine=True,\
  \ track_running_stats=True)\n  (conv1): Conv2d(168, 168, kernel_size=(3, 3), stride=(1,\
  \ 1), padding=(1, 1), bias=False)\n  (bn2): BatchNorm2d(168, eps=1e-05, momentum=0.1,\
  \ affine=True, track_running_stats=True)\n  (conv2): Conv2d(168, 168, kernel_size=(3,\
  \ 3), stride=(1, 1), padding=(1, 1), bias=False)\n))"
: count: 5
  value: 116865.57168207396
? "(112, 112, PreActBlock(\n  (bn1): BatchNorm2d(176, eps=1e-05, momentum=0.1, affine=True,\
  \ track_running_stats=True)\n  (conv1): Conv2d(176, 176, kernel_size=(3, 3), stride=(1,\
  \ 1), padding=(1, 1), bias=False)\n  (bn2): BatchNorm2d(176, eps=1e-05, momentum=0.1,\
  \ affine=True, track_running_stats=True)\n  (conv2): Conv2d(176, 176, kernel_size=(3,\
  \ 3), stride=(1, 1), padding=(1, 1), bias=False)\n))"
: count: 10
  value: 117628.43294208373
? "(112, 112, PreActBlock(\n  (bn1): BatchNorm2d(184, eps=1e-05, momentum=0.1, affine=True,\
  \ track_running_stats=True)\n  (conv1): Conv2d(184, 184, kernel_size=(3, 3), stride=(1,\
  \ 1), padding=(1, 1), bias=False)\n  (bn2): BatchNorm2d(184, eps=1e-05, momentum=0.1,\
  \ affine=True, track_running_stats=True)\n  (conv2): Conv2d(184, 184, kernel_size=(3,\
  \ 3), stride=(1, 1), padding=(1, 1), bias=False)\n))"
: count: 5
  value: 122110.39773270264
? "(112, 112, PreActBlock(\n  (bn1): BatchNorm2d(192, eps=1e-05, momentum=0.1, affine=True,\
  \ track_running_stats=True)\n  (conv1): Conv2d(192, 192, kernel_size=(3, 3), stride=(1,\
  \ 1), padding=(1, 1), bias=False)\n  (bn2): BatchNorm2d(192, eps=1e-05, momentum=0.1,\
  \ affine=True, track_running_stats=True)\n  (conv2): Conv2d(192, 192, kernel_size=(3,\
  \ 3), stride=(1, 1), padding=(1, 1), bias=False)\n))"
: count: 5
  value: 126742.62114385985
? "(112, 112, PreActBlock(\n  (bn1): BatchNorm2d(64, eps=1e-05, momentum=0.1, affine=True,\
  \ track_running_stats=True)\n  (conv1): Conv2d(64, 104, kernel_size=(3, 3), stride=(1,\
  \ 1), padding=(1, 1), bias=False)\n  (bn2): BatchNorm2d(104, eps=1e-05, momentum=0.1,\
  \ affine=True, track_running_stats=True)\n  (conv2): Conv2d(104, 104, kernel_size=(3,\
  \ 3), stride=(1, 1), padding=(1, 1), bias=False)\n  (shortcut): Sequential(\n  \
  \  (0): Conv2d(64, 104, kernel_size=(1, 1), stride=(1, 1), bias=False)\n  )\n))"
: count: 5
  value: 52548.363942999276
? "(112, 112, PreActBlock(\n  (bn1): BatchNorm2d(64, eps=1e-05, momentum=0.1, affine=True,\
  \ track_running_stats=True)\n  (conv1): Conv2d(64, 112, kernel_size=(3, 3), stride=(1,\
  \ 1), padding=(1, 1), bias=False)\n  (bn2): BatchNorm2d(112, eps=1e-05, momentum=0.1,\
  \ affine=True, track_running_stats=True)\n  (conv2): Conv2d(112, 112, kernel_size=(3,\
  \ 3), stride=(1, 1), padding=(1, 1), bias=False)\n  (shortcut): Sequential(\n  \
  \  (0): Conv2d(64, 112, kernel_size=(1, 1), stride=(1, 1), bias=False)\n  )\n))"
: count: 10
  value: 53238.74988974916
? "(112, 112, PreActBlock(\n  (bn1): BatchNorm2d(64, eps=1e-05, momentum=0.1, affine=True,\
  \ track_running_stats=True)\n  (conv1): Conv2d(64, 120, kernel_size=(3, 3), stride=(1,\
  \ 1), padding=(1, 1), bias=False)\n  (bn2): BatchNorm2d(120, eps=1e-05, momentum=0.1,\
  \ affine=True, track_running_stats=True)\n  (conv2): Conv2d(120, 120, kernel_size=(3,\
  \ 3), stride=(1, 1), padding=(1, 1), bias=False)\n  (shortcut): Sequential(\n  \
  \  (0): Conv2d(64, 120, kernel_size=(1, 1), stride=(1, 1), bias=False)\n  )\n))"
: count: 5
  value: 62886.50390696411
? "(112, 112, PreActBlock(\n  (bn1): BatchNorm2d(64, eps=1e-05, momentum=0.1, affine=True,\
  \ track_running_stats=True)\n  (conv1): Conv2d(64, 128, kernel_size=(3, 3), stride=(1,\
  \ 1), padding=(1, 1), bias=False)\n  (bn2): BatchNorm2d(128, eps=1e-05, momentum=0.1,\
  \ affine=True, track_running_stats=True)\n  (conv2): Conv2d(128, 128, kernel_size=(3,\
  \ 3), stride=(1, 1), padding=(1, 1), bias=False)\n  (shortcut): Sequential(\n  \
  \  (0): Conv2d(64, 128, kernel_size=(1, 1), stride=(1, 1), bias=False)\n  )\n))"
: count: 5
  value: 65226.56548657837
? "(112, 112, PreActBlock(\n  (bn1): BatchNorm2d(64, eps=1e-05, momentum=0.1, affine=True,\
  \ track_running_stats=True)\n  (conv1): Conv2d(64, 136, kernel_size=(3, 3), stride=(1,\
  \ 1), padding=(1, 1), bias=False)\n  (bn2): BatchNorm2d(136, eps=1e-05, momentum=0.1,\
  \ affine=True, track_running_stats=True)\n  (conv2): Conv2d(136, 136, kernel_size=(3,\
  \ 3), stride=(1, 1), padding=(1, 1), bias=False)\n  (shortcut): Sequential(\n  \
  \  (0): Conv2d(64, 136, kernel_size=(1, 1), stride=(1, 1), bias=False)\n  )\n))"
: count: 5
  value: 81252.49750333863
? "(112, 112, PreActBlock(\n  (bn1): BatchNorm2d(64, eps=1e-05, momentum=0.1, affine=True,\
  \ track_running_stats=True)\n  (conv1): Conv2d(64, 144, kernel_size=(3, 3), stride=(1,\
  \ 1), padding=(1, 1), bias=False)\n  (bn2): BatchNorm2d(144, eps=1e-05, momentum=0.1,\
  \ affine=True, track_running_stats=True)\n  (conv2): Conv2d(144, 144, kernel_size=(3,\
  \ 3), stride=(1, 1), padding=(1, 1), bias=False)\n  (shortcut): Sequential(\n  \
  \  (0): Conv2d(64, 144, kernel_size=(1, 1), stride=(1, 1), bias=False)\n  )\n))"
: count: 10
  value: 76898.4597634033
? "(112, 112, PreActBlock(\n  (bn1): BatchNorm2d(64, eps=1e-05, momentum=0.1, affine=True,\
  \ track_running_stats=True)\n  (conv1): Conv2d(64, 152, kernel_size=(3, 3), stride=(1,\
  \ 1), padding=(1, 1), bias=False)\n  (bn2): BatchNorm2d(152, eps=1e-05, momentum=0.1,\
  \ affine=True, track_running_stats=True)\n  (conv2): Conv2d(152, 152, kernel_size=(3,\
  \ 3), stride=(1, 1), padding=(1, 1), bias=False)\n  (shortcut): Sequential(\n  \
  \  (0): Conv2d(64, 152, kernel_size=(1, 1), stride=(1, 1), bias=False)\n  )\n))"
: count: 5
  value: 81717.6230928833
? "(112, 112, PreActBlock(\n  (bn1): BatchNorm2d(64, eps=1e-05, momentum=0.1, affine=True,\
  \ track_running_stats=True)\n  (conv1): Conv2d(64, 160, kernel_size=(3, 3), stride=(1,\
  \ 1), padding=(1, 1), bias=False)\n  (bn2): BatchNorm2d(160, eps=1e-05, momentum=0.1,\
  \ affine=True, track_running_stats=True)\n  (conv2): Conv2d(160, 160, kernel_size=(3,\
  \ 3), stride=(1, 1), padding=(1, 1), bias=False)\n  (shortcut): Sequential(\n  \
  \  (0): Conv2d(64, 160, kernel_size=(1, 1), stride=(1, 1), bias=False)\n  )\n))"
: count: 5
  value: 97763.45938436889
? "(112, 112, PreActBlock(\n  (bn1): BatchNorm2d(64, eps=1e-05, momentum=0.1, affine=True,\
  \ track_running_stats=True)\n  (conv1): Conv2d(64, 168, kernel_size=(3, 3), stride=(1,\
  \ 1), padding=(1, 1), bias=False)\n  (bn2): BatchNorm2d(168, eps=1e-05, momentum=0.1,\
  \ affine=True, track_running_stats=True)\n  (conv2): Conv2d(168, 168, kernel_size=(3,\
  \ 3), stride=(1, 1), padding=(1, 1), bias=False)\n  (shortcut): Sequential(\n  \
  \  (0): Conv2d(64, 168, kernel_size=(1, 1), stride=(1, 1), bias=False)\n  )\n))"
: count: 5
  value: 101249.39165583497
? "(112, 112, PreActBlock(\n  (bn1): BatchNorm2d(64, eps=1e-05, momentum=0.1, affine=True,\
  \ track_running_stats=True)\n  (conv1): Conv2d(64, 176, kernel_size=(3, 3), stride=(1,\
  \ 1), padding=(1, 1), bias=False)\n  (bn2): BatchNorm2d(176, eps=1e-05, momentum=0.1,\
  \ affine=True, track_running_stats=True)\n  (conv2): Conv2d(176, 176, kernel_size=(3,\
  \ 3), stride=(1, 1), padding=(1, 1), bias=False)\n  (shortcut): Sequential(\n  \
  \  (0): Conv2d(64, 176, kernel_size=(1, 1), stride=(1, 1), bias=False)\n  )\n))"
: count: 10
  value: 100180.50082106325
? "(112, 112, PreActBlock(\n  (bn1): BatchNorm2d(64, eps=1e-05, momentum=0.1, affine=True,\
  \ track_running_stats=True)\n  (conv1): Conv2d(64, 184, kernel_size=(3, 3), stride=(1,\
  \ 1), padding=(1, 1), bias=False)\n  (bn2): BatchNorm2d(184, eps=1e-05, momentum=0.1,\
  \ affine=True, track_running_stats=True)\n  (conv2): Conv2d(184, 184, kernel_size=(3,\
  \ 3), stride=(1, 1), padding=(1, 1), bias=False)\n  (shortcut): Sequential(\n  \
  \  (0): Conv2d(64, 184, kernel_size=(1, 1), stride=(1, 1), bias=False)\n  )\n))"
: count: 5
  value: 104463.08812548828
? "(112, 112, PreActBlock(\n  (bn1): BatchNorm2d(64, eps=1e-05, momentum=0.1, affine=True,\
  \ track_running_stats=True)\n  (conv1): Conv2d(64, 192, kernel_size=(3, 3), stride=(1,\
  \ 1), padding=(1, 1), bias=False)\n  (bn2): BatchNorm2d(192, eps=1e-05, momentum=0.1,\
  \ affine=True, track_running_stats=True)\n  (conv2): Conv2d(192, 192, kernel_size=(3,\
  \ 3), stride=(1, 1), padding=(1, 1), bias=False)\n  (shortcut): Sequential(\n  \
  \  (0): Conv2d(64, 192, kernel_size=(1, 1), stride=(1, 1), bias=False)\n  )\n))"
: count: 5
  value: 107191.58940230103
? "(112, 112, PreActBlock(\n  (bn1): BatchNorm2d(64, eps=1e-05, momentum=0.1, affine=True,\
  \ track_running_stats=True)\n  (conv1): Conv2d(64, 64, kernel_size=(3, 3), stride=(1,\
  \ 1), padding=(1, 1), bias=False)\n  (bn2): BatchNorm2d(64, eps=1e-05, momentum=0.1,\
  \ affine=True, track_running_stats=True)\n  (conv2): Conv2d(64, 64, kernel_size=(3,\
  \ 3), stride=(1, 1), padding=(1, 1), bias=False)\n))"
: count: 10
  value: 14732.073234370424
? "(112, 112, PreActBlock(\n  (bn1): BatchNorm2d(64, eps=1e-05, momentum=0.1, affine=True,\
  \ track_running_stats=True)\n  (conv1): Conv2d(64, 72, kernel_size=(3, 3), stride=(1,\
  \ 1), padding=(1, 1), bias=False)\n  (bn2): BatchNorm2d(72, eps=1e-05, momentum=0.1,\
  \ affine=True, track_running_stats=True)\n  (conv2): Conv2d(72, 72, kernel_size=(3,\
  \ 3), stride=(1, 1), padding=(1, 1), bias=False)\n  (shortcut): Sequential(\n  \
  \  (0): Conv2d(64, 72, kernel_size=(1, 1), stride=(1, 1), bias=False)\n  )\n))"
: count: 5
  value: 49004.01391950684
? "(112, 112, PreActBlock(\n  (bn1): BatchNorm2d(64, eps=1e-05, momentum=0.1, affine=True,\
  \ track_running_stats=True)\n  (conv1): Conv2d(64, 80, kernel_size=(3, 3), stride=(1,\
  \ 1), padding=(1, 1), bias=False)\n  (bn2): BatchNorm2d(80, eps=1e-05, momentum=0.1,\
  \ affine=True, track_running_stats=True)\n  (conv2): Conv2d(80, 80, kernel_size=(3,\
  \ 3), stride=(1, 1), padding=(1, 1), bias=False)\n  (shortcut): Sequential(\n  \
  \  (0): Conv2d(64, 80, kernel_size=(1, 1), stride=(1, 1), bias=False)\n  )\n))"
: count: 10
  value: 84325.83408502195
? "(112, 112, PreActBlock(\n  (bn1): BatchNorm2d(64, eps=1e-05, momentum=0.1, affine=True,\
  \ track_running_stats=True)\n  (conv1): Conv2d(64, 88, kernel_size=(3, 3), stride=(1,\
  \ 1), padding=(1, 1), bias=False)\n  (bn2): BatchNorm2d(88, eps=1e-05, momentum=0.1,\
  \ affine=True, track_running_stats=True)\n  (conv2): Conv2d(88, 88, kernel_size=(3,\
  \ 3), stride=(1, 1), padding=(1, 1), bias=False)\n  (shortcut): Sequential(\n  \
  \  (0): Conv2d(64, 88, kernel_size=(1, 1), stride=(1, 1), bias=False)\n  )\n))"
: count: 5
  value: 50797.24760086671
? "(112, 112, PreActBlock(\n  (bn1): BatchNorm2d(64, eps=1e-05, momentum=0.1, affine=True,\
  \ track_running_stats=True)\n  (conv1): Conv2d(64, 96, kernel_size=(3, 3), stride=(1,\
  \ 1), padding=(1, 1), bias=False)\n  (bn2): BatchNorm2d(96, eps=1e-05, momentum=0.1,\
  \ affine=True, track_running_stats=True)\n  (conv2): Conv2d(96, 96, kernel_size=(3,\
  \ 3), stride=(1, 1), padding=(1, 1), bias=False)\n  (shortcut): Sequential(\n  \
  \  (0): Conv2d(64, 96, kernel_size=(1, 1), stride=(1, 1), bias=False)\n  )\n))"
: count: 5
  value: 52045.17283518067
? "(112, 112, PreActBlock(\n  (bn1): BatchNorm2d(72, eps=1e-05, momentum=0.1, affine=True,\
  \ track_running_stats=True)\n  (conv1): Conv2d(72, 72, kernel_size=(3, 3), stride=(1,\
  \ 1), padding=(1, 1), bias=False)\n  (bn2): BatchNorm2d(72, eps=1e-05, momentum=0.1,\
  \ affine=True, track_running_stats=True)\n  (conv2): Conv2d(72, 72, kernel_size=(3,\
  \ 3), stride=(1, 1), padding=(1, 1), bias=False)\n))"
: count: 5
  value: 40656.33079425049
? "(112, 112, PreActBlock(\n  (bn1): BatchNorm2d(80, eps=1e-05, momentum=0.1, affine=True,\
  \ track_running_stats=True)\n  (conv1): Conv2d(80, 80, kernel_size=(3, 3), stride=(1,\
  \ 1), padding=(1, 1), bias=False)\n  (bn2): BatchNorm2d(80, eps=1e-05, momentum=0.1,\
  \ affine=True, track_running_stats=True)\n  (conv2): Conv2d(80, 80, kernel_size=(3,\
  \ 3), stride=(1, 1), padding=(1, 1), bias=False)\n))"
: count: 10
  value: 113104.88802922668
? "(112, 112, PreActBlock(\n  (bn1): BatchNorm2d(88, eps=1e-05, momentum=0.1, affine=True,\
  \ track_running_stats=True)\n  (conv1): Conv2d(88, 88, kernel_size=(3, 3), stride=(1,\
  \ 1), padding=(1, 1), bias=False)\n  (bn2): BatchNorm2d(88, eps=1e-05, momentum=0.1,\
  \ affine=True, track_running_stats=True)\n  (conv2): Conv2d(88, 88, kernel_size=(3,\
  \ 3), stride=(1, 1), padding=(1, 1), bias=False)\n))"
: count: 5
  value: 43223.333928179934
? "(112, 112, PreActBlock(\n  (bn1): BatchNorm2d(96, eps=1e-05, momentum=0.1, affine=True,\
  \ track_running_stats=True)\n  (conv1): Conv2d(96, 96, kernel_size=(3, 3), stride=(1,\
  \ 1), padding=(1, 1), bias=False)\n  (bn2): BatchNorm2d(96, eps=1e-05, momentum=0.1,\
  \ affine=True, track_running_stats=True)\n  (conv2): Conv2d(96, 96, kernel_size=(3,\
  \ 3), stride=(1, 1), padding=(1, 1), bias=False)\n))"
: count: 5
  value: 47235.36717460328
? "(112, 56, PreActBlock(\n  (bn1): BatchNorm2d(104, eps=1e-05, momentum=0.1, affine=True,\
  \ track_running_stats=True)\n  (conv1): Conv2d(104, 208, kernel_size=(3, 3), stride=(2,\
  \ 2), padding=(1, 1), bias=False)\n  (bn2): BatchNorm2d(208, eps=1e-05, momentum=0.1,\
  \ affine=True, track_running_stats=True)\n  (conv2): Conv2d(208, 208, kernel_size=(3,\
  \ 3), stride=(1, 1), padding=(1, 1), bias=False)\n  (shortcut): Sequential(\n  \
  \  (0): Conv2d(104, 208, kernel_size=(1, 1), stride=(2, 2), bias=False)\n  )\n))"
: count: 5
  value: 49579.907468670644
? "(112, 56, PreActBlock(\n  (bn1): BatchNorm2d(112, eps=1e-05, momentum=0.1, affine=True,\
  \ track_running_stats=True)\n  (conv1): Conv2d(112, 216, kernel_size=(3, 3), stride=(2,\
  \ 2), padding=(1, 1), bias=False)\n  (bn2): BatchNorm2d(216, eps=1e-05, momentum=0.1,\
  \ affine=True, track_running_stats=True)\n  (conv2): Conv2d(216, 216, kernel_size=(3,\
  \ 3), stride=(1, 1), padding=(1, 1), bias=False)\n  (shortcut): Sequential(\n  \
  \  (0): Conv2d(112, 216, kernel_size=(1, 1), stride=(2, 2), bias=False)\n  )\n))"
: count: 5
  value: 52278.86794196778
? "(112, 56, PreActBlock(\n  (bn1): BatchNorm2d(112, eps=1e-05, momentum=0.1, affine=True,\
  \ track_running_stats=True)\n  (conv1): Conv2d(112, 232, kernel_size=(3, 3), stride=(2,\
  \ 2), padding=(1, 1), bias=False)\n  (bn2): BatchNorm2d(232, eps=1e-05, momentum=0.1,\
  \ affine=True, track_running_stats=True)\n  (conv2): Conv2d(232, 232, kernel_size=(3,\
  \ 3), stride=(1, 1), padding=(1, 1), bias=False)\n  (shortcut): Sequential(\n  \
  \  (0): Conv2d(112, 232, kernel_size=(1, 1), stride=(2, 2), bias=False)\n  )\n))"
: count: 5
  value: 55282.75042578735
? "(112, 56, PreActBlock(\n  (bn1): BatchNorm2d(120, eps=1e-05, momentum=0.1, affine=True,\
  \ track_running_stats=True)\n  (conv1): Conv2d(120, 240, kernel_size=(3, 3), stride=(2,\
  \ 2), padding=(1, 1), bias=False)\n  (bn2): BatchNorm2d(240, eps=1e-05, momentum=0.1,\
  \ affine=True, track_running_stats=True)\n  (conv2): Conv2d(240, 240, kernel_size=(3,\
  \ 3), stride=(1, 1), padding=(1, 1), bias=False)\n  (shortcut): Sequential(\n  \
  \  (0): Conv2d(120, 240, kernel_size=(1, 1), stride=(2, 2), bias=False)\n  )\n))"
: count: 5
  value: 58169.3478626648
? "(112, 56, PreActBlock(\n  (bn1): BatchNorm2d(128, eps=1e-05, momentum=0.1, affine=True,\
  \ track_running_stats=True)\n  (conv1): Conv2d(128, 256, kernel_size=(3, 3), stride=(2,\
  \ 2), padding=(1, 1), bias=False)\n  (bn2): BatchNorm2d(256, eps=1e-05, momentum=0.1,\
  \ affine=True, track_running_stats=True)\n  (conv2): Conv2d(256, 256, kernel_size=(3,\
  \ 3), stride=(1, 1), padding=(1, 1), bias=False)\n  (shortcut): Sequential(\n  \
  \  (0): Conv2d(128, 256, kernel_size=(1, 1), stride=(2, 2), bias=False)\n  )\n))"
: count: 5
  value: 60532.27390276489
? "(112, 56, PreActBlock(\n  (bn1): BatchNorm2d(136, eps=1e-05, momentum=0.1, affine=True,\
  \ track_running_stats=True)\n  (conv1): Conv2d(136, 272, kernel_size=(3, 3), stride=(2,\
  \ 2), padding=(1, 1), bias=False)\n  (bn2): BatchNorm2d(272, eps=1e-05, momentum=0.1,\
  \ affine=True, track_running_stats=True)\n  (conv2): Conv2d(272, 272, kernel_size=(3,\
  \ 3), stride=(1, 1), padding=(1, 1), bias=False)\n  (shortcut): Sequential(\n  \
  \  (0): Conv2d(136, 272, kernel_size=(1, 1), stride=(2, 2), bias=False)\n  )\n))"
: count: 5
  value: 71292.49090497437
? "(112, 56, PreActBlock(\n  (bn1): BatchNorm2d(144, eps=1e-05, momentum=0.1, affine=True,\
  \ track_running_stats=True)\n  (conv1): Conv2d(144, 280, kernel_size=(3, 3), stride=(2,\
  \ 2), padding=(1, 1), bias=False)\n  (bn2): BatchNorm2d(280, eps=1e-05, momentum=0.1,\
  \ affine=True, track_running_stats=True)\n  (conv2): Conv2d(280, 280, kernel_size=(3,\
  \ 3), stride=(1, 1), padding=(1, 1), bias=False)\n  (shortcut): Sequential(\n  \
  \  (0): Conv2d(144, 280, kernel_size=(1, 1), stride=(2, 2), bias=False)\n  )\n))"
: count: 5
  value: 69492.44445985107
? "(112, 56, PreActBlock(\n  (bn1): BatchNorm2d(144, eps=1e-05, momentum=0.1, affine=True,\
  \ track_running_stats=True)\n  (conv1): Conv2d(144, 296, kernel_size=(3, 3), stride=(2,\
  \ 2), padding=(1, 1), bias=False)\n  (bn2): BatchNorm2d(296, eps=1e-05, momentum=0.1,\
  \ affine=True, track_running_stats=True)\n  (conv2): Conv2d(296, 296, kernel_size=(3,\
  \ 3), stride=(1, 1), padding=(1, 1), bias=False)\n  (shortcut): Sequential(\n  \
  \  (0): Conv2d(144, 296, kernel_size=(1, 1), stride=(2, 2), bias=False)\n  )\n))"
: count: 5
  value: 73853.02623030396
? "(112, 56, PreActBlock(\n  (bn1): BatchNorm2d(152, eps=1e-05, momentum=0.1, affine=True,\
  \ track_running_stats=True)\n  (conv1): Conv2d(152, 304, kernel_size=(3, 3), stride=(2,\
  \ 2), padding=(1, 1), bias=False)\n  (bn2): BatchNorm2d(304, eps=1e-05, momentum=0.1,\
  \ affine=True, track_running_stats=True)\n  (conv2): Conv2d(304, 304, kernel_size=(3,\
  \ 3), stride=(1, 1), padding=(1, 1), bias=False)\n  (shortcut): Sequential(\n  \
  \  (0): Conv2d(152, 304, kernel_size=(1, 1), stride=(2, 2), bias=False)\n  )\n))"
: count: 5
  value: 76483.77545123291
? "(112, 56, PreActBlock(\n  (bn1): BatchNorm2d(160, eps=1e-05, momentum=0.1, affine=True,\
  \ track_running_stats=True)\n  (conv1): Conv2d(160, 320, kernel_size=(3, 3), stride=(2,\
  \ 2), padding=(1, 1), bias=False)\n  (bn2): BatchNorm2d(320, eps=1e-05, momentum=0.1,\
  \ affine=True, track_running_stats=True)\n  (conv2): Conv2d(320, 320, kernel_size=(3,\
  \ 3), stride=(1, 1), padding=(1, 1), bias=False)\n  (shortcut): Sequential(\n  \
  \  (0): Conv2d(160, 320, kernel_size=(1, 1), stride=(2, 2), bias=False)\n  )\n))"
: count: 5
  value: 78822.90425392456
? "(112, 56, PreActBlock(\n  (bn1): BatchNorm2d(168, eps=1e-05, momentum=0.1, affine=True,\
  \ track_running_stats=True)\n  (conv1): Conv2d(168, 336, kernel_size=(3, 3), stride=(2,\
  \ 2), padding=(1, 1), bias=False)\n  (bn2): BatchNorm2d(336, eps=1e-05, momentum=0.1,\
  \ affine=True, track_running_stats=True)\n  (conv2): Conv2d(336, 336, kernel_size=(3,\
  \ 3), stride=(1, 1), padding=(1, 1), bias=False)\n  (shortcut): Sequential(\n  \
  \  (0): Conv2d(168, 336, kernel_size=(1, 1), stride=(2, 2), bias=False)\n  )\n))"
: count: 5
  value: 85552.10267666625
? "(112, 56, PreActBlock(\n  (bn1): BatchNorm2d(176, eps=1e-05, momentum=0.1, affine=True,\
  \ track_running_stats=True)\n  (conv1): Conv2d(176, 344, kernel_size=(3, 3), stride=(2,\
  \ 2), padding=(1, 1), bias=False)\n  (bn2): BatchNorm2d(344, eps=1e-05, momentum=0.1,\
  \ affine=True, track_running_stats=True)\n  (conv2): Conv2d(344, 344, kernel_size=(3,\
  \ 3), stride=(1, 1), padding=(1, 1), bias=False)\n  (shortcut): Sequential(\n  \
  \  (0): Conv2d(176, 344, kernel_size=(1, 1), stride=(2, 2), bias=False)\n  )\n))"
: count: 5
  value: 86216.10588897704
? "(112, 56, PreActBlock(\n  (bn1): BatchNorm2d(176, eps=1e-05, momentum=0.1, affine=True,\
  \ track_running_stats=True)\n  (conv1): Conv2d(176, 360, kernel_size=(3, 3), stride=(2,\
  \ 2), padding=(1, 1), bias=False)\n  (bn2): BatchNorm2d(360, eps=1e-05, momentum=0.1,\
  \ affine=True, track_running_stats=True)\n  (conv2): Conv2d(360, 360, kernel_size=(3,\
  \ 3), stride=(1, 1), padding=(1, 1), bias=False)\n  (shortcut): Sequential(\n  \
  \  (0): Conv2d(176, 360, kernel_size=(1, 1), stride=(2, 2), bias=False)\n  )\n))"
: count: 5
  value: 91294.36394178467
? "(112, 56, PreActBlock(\n  (bn1): BatchNorm2d(184, eps=1e-05, momentum=0.1, affine=True,\
  \ track_running_stats=True)\n  (conv1): Conv2d(184, 368, kernel_size=(3, 3), stride=(2,\
  \ 2), padding=(1, 1), bias=False)\n  (bn2): BatchNorm2d(368, eps=1e-05, momentum=0.1,\
  \ affine=True, track_running_stats=True)\n  (conv2): Conv2d(368, 368, kernel_size=(3,\
  \ 3), stride=(1, 1), padding=(1, 1), bias=False)\n  (shortcut): Sequential(\n  \
  \  (0): Conv2d(184, 368, kernel_size=(1, 1), stride=(2, 2), bias=False)\n  )\n))"
: count: 5
  value: 93576.56482142335
? "(112, 56, PreActBlock(\n  (bn1): BatchNorm2d(192, eps=1e-05, momentum=0.1, affine=True,\
  \ track_running_stats=True)\n  (conv1): Conv2d(192, 384, kernel_size=(3, 3), stride=(2,\
  \ 2), padding=(1, 1), bias=False)\n  (bn2): BatchNorm2d(384, eps=1e-05, momentum=0.1,\
  \ affine=True, track_running_stats=True)\n  (conv2): Conv2d(384, 384, kernel_size=(3,\
  \ 3), stride=(1, 1), padding=(1, 1), bias=False)\n  (shortcut): Sequential(\n  \
  \  (0): Conv2d(192, 384, kernel_size=(1, 1), stride=(2, 2), bias=False)\n  )\n))"
: count: 5
  value: 97187.18624526367
? "(112, 56, PreActBlock(\n  (bn1): BatchNorm2d(64, eps=1e-05, momentum=0.1, affine=True,\
  \ track_running_stats=True)\n  (conv1): Conv2d(64, 128, kernel_size=(3, 3), stride=(2,\
  \ 2), padding=(1, 1), bias=False)\n  (bn2): BatchNorm2d(128, eps=1e-05, momentum=0.1,\
  \ affine=True, track_running_stats=True)\n  (conv2): Conv2d(128, 128, kernel_size=(3,\
  \ 3), stride=(1, 1), padding=(1, 1), bias=False)\n  (shortcut): Sequential(\n  \
  \  (0): Conv2d(64, 128, kernel_size=(1, 1), stride=(2, 2), bias=False)\n  )\n))"
: count: 5
  value: 35950.70287329712
? "(112, 56, PreActBlock(\n  (bn1): BatchNorm2d(72, eps=1e-05, momentum=0.1, affine=True,\
  \ track_running_stats=True)\n  (conv1): Conv2d(72, 144, kernel_size=(3, 3), stride=(2,\
  \ 2), padding=(1, 1), bias=False)\n  (bn2): BatchNorm2d(144, eps=1e-05, momentum=0.1,\
  \ affine=True, track_running_stats=True)\n  (conv2): Conv2d(144, 144, kernel_size=(3,\
  \ 3), stride=(1, 1), padding=(1, 1), bias=False)\n  (shortcut): Sequential(\n  \
  \  (0): Conv2d(72, 144, kernel_size=(1, 1), stride=(2, 2), bias=False)\n  )\n))"
: count: 5
  value: 42813.85366334838
? "(112, 56, PreActBlock(\n  (bn1): BatchNorm2d(80, eps=1e-05, momentum=0.1, affine=True,\
  \ track_running_stats=True)\n  (conv1): Conv2d(80, 152, kernel_size=(3, 3), stride=(2,\
  \ 2), padding=(1, 1), bias=False)\n  (bn2): BatchNorm2d(152, eps=1e-05, momentum=0.1,\
  \ affine=True, track_running_stats=True)\n  (conv2): Conv2d(152, 152, kernel_size=(3,\
  \ 3), stride=(1, 1), padding=(1, 1), bias=False)\n  (shortcut): Sequential(\n  \
  \  (0): Conv2d(80, 152, kernel_size=(1, 1), stride=(2, 2), bias=False)\n  )\n))"
: count: 5
  value: 44248.16898806152
? "(112, 56, PreActBlock(\n  (bn1): BatchNorm2d(80, eps=1e-05, momentum=0.1, affine=True,\
  \ track_running_stats=True)\n  (conv1): Conv2d(80, 168, kernel_size=(3, 3), stride=(2,\
  \ 2), padding=(1, 1), bias=False)\n  (bn2): BatchNorm2d(168, eps=1e-05, momentum=0.1,\
  \ affine=True, track_running_stats=True)\n  (conv2): Conv2d(168, 168, kernel_size=(3,\
  \ 3), stride=(1, 1), padding=(1, 1), bias=False)\n  (shortcut): Sequential(\n  \
  \  (0): Conv2d(80, 168, kernel_size=(1, 1), stride=(2, 2), bias=False)\n  )\n))"
: count: 5
  value: 47353.46714049073
? "(112, 56, PreActBlock(\n  (bn1): BatchNorm2d(88, eps=1e-05, momentum=0.1, affine=True,\
  \ track_running_stats=True)\n  (conv1): Conv2d(88, 176, kernel_size=(3, 3), stride=(2,\
  \ 2), padding=(1, 1), bias=False)\n  (bn2): BatchNorm2d(176, eps=1e-05, momentum=0.1,\
  \ affine=True, track_running_stats=True)\n  (conv2): Conv2d(176, 176, kernel_size=(3,\
  \ 3), stride=(1, 1), padding=(1, 1), bias=False)\n  (shortcut): Sequential(\n  \
  \  (0): Conv2d(88, 176, kernel_size=(1, 1), stride=(2, 2), bias=False)\n  )\n))"
: count: 5
  value: 46883.5513428955
? "(112, 56, PreActBlock(\n  (bn1): BatchNorm2d(96, eps=1e-05, momentum=0.1, affine=True,\
  \ track_running_stats=True)\n  (conv1): Conv2d(96, 192, kernel_size=(3, 3), stride=(2,\
  \ 2), padding=(1, 1), bias=False)\n  (bn2): BatchNorm2d(192, eps=1e-05, momentum=0.1,\
  \ affine=True, track_running_stats=True)\n  (conv2): Conv2d(192, 192, kernel_size=(3,\
  \ 3), stride=(1, 1), padding=(1, 1), bias=False)\n  (shortcut): Sequential(\n  \
  \  (0): Conv2d(96, 192, kernel_size=(1, 1), stride=(2, 2), bias=False)\n  )\n))"
: count: 5
  value: 48543.06462241211
(14, 14, Linear(in_features=1024, out_features=100, bias=True)):
  count: 5
  value: 755.7326060058595
(14, 14, Linear(in_features=1072, out_features=100, bias=True)):
  count: 5
  value: 876.7704025878905
(14, 14, Linear(in_features=1128, out_features=100, bias=True)):
  count: 5
  value: 887.6505912353516
…
(14, 14, Linear(in_features=720, out_features=100, bias=True)):
  count: 5
  value: 844.7440028808594
(14, 14, Linear(in_features=768, out_features=100, bias=True)):
  count: 5
  value: 796.68700390625
(14, 14, Linear(in_features=816, out_features=100, bias=True)):
  count: 5
  value: 722.9457980224608
(14, 14, Linear(in_features=872, out_features=100, bias=True)):
  count: 5
  value: 748.6736006103515
(14, 14, Linear(in_features=920, out_features=100, bias=True)):
  count: 5
  value: 772.6478079345704
(14, 14, Linear(in_features=976, out_features=100, bias=True)):
  count: 5
  value: 751.7197958251952
? "(14, 14, PreActBlock(\n  (bn1): BatchNorm2d(1024, eps=1e-05, momentum=0.1, affine=True,\
  \ track_running_stats=True)\n  (conv1): Conv2d(1024, 1024, kernel_size=(3, 3), stride=(1,\
  \ 1), padding=(1, 1), bias=False)\n  (bn2): BatchNorm2d(1024, eps=1e-05, momentum=0.1,\
  \ affine=True, track_running_stats=True)\n  (conv2): Conv2d(1024, 1024, kernel_size=(3,\
  \ 3), stride=(1, 1), padding=(1, 1), bias=False)\n))"
: count: 5
  value: 89093.31011975097
? "(14, 14, PreActBlock(\n  (bn1): BatchNorm2d(1072, eps=1e-05, momentum=0.1, affine=True,\
  \ track_running_stats=True)\n  (conv1): Conv2d(1072, 1072, kernel_size=(3, 3), stride=(1,\
  \ 1), padding=(1, 1), bias=False)\n  (bn2): BatchNorm2d(1072, eps=1e-05, momentum=0.1,\
  \ affine=True, track_running_stats=True)\n  (conv2): Conv2d(1072, 1072, kernel_size=(3,\
  \ 3), stride=(1, 1), padding=(1, 1), bias=False)\n))"
: count: 5
  value: 96733.7821213501
? "(14, 14, PreActBlock(\n  (bn1): BatchNorm2d(1128, eps=1e-05, momentum=0.1, affine=True,\
  \ track_running_stats=True)\n  (conv1): Conv2d(1128, 1128, kernel_size=(3, 3), stride=(1,\
  \ 1), padding=(1, 1), bias=False)\n  (bn2): BatchNorm2d(1128, eps=1e-05, momentum=0.1,\
  \ affine=True, track_running_stats=True)\n  (conv2): Conv2d(1128, 1128, kernel_size=(3,\
  \ 3), stride=(1, 1), padding=(1, 1), bias=False)\n))"
: count: 5
  value: 97634.75673213502
? "(14, 14, PreActBlock(\n  (bn1): BatchNorm2d(1176, eps=1e-05, momentum=0.1, affine=True,\
  \ track_running_stats=True)\n  (conv1): Conv2d(1176, 1176, kernel_size=(3, 3), stride=(1,\
  \ 1), padding=(1, 1), bias=False)\n  (bn2): BatchNorm2d(1176, eps=1e-05, momentum=0.1,\
  \ affine=True, track_running_stats=True)\n  (conv2): Conv2d(1176, 1176, kernel_size=(3,\
  \ 3), stride=(1, 1), padding=(1, 1), bias=False)\n))"
: count: 5
  value: 104626.0750348999
? "(14, 14, PreActBlock(\n  (bn1): BatchNorm2d(1232, eps=1e-05, momentum=0.1, affine=True,\
  \ track_running_stats=True)\n  (conv1): Conv2d(1232, 1232, kernel_size=(3, 3), stride=(1,\
  \ 1), padding=(1, 1), bias=False)\n  (bn2): BatchNorm2d(1232, eps=1e-05, momentum=0.1,\
  \ affine=True, track_running_stats=True)\n  (conv2): Conv2d(1232, 1232, kernel_size=(3,\
  \ 3), stride=(1, 1), padding=(1, 1), bias=False)\n))"
: count: 5
  value: 111449.14317006226
? "(14, 14, PreActBlock(\n  (bn1): BatchNorm2d(1280, eps=1e-05, momentum=0.1, affine=True,\
  \ track_running_stats=True)\n  (conv1): Conv2d(1280, 1280, kernel_size=(3, 3), stride=(1,\
  \ 1), padding=(1, 1), bias=False)\n  (bn2): BatchNorm2d(1280, eps=1e-05, momentum=0.1,\
  \ affine=True, track_running_stats=True)\n  (conv2): Conv2d(1280, 1280, kernel_size=(3,\
  \ 3), stride=(1, 1), padding=(1, 1), bias=False)\n))"
: count: 5
  value: 121370.73113358153
? "(14, 14, PreActBlock(\n  (bn1): BatchNorm2d(1328, eps=1e-05, momentum=0.1, affine=True,\
  \ track_running_stats=True)\n  (conv1): Conv2d(1328, 1328, kernel_size=(3, 3), stride=(1,\
  \ 1), padding=(1, 1), bias=False)\n  (bn2): BatchNorm2d(1328, eps=1e-05, momentum=0.1,\
  \ affine=True, track_running_stats=True)\n  (conv2): Conv2d(1328, 1328, kernel_size=(3,\
  \ 3), stride=(1, 1), padding=(1, 1), bias=False)\n))"
: count: 5
  value: 125741.19301027831
? "(14, 14, PreActBlock(\n  (bn1): BatchNorm2d(1384, eps=1e-05, momentum=0.1, affine=True,\
  \ track_running_stats=True)\n  (conv1): Conv2d(1384, 1384, kernel_size=(3, 3), stride=(1,\
  \ 1), padding=(1, 1), bias=False)\n  (bn2): BatchNorm2d(1384, eps=1e-05, momentum=0.1,\
  \ affine=True, track_running_stats=True)\n  (conv2): Conv2d(1384, 1384, kernel_size=(3,\
  \ 3), stride=(1, 1), padding=(1, 1), bias=False)\n))"
: count: 5
  value: 141779.93880088502
? "(14, 14, PreActBlock(\n  (bn1): BatchNorm2d(1432, eps=1e-05, momentum=0.1, affine=True,\
  \ track_running_stats=True)\n  (conv1): Conv2d(1432, 1432, kernel_size=(3, 3), stride=(1,\
  \ 1), padding=(1, 1), bias=False)\n  (bn2): BatchNorm2d(1432, eps=1e-05, momentum=0.1,\
  \ affine=True, track_running_stats=True)\n  (conv2): Conv2d(1432, 1432, kernel_size=(3,\
  \ 3), stride=(1, 1), padding=(1, 1), bias=False)\n))"
: count: 5
  value: 141733.12659178468
? "(14, 14, PreActBlock(\n  (bn1): BatchNorm2d(1488, eps=1e-05, momentum=0.1, affine=True,\
  \ track_running_stats=True)\n  (conv1): Conv2d(1488, 1488, kernel_size=(3, 3), stride=(1,\
  \ 1), padding=(1, 1), bias=False)\n  (bn2): BatchNorm2d(1488, eps=1e-05, momentum=0.1,\
  \ affine=True, track_running_stats=True)\n  (conv2): Conv2d(1488, 1488, kernel_size=(3,\
  \ 3), stride=(1, 1), padding=(1, 1), bias=False)\n))"
: count: 5
  value: 155003.89935440064
? "(14, 14, PreActBlock(\n  (bn1): BatchNorm2d(1536, eps=1e-05, momentum=0.1, affine=True,\
  \ track_running_stats=True)\n  (conv1): Conv2d(1536, 1536, kernel_size=(3, 3), stride=(1,\
  \ 1), padding=(1, 1), bias=False)\n  (bn2): BatchNorm2d(1536, eps=1e-05, momentum=0.1,\
  \ affine=True, track_running_stats=True)\n  (conv2): Conv2d(1536, 1536, kernel_size=(3,\
  \ 3), stride=(1, 1), padding=(1, 1), bias=False)\n))"
: count: 5
  value: 161683.1291682556
? "(14, 14, PreActBlock(\n  (bn1): BatchNorm2d(512, eps=1e-05, momentum=0.1, affine=True,\
  \ track_running_stats=True)\n  (conv1): Conv2d(512, 512, kernel_size=(3, 3), stride=(1,\
  \ 1), padding=(1, 1), bias=False)\n  (bn2): BatchNorm2d(512, eps=1e-05, momentum=0.1,\
  \ affine=True, track_running_stats=True)\n  (conv2): Conv2d(512, 512, kernel_size=(3,\
  \ 3), stride=(1, 1), padding=(1, 1), bias=False)\n))"
: count: 5
  value: 34688.49516987915
? "(14, 14, PreActBlock(\n  (bn1): BatchNorm2d(560, eps=1e-05, momentum=0.1, affine=True,\
  \ track_running_stats=True)\n  (conv1): Conv2d(560, 560, kernel_size=(3, 3), stride=(1,\
  \ 1), padding=(1, 1), bias=False)\n  (bn2): BatchNorm2d(560, eps=1e-05, momentum=0.1,\
  \ affine=True, track_running_stats=True)\n  (conv2): Conv2d(560, 560, kernel_size=(3,\
  \ 3), stride=(1, 1), padding=(1, 1), bias=False)\n))"
: count: 5
  value: 37691.27996685791
? "(14, 14, PreActBlock(\n  (bn1): BatchNorm2d(616, eps=1e-05, momentum=0.1, affine=True,\
  \ track_running_stats=True)\n  (conv1): Conv2d(616, 616, kernel_size=(3, 3), stride=(1,\
  \ 1), padding=(1, 1), bias=False)\n  (bn2): BatchNorm2d(616, eps=1e-05, momentum=0.1,\
  \ affine=True, track_running_stats=True)\n  (conv2): Conv2d(616, 616, kernel_size=(3,\
  \ 3), stride=(1, 1), padding=(1, 1), bias=False)\n))"
: count: 5
  value: 42379.57422458496
? "(14, 14, PreActBlock(\n  (bn1): BatchNorm2d(664, eps=1e-05, momentum=0.1, affine=True,\
  \ track_running_stats=True)\n  (conv1): Conv2d(664, 664, kernel_size=(3, 3), stride=(1,\
  \ 1), padding=(1, 1), bias=False)\n  (bn2): BatchNorm2d(664, eps=1e-05, momentum=0.1,\
  \ affine=True, track_running_stats=True)\n  (conv2): Conv2d(664, 664, kernel_size=(3,\
  \ 3), stride=(1, 1), padding=(1, 1), bias=False)\n))"
: count: 5
  value: 44993.46336993408
? "(14, 14, PreActBlock(\n  (bn1): BatchNorm2d(720, eps=1e-05, momentum=0.1, affine=True,\
  \ track_running_stats=True)\n  (conv1): Conv2d(720, 720, kernel_size=(3, 3), stride=(1,\
  \ 1), padding=(1, 1), bias=False)\n  (bn2): BatchNorm2d(720, eps=1e-05, momentum=0.1,\
  \ affine=True, track_running_stats=True)\n  (conv2): Conv2d(720, 720, kernel_size=(3,\
  \ 3), stride=(1, 1), padding=(1, 1), bias=False)\n))"
: count: 5
  value: 51151.90115200195
? "(14, 14, PreActBlock(\n  (bn1): BatchNorm2d(768, eps=1e-05, momentum=0.1, affine=True,\
  \ track_running_stats=True)\n  (conv1): Conv2d(768, 768, kernel_size=(3, 3), stride=(1,\
  \ 1), padding=(1, 1), bias=False)\n  (bn2): BatchNorm2d(768, eps=1e-05, momentum=0.1,\
  \ affine=True, track_running_stats=True)\n  (conv2): Conv2d(768, 768, kernel_size=(3,\
  \ 3), stride=(1, 1), padding=(1, 1), bias=False)\n))"
: count: 5
  value: 53469.90369152832
? "(14, 14, PreActBlock(\n  (bn1): BatchNorm2d(816, eps=1e-05, momentum=0.1, affine=True,\
  \ track_running_stats=True)\n  (conv1): Conv2d(816, 816, kernel_size=(3, 3), stride=(1,\
  \ 1), padding=(1, 1), bias=False)\n  (bn2): BatchNorm2d(816, eps=1e-05, momentum=0.1,\
  \ affine=True, track_running_stats=True)\n  (conv2): Conv2d(816, 816, kernel_size=(3,\
  \ 3), stride=(1, 1), padding=(1, 1), bias=False)\n))"
: count: 5
  value: 60193.16706465454
? "(14, 14, PreActBlock(\n  (bn1): BatchNorm2d(872, eps=1e-05, momentum=0.1, affine=True,\
  \ track_running_stats=True)\n  (conv1): Conv2d(872, 872, kernel_size=(3, 3), stride=(1,\
  \ 1), padding=(1, 1), bias=False)\n  (bn2): BatchNorm2d(872, eps=1e-05, momentum=0.1,\
  \ affine=True, track_running_stats=True)\n  (conv2): Conv2d(872, 872, kernel_size=(3,\
  \ 3), stride=(1, 1), padding=(1, 1), bias=False)\n))"
: count: 5
  value: 67816.41882408448
? "(14, 14, PreActBlock(\n  (bn1): BatchNorm2d(920, eps=1e-05, momentum=0.1, affine=True,\
  \ track_running_stats=True)\n  (conv1): Conv2d(920, 920, kernel_size=(3, 3), stride=(1,\
  \ 1), padding=(1, 1), bias=False)\n  (bn2): BatchNorm2d(920, eps=1e-05, momentum=0.1,\
  \ affine=True, track_running_stats=True)\n  (conv2): Conv2d(920, 920, kernel_size=(3,\
  \ 3), stride=(1, 1), padding=(1, 1), bias=False)\n))"
: count: 5
  value: 71642.15337313843
? "(14, 14, PreActBlock(\n  (bn1): BatchNorm2d(976, eps=1e-05, momentum=0.1, affine=True,\
  \ track_running_stats=True)\n  (conv1): Conv2d(976, 976, kernel_size=(3, 3), stride=(1,\
  \ 1), padding=(1, 1), bias=False)\n  (bn2): BatchNorm2d(976, eps=1e-05, momentum=0.1,\
  \ affine=True, track_running_stats=True)\n  (conv2): Conv2d(976, 976, kernel_size=(3,\
  \ 3), stride=(1, 1), padding=(1, 1), bias=False)\n))"
: count: 5
  value: 84780.83444633789
? "(28, 14, PreActBlock(\n  (bn1): BatchNorm2d(256, eps=1e-05, momentum=0.1, affine=True,\
  \ track_running_stats=True)\n  (conv1): Conv2d(256, 512, kernel_size=(3, 3), stride=(2,\
  \ 2), padding=(1, 1), bias=False)\n  (bn2): BatchNorm2d(512, eps=1e-05, momentum=0.1,\
  \ affine=True, track_running_stats=True)\n  (conv2): Conv2d(512, 512, kernel_size=(3,\
  \ 3), stride=(1, 1), padding=(1, 1), bias=False)\n  (shortcut): Sequential(\n  \
  \  (0): Conv2d(256, 512, kernel_size=(1, 1), stride=(2, 2), bias=False)\n  )\n))"
: count: 5
  value: 35027.38479520263
? "(28, 14, PreActBlock(\n  (bn1): BatchNorm2d(280, eps=1e-05, momentum=0.1, affine=True,\
  \ track_running_stats=True)\n  (conv1): Conv2d(280, 560, kernel_size=(3, 3), stride=(2,\
  \ 2), padding=(1, 1), bias=False)\n  (bn2): BatchNorm2d(560, eps=1e-05, momentum=0.1,\
  \ affine=True, track_running_stats=True)\n  (conv2): Conv2d(560, 560, kernel_size=(3,\
  \ 3), stride=(1, 1), padding=(1, 1), bias=False)\n  (shortcut): Sequential(\n  \
  \  (0): Conv2d(280, 560, kernel_size=(1, 1), stride=(2, 2), bias=False)\n  )\n))"
: count: 5
  value: 37278.74552262573
? "(28, 14, PreActBlock(\n  (bn1): BatchNorm2d(304, eps=1e-05, momentum=0.1, affine=True,\
  \ track_running_stats=True)\n  (conv1): Conv2d(304, 616, kernel_size=(3, 3), stride=(2,\
  \ 2), padding=(1, 1), bias=False)\n  (bn2): BatchNorm2d(616, eps=1e-05, momentum=0.1,\
  \ affine=True, track_running_stats=True)\n  (conv2): Conv2d(616, 616, kernel_size=(3,\
  \ 3), stride=(1, 1), padding=(1, 1), bias=False)\n  (shortcut): Sequential(\n  \
  \  (0): Conv2d(304, 616, kernel_size=(1, 1), stride=(2, 2), bias=False)\n  )\n))"
: count: 5
  value: 41430.20655847168
? "(28, 14, PreActBlock(\n  (bn1): BatchNorm2d(336, eps=1e-05, momentum=0.1, affine=True,\
  \ track_running_stats=True)\n  (conv1): Conv2d(336, 664, kernel_size=(3, 3), stride=(2,\
  \ 2), padding=(1, 1), bias=False)\n  (bn2): BatchNorm2d(664, eps=1e-05, momentum=0.1,\
  \ affine=True, track_running_stats=True)\n  (conv2): Conv2d(664, 664, kernel_size=(3,\
  \ 3), stride=(1, 1), padding=(1, 1), bias=False)\n  (shortcut): Sequential(\n  \
  \  (0): Conv2d(336, 664, kernel_size=(1, 1), stride=(2, 2), bias=False)\n  )\n))"
: count: 5
  value: 43819.263302984626
? "(28, 14, PreActBlock(\n  (bn1): BatchNorm2d(360, eps=1e-05, momentum=0.1, affine=True,\
  \ track_running_stats=True)\n  (conv1): Conv2d(360, 720, kernel_size=(3, 3), stride=(2,\
  \ 2), padding=(1, 1), bias=False)\n  (bn2): BatchNorm2d(720, eps=1e-05, momentum=0.1,\
  \ affine=True, track_running_stats=True)\n  (conv2): Conv2d(720, 720, kernel_size=(3,\
  \ 3), stride=(1, 1), padding=(1, 1), bias=False)\n  (shortcut): Sequential(\n  \
  \  (0): Conv2d(360, 720, kernel_size=(1, 1), stride=(2, 2), bias=False)\n  )\n))"
: count: 5
  value: 48215.141792376715
? "(28, 14, PreActBlock(\n  (bn1): BatchNorm2d(384, eps=1e-05, momentum=0.1, affine=True,\
  \ track_running_stats=True)\n  (conv1): Conv2d(384, 768, kernel_size=(3, 3), stride=(2,\
  \ 2), padding=(1, 1), bias=False)\n  (bn2): BatchNorm2d(768, eps=1e-05, momentum=0.1,\
  \ affine=True, track_running_stats=True)\n  (conv2): Conv2d(768, 768, kernel_size=(3,\
  \ 3), stride=(1, 1), padding=(1, 1), bias=False)\n  (shortcut): Sequential(\n  \
  \  (0): Conv2d(384, 768, kernel_size=(1, 1), stride=(2, 2), bias=False)\n  )\n))"
: count: 5
  value: 49554.7890052002
? "(28, 14, PreActBlock(\n  (bn1): BatchNorm2d(408, eps=1e-05, momentum=0.1, affine=True,\
  \ track_running_stats=True)\n  (conv1): Conv2d(408, 816, kernel_size=(3, 3), stride=(2,\
  \ 2), padding=(1, 1), bias=False)\n  (bn2): BatchNorm2d(816, eps=1e-05, momentum=0.1,\
  \ affine=True, track_running_stats=True)\n  (conv2): Conv2d(816, 816, kernel_size=(3,\
  \ 3), stride=(1, 1), padding=(1, 1), bias=False)\n  (shortcut): Sequential(\n  \
  \  (0): Conv2d(408, 816, kernel_size=(1, 1), stride=(2, 2), bias=False)\n  )\n))"
: count: 5
  value: 54033.688716607656
? "(28, 14, PreActBlock(\n  (bn1): BatchNorm2d(432, eps=1e-05, momentum=0.1, affine=True,\
  \ track_running_stats=True)\n  (conv1): Conv2d(432, 872, kernel_size=(3, 3), stride=(2,\
  \ 2), padding=(1, 1), bias=False)\n  (bn2): BatchNorm2d(872, eps=1e-05, momentum=0.1,\
  \ affine=True, track_running_stats=True)\n  (conv2): Conv2d(872, 872, kernel_size=(3,\
  \ 3), stride=(1, 1), padding=(1, 1), bias=False)\n  (shortcut): Sequential(\n  \
  \  (0): Conv2d(432, 872, kernel_size=(1, 1), stride=(2, 2), bias=False)\n  )\n))"
: count: 5
  value: 61060.87119585571
? "(28, 14, PreActBlock(\n  (bn1): BatchNorm2d(464, eps=1e-05, momentum=0.1, affine=True,\
  \ track_running_stats=True)\n  (conv1): Conv2d(464, 920, kernel_size=(3, 3), stride=(2,\
  \ 2), padding=(1, 1), bias=False)\n  (bn2): BatchNorm2d(920, eps=1e-05, momentum=0.1,\
  \ affine=True, track_running_stats=True)\n  (conv2): Conv2d(920, 920, kernel_size=(3,\
  \ 3), stride=(1, 1), padding=(1, 1), bias=False)\n  (shortcut): Sequential(\n  \
  \  (0): Conv2d(464, 920, kernel_size=(1, 1), stride=(2, 2), bias=False)\n  )\n))"
: count: 5
  value: 64994.1321402832
? "(28, 14, PreActBlock(\n  (bn1): BatchNorm2d(488, eps=1e-05, momentum=0.1, affine=True,\
  \ track_running_stats=True)\n  (conv1): Conv2d(488, 976, kernel_size=(3, 3), stride=(2,\
  \ 2), padding=(1, 1), bias=False)\n  (bn2): BatchNorm2d(976, eps=1e-05, momentum=0.1,\
  \ affine=True, track_running_stats=True)\n  (conv2): Conv2d(976, 976, kernel_size=(3,\
  \ 3), stride=(1, 1), padding=(1, 1), bias=False)\n  (shortcut): Sequential(\n  \
  \  (0): Conv2d(488, 976, kernel_size=(1, 1), stride=(2, 2), bias=False)\n  )\n))"
: count: 5
  value: 74237.65221568603
? "(28, 14, PreActBlock(\n  (bn1): BatchNorm2d(512, eps=1e-05, momentum=0.1, affine=True,\
  \ track_running_stats=True)\n  (conv1): Conv2d(512, 1024, kernel_size=(3, 3), stride=(2,\
  \ 2), padding=(1, 1), bias=False)\n  (bn2): BatchNorm2d(1024, eps=1e-05, momentum=0.1,\
  \ affine=True, track_running_stats=True)\n  (conv2): Conv2d(1024, 1024, kernel_size=(3,\
  \ 3), stride=(1, 1), padding=(1, 1), bias=False)\n  (shortcut): Sequential(\n  \
  \  (0): Conv2d(512, 1024, kernel_size=(1, 1), stride=(2, 2), bias=False)\n  )\n\
  ))"
: count: 5
  value: 78558.41938453368
? "(28, 14, PreActBlock(\n  (bn1): BatchNorm2d(536, eps=1e-05, momentum=0.1, affine=True,\
  \ track_running_stats=True)\n  (conv1): Conv2d(536, 1072, kernel_size=(3, 3), stride=(2,\
  \ 2), padding=(1, 1), bias=False)\n  (bn2): BatchNorm2d(1072, eps=1e-05, momentum=0.1,\
  \ affine=True, track_running_stats=True)\n  (conv2): Conv2d(1072, 1072, kernel_size=(3,\
  \ 3), stride=(1, 1), padding=(1, 1), bias=False)\n  (shortcut): Sequential(\n  \
  \  (0): Conv2d(536, 1072, kernel_size=(1, 1), stride=(2, 2), bias=False)\n  )\n\
  ))"
: count: 5
  value: 84614.63762738646
? "(28, 14, PreActBlock(\n  (bn1): BatchNorm2d(560, eps=1e-05, momentum=0.1, affine=True,\
  \ track_running_stats=True)\n  (conv1): Conv2d(560, 1128, kernel_size=(3, 3), stride=(2,\
  \ 2), padding=(1, 1), bias=False)\n  (bn2): BatchNorm2d(1128, eps=1e-05, momentum=0.1,\
  \ affine=True, track_running_stats=True)\n  (conv2): Conv2d(1128, 1128, kernel_size=(3,\
  \ 3), stride=(1, 1), padding=(1, 1), bias=False)\n  (shortcut): Sequential(\n  \
  \  (0): Conv2d(560, 1128, kernel_size=(1, 1), stride=(2, 2), bias=False)\n  )\n\
  ))"
: count: 5
  value: 107466.26657462769
? "(28, 14, PreActBlock(\n  (bn1): BatchNorm2d(592, eps=1e-05, momentum=0.1, affine=True,\
  \ track_running_stats=True)\n  (conv1): Conv2d(592, 1176, kernel_size=(3, 3), stride=(2,\
  \ 2), padding=(1, 1), bias=False)\n  (bn2): BatchNorm2d(1176, eps=1e-05, momentum=0.1,\
  \ affine=True, track_running_stats=True)\n  (conv2): Conv2d(1176, 1176, kernel_size=(3,\
  \ 3), stride=(1, 1), padding=(1, 1), bias=False)\n  (shortcut): Sequential(\n  \
  \  (0): Conv2d(592, 1176, kernel_size=(1, 1), stride=(2, 2), bias=False)\n  )\n\
  ))"
: count: 5
  value: 97595.627375708
? "(28, 14, PreActBlock(\n  (bn1): BatchNorm2d(616, eps=1e-05, momentum=0.1, affine=True,\
  \ track_running_stats=True)\n  (conv1): Conv2d(616, 1232, kernel_size=(3, 3), stride=(2,\
  \ 2), padding=(1, 1), bias=False)\n  (bn2): BatchNorm2d(1232, eps=1e-05, momentum=0.1,\
  \ affine=True, track_running_stats=True)\n  (conv2): Conv2d(1232, 1232, kernel_size=(3,\
  \ 3), stride=(1, 1), padding=(1, 1), bias=False)\n  (shortcut): Sequential(\n  \
  \  (0): Conv2d(616, 1232, kernel_size=(1, 1), stride=(2, 2), bias=False)\n  )\n\
  ))"
: count: 5
  value: 103159.01104594117
? "(28, 14, PreActBlock(\n  (bn1): BatchNorm2d(640, eps=1e-05, momentum=0.1, affine=True,\
  \ track_running_stats=True)\n  (conv1): Conv2d(640, 1280, kernel_size=(3, 3), stride=(2,\
  \ 2), padding=(1, 1), bias=False)\n  (bn2): BatchNorm2d(1280, eps=1e-05, momentum=0.1,\
  \ affine=True, track_running_stats=True)\n  (conv2): Conv2d(1280, 1280, kernel_size=(3,\
  \ 3), stride=(1, 1), padding=(1, 1), bias=False)\n  (shortcut): Sequential(\n  \
  \  (0): Conv2d(640, 1280, kernel_size=(1, 1), stride=(2, 2), bias=False)\n  )\n\
  ))"
: count: 5
  value: 112644.76318486329
? "(28, 14, PreActBlock(\n  (bn1): BatchNorm2d(664, eps=1e-05, momentum=0.1, affine=True,\
  \ track_running_stats=True)\n  (conv1): Conv2d(664, 1328, kernel_size=(3, 3), stride=(2,\
  \ 2), padding=(1, 1), bias=False)\n  (bn2): BatchNorm2d(1328, eps=1e-05, momentum=0.1,\
  \ affine=True, track_running_stats=True)\n  (conv2): Conv2d(1328, 1328, kernel_size=(3,\
  \ 3), stride=(1, 1), padding=(1, 1), bias=False)\n  (shortcut): Sequential(\n  \
  \  (0): Conv2d(664, 1328, kernel_size=(1, 1), stride=(2, 2), bias=False)\n  )\n\
  ))"
: count: 5
  value: 116985.92714648438
? "(28, 14, PreActBlock(\n  (bn1): BatchNorm2d(688, eps=1e-05, momentum=0.1, affine=True,\
  \ track_running_stats=True)\n  (conv1): Conv2d(688, 1384, kernel_size=(3, 3), stride=(2,\
  \ 2), padding=(1, 1), bias=False)\n  (bn2): BatchNorm2d(1384, eps=1e-05, momentum=0.1,\
  \ affine=True, track_running_stats=True)\n  (conv2): Conv2d(1384, 1384, kernel_size=(3,\
  \ 3), stride=(1, 1), padding=(1, 1), bias=False)\n  (shortcut): Sequential(\n  \
  \  (0): Conv2d(688, 1384, kernel_size=(1, 1), stride=(2, 2), bias=False)\n  )\n\
  ))"
: count: 5
  value: 127932.67917068482
? "(28, 14, PreActBlock(\n  (bn1): BatchNorm2d(720, eps=1e-05, momentum=0.1, affine=True,\
  \ track_running_stats=True)\n  (conv1): Conv2d(720, 1432, kernel_size=(3, 3), stride=(2,\
  \ 2), padding=(1, 1), bias=False)\n  (bn2): BatchNorm2d(1432, eps=1e-05, momentum=0.1,\
  \ affine=True, track_running_stats=True)\n  (conv2): Conv2d(1432, 1432, kernel_size=(3,\
  \ 3), stride=(1, 1), padding=(1, 1), bias=False)\n  (shortcut): Sequential(\n  \
  \  (0): Conv2d(720, 1432, kernel_size=(1, 1), stride=(2, 2), bias=False)\n  )\n\
  ))"
: count: 5
  value: 133307.71953797608
? "(28, 14, PreActBlock(\n  (bn1): BatchNorm2d(744, eps=1e-05, momentum=0.1, affine=True,\
  \ track_running_stats=True)\n  (conv1): Conv2d(744, 1488, kernel_size=(3, 3), stride=(2,\
  \ 2), padding=(1, 1), bias=False)\n  (bn2): BatchNorm2d(1488, eps=1e-05, momentum=0.1,\
  \ affine=True, track_running_stats=True)\n  (conv2): Conv2d(1488, 1488, kernel_size=(3,\
  \ 3), stride=(1, 1), padding=(1, 1), bias=False)\n  (shortcut): Sequential(\n  \
  \  (0): Conv2d(744, 1488, kernel_size=(1, 1), stride=(2, 2), bias=False)\n  )\n\
  ))"
: count: 5
  value: 142992.28207020875
? "(28, 14, PreActBlock(\n  (bn1): BatchNorm2d(768, eps=1e-05, momentum=0.1, affine=True,\
  \ track_running_stats=True)\n  (conv1): Conv2d(768, 1536, kernel_size=(3, 3), stride=(2,\
  \ 2), padding=(1, 1), bias=False)\n  (bn2): BatchNorm2d(1536, eps=1e-05, momentum=0.1,\
  \ affine=True, track_running_stats=True)\n  (conv2): Conv2d(1536, 1536, kernel_size=(3,\
  \ 3), stride=(1, 1), padding=(1, 1), bias=False)\n  (shortcut): Sequential(\n  \
  \  (0): Conv2d(768, 1536, kernel_size=(1, 1), stride=(2, 2), bias=False)\n  )\n\
  ))"
: count: 5
  value: 148783.10968201296
? "(28, 28, PreActBlock(\n  (bn1): BatchNorm2d(256, eps=1e-05, momentum=0.1, affine=True,\
  \ track_running_stats=True)\n  (conv1): Conv2d(256, 256, kernel_size=(3, 3), stride=(1,\
  \ 1), padding=(1, 1), bias=False)\n  (bn2): BatchNorm2d(256, eps=1e-05, momentum=0.1,\
  \ affine=True, track_running_stats=True)\n  (conv2): Conv2d(256, 256, kernel_size=(3,\
  \ 3), stride=(1, 1), padding=(1, 1), bias=False)\n))"
: count: 5
  value: 29878.004408514407
? "(28, 28, PreActBlock(\n  (bn1): BatchNorm2d(280, eps=1e-05, momentum=0.1, affine=True,\
  \ track_running_stats=True)\n  (conv1): Conv2d(280, 280, kernel_size=(3, 3), stride=(1,\
  \ 1), padding=(1, 1), bias=False)\n  (bn2): BatchNorm2d(280, eps=1e-05, momentum=0.1,\
  \ affine=True, track_running_stats=True)\n  (conv2): Conv2d(280, 280, kernel_size=(3,\
  \ 3), stride=(1, 1), padding=(1, 1), bias=False)\n))"
: count: 5
  value: 35206.680232684324
? "(28, 28, PreActBlock(\n  (bn1): BatchNorm2d(304, eps=1e-05, momentum=0.1, affine=True,\
  \ track_running_stats=True)\n  (conv1): Conv2d(304, 304, kernel_size=(3, 3), stride=(1,\
  \ 1), padding=(1, 1), bias=False)\n  (bn2): BatchNorm2d(304, eps=1e-05, momentum=0.1,\
  \ affine=True, track_running_stats=True)\n  (conv2): Conv2d(304, 304, kernel_size=(3,\
  \ 3), stride=(1, 1), padding=(1, 1), bias=False)\n))"
: count: 5
  value: 35040.88458801269
? "(28, 28, PreActBlock(\n  (bn1): BatchNorm2d(336, eps=1e-05, momentum=0.1, affine=True,\
  \ track_running_stats=True)\n  (conv1): Conv2d(336, 336, kernel_size=(3, 3), stride=(1,\
  \ 1), padding=(1, 1), bias=False)\n  (bn2): BatchNorm2d(336, eps=1e-05, momentum=0.1,\
  \ affine=True, track_running_stats=True)\n  (conv2): Conv2d(336, 336, kernel_size=(3,\
  \ 3), stride=(1, 1), padding=(1, 1), bias=False)\n))"
: count: 5
  value: 41240.43254356079
? "(28, 28, PreActBlock(\n  (bn1): BatchNorm2d(360, eps=1e-05, momentum=0.1, affine=True,\
  \ track_running_stats=True)\n  (conv1): Conv2d(360, 360, kernel_size=(3, 3), stride=(1,\
  \ 1), padding=(1, 1), bias=False)\n  (bn2): BatchNorm2d(360, eps=1e-05, momentum=0.1,\
  \ affine=True, track_running_stats=True)\n  (conv2): Conv2d(360, 360, kernel_size=(3,\
  \ 3), stride=(1, 1), padding=(1, 1), bias=False)\n))"
: count: 5
  value: 43037.5842977539
? "(28, 28, PreActBlock(\n  (bn1): BatchNorm2d(384, eps=1e-05, momentum=0.1, affine=True,\
  \ track_running_stats=True)\n  (conv1): Conv2d(384, 384, kernel_size=(3, 3), stride=(1,\
  \ 1), padding=(1, 1), bias=False)\n  (bn2): BatchNorm2d(384, eps=1e-05, momentum=0.1,\
  \ affine=True, track_running_stats=True)\n  (conv2): Conv2d(384, 384, kernel_size=(3,\
  \ 3), stride=(1, 1), padding=(1, 1), bias=False)\n))"
: count: 5
  value: 46497.92967658691
? "(28, 28, PreActBlock(\n  (bn1): BatchNorm2d(408, eps=1e-05, momentum=0.1, affine=True,\
  \ track_running_stats=True)\n  (conv1): Conv2d(408, 408, kernel_size=(3, 3), stride=(1,\
  \ 1), padding=(1, 1), bias=False)\n  (bn2): BatchNorm2d(408, eps=1e-05, momentum=0.1,\
  \ affine=True, track_running_stats=True)\n  (conv2): Conv2d(408, 408, kernel_size=(3,\
  \ 3), stride=(1, 1), padding=(1, 1), bias=False)\n))"
: count: 5
  value: 55050.58351503906
? "(28, 28, PreActBlock(\n  (bn1): BatchNorm2d(432, eps=1e-05, momentum=0.1, affine=True,\
  \ track_running_stats=True)\n  (conv1): Conv2d(432, 432, kernel_size=(3, 3), stride=(1,\
  \ 1), padding=(1, 1), bias=False)\n  (bn2): BatchNorm2d(432, eps=1e-05, momentum=0.1,\
  \ affine=True, track_running_stats=True)\n  (conv2): Conv2d(432, 432, kernel_size=(3,\
  \ 3), stride=(1, 1), padding=(1, 1), bias=False)\n))"
: count: 5
  value: 61292.5908451233
? "(28, 28, PreActBlock(\n  (bn1): BatchNorm2d(464, eps=1e-05, momentum=0.1, affine=True,\
  \ track_running_stats=True)\n  (conv1): Conv2d(464, 464, kernel_size=(3, 3), stride=(1,\
  \ 1), padding=(1, 1), bias=False)\n  (bn2): BatchNorm2d(464, eps=1e-05, momentum=0.1,\
  \ affine=True, track_running_stats=True)\n  (conv2): Conv2d(464, 464, kernel_size=(3,\
  \ 3), stride=(1, 1), padding=(1, 1), bias=False)\n))"
: count: 5
  value: 69508.91225984498
? "(28, 28, PreActBlock(\n  (bn1): BatchNorm2d(488, eps=1e-05, momentum=0.1, affine=True,\
  \ track_running_stats=True)\n  (conv1): Conv2d(488, 488, kernel_size=(3, 3), stride=(1,\
  \ 1), padding=(1, 1), bias=False)\n  (bn2): BatchNorm2d(488, eps=1e-05, momentum=0.1,\
  \ affine=True, track_running_stats=True)\n  (conv2): Conv2d(488, 488, kernel_size=(3,\
  \ 3), stride=(1, 1), padding=(1, 1), bias=False)\n))"
: count: 5
  value: 77940.0729521423
? "(28, 28, PreActBlock(\n  (bn1): BatchNorm2d(512, eps=1e-05, momentum=0.1, affine=True,\
  \ track_running_stats=True)\n  (conv1): Conv2d(512, 512, kernel_size=(3, 3), stride=(1,\
  \ 1), padding=(1, 1), bias=False)\n  (bn2): BatchNorm2d(512, eps=1e-05, momentum=0.1,\
  \ affine=True, track_running_stats=True)\n  (conv2): Conv2d(512, 512, kernel_size=(3,\
  \ 3), stride=(1, 1), padding=(1, 1), bias=False)\n))"
: count: 5
  value: 82817.8813996399
? "(28, 28, PreActBlock(\n  (bn1): BatchNorm2d(536, eps=1e-05, momentum=0.1, affine=True,\
  \ track_running_stats=True)\n  (conv1): Conv2d(536, 536, kernel_size=(3, 3), stride=(1,\
  \ 1), padding=(1, 1), bias=False)\n  (bn2): BatchNorm2d(536, eps=1e-05, momentum=0.1,\
  \ affine=True, track_running_stats=True)\n  (conv2): Conv2d(536, 536, kernel_size=(3,\
  \ 3), stride=(1, 1), padding=(1, 1), bias=False)\n))"
: count: 5
  value: 90501.55784718627
? "(28, 28, PreActBlock(\n  (bn1): BatchNorm2d(560, eps=1e-05, momentum=0.1, affine=True,\
  \ track_running_stats=True)\n  (conv1): Conv2d(560, 560, kernel_size=(3, 3), stride=(1,\
  \ 1), padding=(1, 1), bias=False)\n  (bn2): BatchNorm2d(560, eps=1e-05, momentum=0.1,\
  \ affine=True, track_running_stats=True)\n  (conv2): Conv2d(560, 560, kernel_size=(3,\
  \ 3), stride=(1, 1), padding=(1, 1), bias=False)\n))"
: count: 5
  value: 100333.07270076906
? "(28, 28, PreActBlock(\n  (bn1): BatchNorm2d(592, eps=1e-05, momentum=0.1, affine=True,\
  \ track_running_stats=True)\n  (conv1): Conv2d(592, 592, kernel_size=(3, 3), stride=(1,\
  \ 1), padding=(1, 1), bias=False)\n  (bn2): BatchNorm2d(592, eps=1e-05, momentum=0.1,\
  \ affine=True, track_running_stats=True)\n  (conv2): Conv2d(592, 592, kernel_size=(3,\
  \ 3), stride=(1, 1), padding=(1, 1), bias=False)\n))"
: count: 5
  value: 111645.00892186278
? "(28, 28, PreActBlock(\n  (bn1): BatchNorm2d(616, eps=1e-05, momentum=0.1, affine=True,\
  \ track_running_stats=True)\n  (conv1): Conv2d(616, 616, kernel_size=(3, 3), stride=(1,\
  \ 1), padding=(1, 1), bias=False)\n  (bn2): BatchNorm2d(616, eps=1e-05, momentum=0.1,\
  \ affine=True, track_running_stats=True)\n  (conv2): Conv2d(616, 616, kernel_size=(3,\
  \ 3), stride=(1, 1), padding=(1, 1), bias=False)\n))"
: count: 5
  value: 121317.92545625
? "(28, 28, PreActBlock(\n  (bn1): BatchNorm2d(640, eps=1e-05, momentum=0.1, affine=True,\
  \ track_running_stats=True)\n  (conv1): Conv2d(640, 640, kernel_size=(3, 3), stride=(1,\
  \ 1), padding=(1, 1), bias=False)\n  (bn2): BatchNorm2d(640, eps=1e-05, momentum=0.1,\
  \ affine=True, track_running_stats=True)\n  (conv2): Conv2d(640, 640, kernel_size=(3,\
  \ 3), stride=(1, 1), padding=(1, 1), bias=False)\n))"
: count: 5
  value: 130026.25742403565
? "(28, 28, PreActBlock(\n  (bn1): BatchNorm2d(664, eps=1e-05, momentum=0.1, affine=True,\
  \ track_running_stats=True)\n  (conv1): Conv2d(664, 664, kernel_size=(3, 3), stride=(1,\
  \ 1), padding=(1, 1), bias=False)\n  (bn2): BatchNorm2d(664, eps=1e-05, momentum=0.1,\
  \ affine=True, track_running_stats=True)\n  (conv2): Conv2d(664, 664, kernel_size=(3,\
  \ 3), stride=(1, 1), padding=(1, 1), bias=False)\n))"
: count: 5
  value: 138914.63479523314
? "(28, 28, PreActBlock(\n  (bn1): BatchNorm2d(688, eps=1e-05, momentum=0.1, affine=True,\
  \ track_running_stats=True)\n  (conv1): Conv2d(688, 688, kernel_size=(3, 3), stride=(1,\
  \ 1), padding=(1, 1), bias=False)\n  (bn2): BatchNorm2d(688, eps=1e-05, momentum=0.1,\
  \ affine=True, track_running_stats=True)\n  (conv2): Conv2d(688, 688, kernel_size=(3,\
  \ 3), stride=(1, 1), padding=(1, 1), bias=False)\n))"
: count: 5
  value: 150190.1084774475
? "(28, 28, PreActBlock(\n  (bn1): BatchNorm2d(720, eps=1e-05, momentum=0.1, affine=True,\
  \ track_running_stats=True)\n  (conv1): Conv2d(720, 720, kernel_size=(3, 3), stride=(1,\
  \ 1), padding=(1, 1), bias=False)\n  (bn2): BatchNorm2d(720, eps=1e-05, momentum=0.1,\
  \ affine=True, track_running_stats=True)\n  (conv2): Conv2d(720, 720, kernel_size=(3,\
  \ 3), stride=(1, 1), padding=(1, 1), bias=False)\n))"
: count: 5
  value: 164779.1341034851
? "(28, 28, PreActBlock(\n  (bn1): BatchNorm2d(744, eps=1e-05, momentum=0.1, affine=True,\
  \ track_running_stats=True)\n  (conv1): Conv2d(744, 744, kernel_size=(3, 3), stride=(1,\
  \ 1), padding=(1, 1), bias=False)\n  (bn2): BatchNorm2d(744, eps=1e-05, momentum=0.1,\
  \ affine=True, track_running_stats=True)\n  (conv2): Conv2d(744, 744, kernel_size=(3,\
  \ 3), stride=(1, 1), padding=(1, 1), bias=False)\n))"
: count: 5
  value: 174312.33406213377
? "(28, 28, PreActBlock(\n  (bn1): BatchNorm2d(768, eps=1e-05, momentum=0.1, affine=True,\
  \ track_running_stats=True)\n  (conv1): Conv2d(768, 768, kernel_size=(3, 3), stride=(1,\
  \ 1), padding=(1, 1), bias=False)\n  (bn2): BatchNorm2d(768, eps=1e-05, momentum=0.1,\
  \ affine=True, track_running_stats=True)\n  (conv2): Conv2d(768, 768, kernel_size=(3,\
  \ 3), stride=(1, 1), padding=(1, 1), bias=False)\n))"
: count: 5
  value: 187853.9935563965
? "(56, 28, PreActBlock(\n  (bn1): BatchNorm2d(128, eps=1e-05, momentum=0.1, affine=True,\
  \ track_running_stats=True)\n  (conv1): Conv2d(128, 256, kernel_size=(3, 3), stride=(2,\
  \ 2), padding=(1, 1), bias=False)\n  (bn2): BatchNorm2d(256, eps=1e-05, momentum=0.1,\
  \ affine=True, track_running_stats=True)\n  (conv2): Conv2d(256, 256, kernel_size=(3,\
  \ 3), stride=(1, 1), padding=(1, 1), bias=False)\n  (shortcut): Sequential(\n  \
  \  (0): Conv2d(128, 256, kernel_size=(1, 1), stride=(2, 2), bias=False)\n  )\n))"
: count: 5
  value: 31567.03338355713
? "(56, 28, PreActBlock(\n  (bn1): BatchNorm2d(144, eps=1e-05, momentum=0.1, affine=True,\
  \ track_running_stats=True)\n  (conv1): Conv2d(144, 280, kernel_size=(3, 3), stride=(2,\
  \ 2), padding=(1, 1), bias=False)\n  (bn2): BatchNorm2d(280, eps=1e-05, momentum=0.1,\
  \ affine=True, track_running_stats=True)\n  (conv2): Conv2d(280, 280, kernel_size=(3,\
  \ 3), stride=(1, 1), padding=(1, 1), bias=False)\n  (shortcut): Sequential(\n  \
  \  (0): Conv2d(144, 280, kernel_size=(1, 1), stride=(2, 2), bias=False)\n  )\n))"
: count: 5
  value: 35445.12152236329
? "(56, 28, PreActBlock(\n  (bn1): BatchNorm2d(152, eps=1e-05, momentum=0.1, affine=True,\
  \ track_running_stats=True)\n  (conv1): Conv2d(152, 304, kernel_size=(3, 3), stride=(2,\
  \ 2), padding=(1, 1), bias=False)\n  (bn2): BatchNorm2d(304, eps=1e-05, momentum=0.1,\
  \ affine=True, track_running_stats=True)\n  (conv2): Conv2d(304, 304, kernel_size=(3,\
  \ 3), stride=(1, 1), padding=(1, 1), bias=False)\n  (shortcut): Sequential(\n  \
  \  (0): Conv2d(152, 304, kernel_size=(1, 1), stride=(2, 2), bias=False)\n  )\n))"
: count: 5
  value: 36059.461995690916
? "(56, 28, PreActBlock(\n  (bn1): BatchNorm2d(168, eps=1e-05, momentum=0.1, affine=True,\
  \ track_running_stats=True)\n  (conv1): Conv2d(168, 336, kernel_size=(3, 3), stride=(2,\
  \ 2), padding=(1, 1), bias=False)\n  (bn2): BatchNorm2d(336, eps=1e-05, momentum=0.1,\
  \ affine=True, track_running_stats=True)\n  (conv2): Conv2d(336, 336, kernel_size=(3,\
  \ 3), stride=(1, 1), padding=(1, 1), bias=False)\n  (shortcut): Sequential(\n  \
  \  (0): Conv2d(168, 336, kernel_size=(1, 1), stride=(2, 2), bias=False)\n  )\n))"
: count: 5
  value: 41727.03513825683
? "(56, 28, PreActBlock(\n  (bn1): BatchNorm2d(176, eps=1e-05, momentum=0.1, affine=True,\
  \ track_running_stats=True)\n  (conv1): Conv2d(176, 360, kernel_size=(3, 3), stride=(2,\
  \ 2), padding=(1, 1), bias=False)\n  (bn2): BatchNorm2d(360, eps=1e-05, momentum=0.1,\
  \ affine=True, track_running_stats=True)\n  (conv2): Conv2d(360, 360, kernel_size=(3,\
  \ 3), stride=(1, 1), padding=(1, 1), bias=False)\n  (shortcut): Sequential(\n  \
  \  (0): Conv2d(176, 360, kernel_size=(1, 1), stride=(2, 2), bias=False)\n  )\n))"
: count: 5
  value: 42087.62194194946
? "(56, 28, PreActBlock(\n  (bn1): BatchNorm2d(192, eps=1e-05, momentum=0.1, affine=True,\
  \ track_running_stats=True)\n  (conv1): Conv2d(192, 384, kernel_size=(3, 3), stride=(2,\
  \ 2), padding=(1, 1), bias=False)\n  (bn2): BatchNorm2d(384, eps=1e-05, momentum=0.1,\
  \ affine=True, track_running_stats=True)\n  (conv2): Conv2d(384, 384, kernel_size=(3,\
  \ 3), stride=(1, 1), padding=(1, 1), bias=False)\n  (shortcut): Sequential(\n  \
  \  (0): Conv2d(192, 384, kernel_size=(1, 1), stride=(2, 2), bias=False)\n  )\n))"
: count: 5
  value: 44818.05003082886
? "(56, 28, PreActBlock(\n  (bn1): BatchNorm2d(208, eps=1e-05, momentum=0.1, affine=True,\
  \ track_running_stats=True)\n  (conv1): Conv2d(208, 408, kernel_size=(3, 3), stride=(2,\
  \ 2), padding=(1, 1), bias=False)\n  (bn2): BatchNorm2d(408, eps=1e-05, momentum=0.1,\
  \ affine=True, track_running_stats=True)\n  (conv2): Conv2d(408, 408, kernel_size=(3,\
  \ 3), stride=(1, 1), padding=(1, 1), bias=False)\n  (shortcut): Sequential(\n  \
  \  (0): Conv2d(208, 408, kernel_size=(1, 1), stride=(2, 2), bias=False)\n  )\n))"
: count: 5
  value: 51384.50328393555
? "(56, 28, PreActBlock(\n  (bn1): BatchNorm2d(216, eps=1e-05, momentum=0.1, affine=True,\
  \ track_running_stats=True)\n  (conv1): Conv2d(216, 432, kernel_size=(3, 3), stride=(2,\
  \ 2), padding=(1, 1), bias=False)\n  (bn2): BatchNorm2d(432, eps=1e-05, momentum=0.1,\
  \ affine=True, track_running_stats=True)\n  (conv2): Conv2d(432, 432, kernel_size=(3,\
  \ 3), stride=(1, 1), padding=(1, 1), bias=False)\n  (shortcut): Sequential(\n  \
  \  (0): Conv2d(216, 432, kernel_size=(1, 1), stride=(2, 2), bias=False)\n  )\n))"
: count: 5
  value: 56175.0812680542
? "(56, 28, PreActBlock(\n  (bn1): BatchNorm2d(232, eps=1e-05, momentum=0.1, affine=True,\
  \ track_running_stats=True)\n  (conv1): Conv2d(232, 464, kernel_size=(3, 3), stride=(2,\
  \ 2), padding=(1, 1), bias=False)\n  (bn2): BatchNorm2d(464, eps=1e-05, momentum=0.1,\
  \ affine=True, track_running_stats=True)\n  (conv2): Conv2d(464, 464, kernel_size=(3,\
  \ 3), stride=(1, 1), padding=(1, 1), bias=False)\n  (shortcut): Sequential(\n  \
  \  (0): Conv2d(232, 464, kernel_size=(1, 1), stride=(2, 2), bias=False)\n  )\n))"
: count: 5
  value: 61355.28331616211
? "(56, 28, PreActBlock(\n  (bn1): BatchNorm2d(240, eps=1e-05, momentum=0.1, affine=True,\
  \ track_running_stats=True)\n  (conv1): Conv2d(240, 488, kernel_size=(3, 3), stride=(2,\
  \ 2), padding=(1, 1), bias=False)\n  (bn2): BatchNorm2d(488, eps=1e-05, momentum=0.1,\
  \ affine=True, track_running_stats=True)\n  (conv2): Conv2d(488, 488, kernel_size=(3,\
  \ 3), stride=(1, 1), padding=(1, 1), bias=False)\n  (shortcut): Sequential(\n  \
  \  (0): Conv2d(240, 488, kernel_size=(1, 1), stride=(2, 2), bias=False)\n  )\n))"
: count: 5
  value: 68184.12141500853
? "(56, 28, PreActBlock(\n  (bn1): BatchNorm2d(256, eps=1e-05, momentum=0.1, affine=True,\
  \ track_running_stats=True)\n  (conv1): Conv2d(256, 512, kernel_size=(3, 3), stride=(2,\
  \ 2), padding=(1, 1), bias=False)\n  (bn2): BatchNorm2d(512, eps=1e-05, momentum=0.1,\
  \ affine=True, track_running_stats=True)\n  (conv2): Conv2d(512, 512, kernel_size=(3,\
  \ 3), stride=(1, 1), padding=(1, 1), bias=False)\n  (shortcut): Sequential(\n  \
  \  (0): Conv2d(256, 512, kernel_size=(1, 1), stride=(2, 2), bias=False)\n  )\n))"
: count: 5
  value: 71381.8420164795
? "(56, 28, PreActBlock(\n  (bn1): BatchNorm2d(272, eps=1e-05, momentum=0.1, affine=True,\
  \ track_running_stats=True)\n  (conv1): Conv2d(272, 536, kernel_size=(3, 3), stride=(2,\
  \ 2), padding=(1, 1), bias=False)\n  (bn2): BatchNorm2d(536, eps=1e-05, momentum=0.1,\
  \ affine=True, track_running_stats=True)\n  (conv2): Conv2d(536, 536, kernel_size=(3,\
  \ 3), stride=(1, 1), padding=(1, 1), bias=False)\n  (shortcut): Sequential(\n  \
  \  (0): Conv2d(272, 536, kernel_size=(1, 1), stride=(2, 2), bias=False)\n  )\n))"
: count: 5
  value: 75618.89417444459
? "(56, 28, PreActBlock(\n  (bn1): BatchNorm2d(280, eps=1e-05, momentum=0.1, affine=True,\
  \ track_running_stats=True)\n  (conv1): Conv2d(280, 560, kernel_size=(3, 3), stride=(2,\
  \ 2), padding=(1, 1), bias=False)\n  (bn2): BatchNorm2d(560, eps=1e-05, momentum=0.1,\
  \ affine=True, track_running_stats=True)\n  (conv2): Conv2d(560, 560, kernel_size=(3,\
  \ 3), stride=(1, 1), padding=(1, 1), bias=False)\n  (shortcut): Sequential(\n  \
  \  (0): Conv2d(280, 560, kernel_size=(1, 1), stride=(2, 2), bias=False)\n  )\n))"
: count: 5
  value: 82094.46953720703
? "(56, 28, PreActBlock(\n  (bn1): BatchNorm2d(296, eps=1e-05, momentum=0.1, affine=True,\
  \ track_running_stats=True)\n  (conv1): Conv2d(296, 592, kernel_size=(3, 3), stride=(2,\
  \ 2), padding=(1, 1), bias=False)\n  (bn2): BatchNorm2d(592, eps=1e-05, momentum=0.1,\
  \ affine=True, track_running_stats=True)\n  (conv2): Conv2d(592, 592, kernel_size=(3,\
  \ 3), stride=(1, 1), padding=(1, 1), bias=False)\n  (shortcut): Sequential(\n  \
  \  (0): Conv2d(296, 592, kernel_size=(1, 1), stride=(2, 2), bias=False)\n  )\n))"
: count: 5
  value: 90060.66879720459
? "(56, 28, PreActBlock(\n  (bn1): BatchNorm2d(304, eps=1e-05, momentum=0.1, affine=True,\
  \ track_running_stats=True)\n  (conv1): Conv2d(304, 616, kernel_size=(3, 3), stride=(2,\
  \ 2), padding=(1, 1), bias=False)\n  (bn2): BatchNorm2d(616, eps=1e-05, momentum=0.1,\
  \ affine=True, track_running_stats=True)\n  (conv2): Conv2d(616, 616, kernel_size=(3,\
  \ 3), stride=(1, 1), padding=(1, 1), bias=False)\n  (shortcut): Sequential(\n  \
  \  (0): Conv2d(304, 616, kernel_size=(1, 1), stride=(2, 2), bias=False)\n  )\n))"
: count: 5
  value: 96224.54986470948
? "(56, 28, PreActBlock(\n  (bn1): BatchNorm2d(320, eps=1e-05, momentum=0.1, affine=True,\
  \ track_running_stats=True)\n  (conv1): Conv2d(320, 640, kernel_size=(3, 3), stride=(2,\
  \ 2), padding=(1, 1), bias=False)\n  (bn2): BatchNorm2d(640, eps=1e-05, momentum=0.1,\
  \ affine=True, track_running_stats=True)\n  (conv2): Conv2d(640, 640, kernel_size=(3,\
  \ 3), stride=(1, 1), padding=(1, 1), bias=False)\n  (shortcut): Sequential(\n  \
  \  (0): Conv2d(320, 640, kernel_size=(1, 1), stride=(2, 2), bias=False)\n  )\n))"
: count: 5
  value: 101127.00317356568
? "(56, 28, PreActBlock(\n  (bn1): BatchNorm2d(336, eps=1e-05, momentum=0.1, affine=True,\
  \ track_running_stats=True)\n  (conv1): Conv2d(336, 664, kernel_size=(3, 3), stride=(2,\
  \ 2), padding=(1, 1), bias=False)\n  (bn2): BatchNorm2d(664, eps=1e-05, momentum=0.1,\
  \ affine=True, track_running_stats=True)\n  (conv2): Conv2d(664, 664, kernel_size=(3,\
  \ 3), stride=(1, 1), padding=(1, 1), bias=False)\n  (shortcut): Sequential(\n  \
  \  (0): Conv2d(336, 664, kernel_size=(1, 1), stride=(2, 2), bias=False)\n  )\n))"
: count: 5
  value: 109328.7713300476
? "(56, 28, PreActBlock(\n  (bn1): BatchNorm2d(344, eps=1e-05, momentum=0.1, affine=True,\
  \ track_running_stats=True)\n  (conv1): Conv2d(344, 688, kernel_size=(3, 3), stride=(2,\
  \ 2), padding=(1, 1), bias=False)\n  (bn2): BatchNorm2d(688, eps=1e-05, momentum=0.1,\
  \ affine=True, track_running_stats=True)\n  (conv2): Conv2d(688, 688, kernel_size=(3,\
  \ 3), stride=(1, 1), padding=(1, 1), bias=False)\n  (shortcut): Sequential(\n  \
  \  (0): Conv2d(344, 688, kernel_size=(1, 1), stride=(2, 2), bias=False)\n  )\n))"
: count: 5
  value: 115724.44782023928
? "(56, 28, PreActBlock(\n  (bn1): BatchNorm2d(360, eps=1e-05, momentum=0.1, affine=True,\
  \ track_running_stats=True)\n  (conv1): Conv2d(360, 720, kernel_size=(3, 3), stride=(2,\
  \ 2), padding=(1, 1), bias=False)\n  (bn2): BatchNorm2d(720, eps=1e-05, momentum=0.1,\
  \ affine=True, track_running_stats=True)\n  (conv2): Conv2d(720, 720, kernel_size=(3,\
  \ 3), stride=(1, 1), padding=(1, 1), bias=False)\n  (shortcut): Sequential(\n  \
  \  (0): Conv2d(360, 720, kernel_size=(1, 1), stride=(2, 2), bias=False)\n  )\n))"
: count: 5
  value: 124495.48439680177
? "(56, 28, PreActBlock(\n  (bn1): BatchNorm2d(368, eps=1e-05, momentum=0.1, affine=True,\
  \ track_running_stats=True)\n  (conv1): Conv2d(368, 744, kernel_size=(3, 3), stride=(2,\
  \ 2), padding=(1, 1), bias=False)\n  (bn2): BatchNorm2d(744, eps=1e-05, momentum=0.1,\
  \ affine=True, track_running_stats=True)\n  (conv2): Conv2d(744, 744, kernel_size=(3,\
  \ 3), stride=(1, 1), padding=(1, 1), bias=False)\n  (shortcut): Sequential(\n  \
  \  (0): Conv2d(368, 744, kernel_size=(1, 1), stride=(2, 2), bias=False)\n  )\n))"
: count: 5
  value: 131112.73417119752
? "(56, 28, PreActBlock(\n  (bn1): BatchNorm2d(384, eps=1e-05, momentum=0.1, affine=True,\
  \ track_running_stats=True)\n  (conv1): Conv2d(384, 768, kernel_size=(3, 3), stride=(2,\
  \ 2), padding=(1, 1), bias=False)\n  (bn2): BatchNorm2d(768, eps=1e-05, momentum=0.1,\
  \ affine=True, track_running_stats=True)\n  (conv2): Conv2d(768, 768, kernel_size=(3,\
  \ 3), stride=(1, 1), padding=(1, 1), bias=False)\n  (shortcut): Sequential(\n  \
  \  (0): Conv2d(384, 768, kernel_size=(1, 1), stride=(2, 2), bias=False)\n  )\n))"
: count: 5
  value: 141382.08551431884
? "(56, 56, PreActBlock(\n  (bn1): BatchNorm2d(128, eps=1e-05, momentum=0.1, affine=True,\
  \ track_running_stats=True)\n  (conv1): Conv2d(128, 128, kernel_size=(3, 3), stride=(1,\
  \ 1), padding=(1, 1), bias=False)\n  (bn2): BatchNorm2d(128, eps=1e-05, momentum=0.1,\
  \ affine=True, track_running_stats=True)\n  (conv2): Conv2d(128, 128, kernel_size=(3,\
  \ 3), stride=(1, 1), padding=(1, 1), bias=False)\n))"
: count: 5
  value: 28593.57770497437
? "(56, 56, PreActBlock(\n  (bn1): BatchNorm2d(144, eps=1e-05, momentum=0.1, affine=True,\
  \ track_running_stats=True)\n  (conv1): Conv2d(144, 144, kernel_size=(3, 3), stride=(1,\
  \ 1), padding=(1, 1), bias=False)\n  (bn2): BatchNorm2d(144, eps=1e-05, momentum=0.1,\
  \ affine=True, track_running_stats=True)\n  (conv2): Conv2d(144, 144, kernel_size=(3,\
  \ 3), stride=(1, 1), padding=(1, 1), bias=False)\n))"
: count: 5
  value: 36949.45276414795
? "(56, 56, PreActBlock(\n  (bn1): BatchNorm2d(152, eps=1e-05, momentum=0.1, affine=True,\
  \ track_running_stats=True)\n  (conv1): Conv2d(152, 152, kernel_size=(3, 3), stride=(1,\
  \ 1), padding=(1, 1), bias=False)\n  (bn2): BatchNorm2d(152, eps=1e-05, momentum=0.1,\
  \ affine=True, track_running_stats=True)\n  (conv2): Conv2d(152, 152, kernel_size=(3,\
  \ 3), stride=(1, 1), padding=(1, 1), bias=False)\n))"
: count: 5
  value: 37325.17922602539
? "(56, 56, PreActBlock(\n  (bn1): BatchNorm2d(168, eps=1e-05, momentum=0.1, affine=True,\
  \ track_running_stats=True)\n  (conv1): Conv2d(168, 168, kernel_size=(3, 3), stride=(1,\
  \ 1), padding=(1, 1), bias=False)\n  (bn2): BatchNorm2d(168, eps=1e-05, momentum=0.1,\
  \ affine=True, track_running_stats=True)\n  (conv2): Conv2d(168, 168, kernel_size=(3,\
  \ 3), stride=(1, 1), padding=(1, 1), bias=False)\n))"
: count: 5
  value: 39668.07057454224
? "(56, 56, PreActBlock(\n  (bn1): BatchNorm2d(176, eps=1e-05, momentum=0.1, affine=True,\
  \ track_running_stats=True)\n  (conv1): Conv2d(176, 176, kernel_size=(3, 3), stride=(1,\
  \ 1), padding=(1, 1), bias=False)\n  (bn2): BatchNorm2d(176, eps=1e-05, momentum=0.1,\
  \ affine=True, track_running_stats=True)\n  (conv2): Conv2d(176, 176, kernel_size=(3,\
  \ 3), stride=(1, 1), padding=(1, 1), bias=False)\n))"
: count: 5
  value: 40832.528126837155
? "(56, 56, PreActBlock(\n  (bn1): BatchNorm2d(192, eps=1e-05, momentum=0.1, affine=True,\
  \ track_running_stats=True)\n  (conv1): Conv2d(192, 192, kernel_size=(3, 3), stride=(1,\
  \ 1), padding=(1, 1), bias=False)\n  (bn2): BatchNorm2d(192, eps=1e-05, momentum=0.1,\
  \ affine=True, track_running_stats=True)\n  (conv2): Conv2d(192, 192, kernel_size=(3,\
  \ 3), stride=(1, 1), padding=(1, 1), bias=False)\n))"
: count: 5
  value: 42500.168648950195
? "(56, 56, PreActBlock(\n  (bn1): BatchNorm2d(208, eps=1e-05, momentum=0.1, affine=True,\
  \ track_running_stats=True)\n  (conv1): Conv2d(208, 208, kernel_size=(3, 3), stride=(1,\
  \ 1), padding=(1, 1), bias=False)\n  (bn2): BatchNorm2d(208, eps=1e-05, momentum=0.1,\
  \ affine=True, track_running_stats=True)\n  (conv2): Conv2d(208, 208, kernel_size=(3,\
  \ 3), stride=(1, 1), padding=(1, 1), bias=False)\n))"
: count: 5
  value: 48524.4696300171
? "(56, 56, PreActBlock(\n  (bn1): BatchNorm2d(216, eps=1e-05, momentum=0.1, affine=True,\
  \ track_running_stats=True)\n  (conv1): Conv2d(216, 216, kernel_size=(3, 3), stride=(1,\
  \ 1), padding=(1, 1), bias=False)\n  (bn2): BatchNorm2d(216, eps=1e-05, momentum=0.1,\
  \ affine=True, track_running_stats=True)\n  (conv2): Conv2d(216, 216, kernel_size=(3,\
  \ 3), stride=(1, 1), padding=(1, 1), bias=False)\n))"
: count: 5
  value: 49841.04974940796
? "(56, 56, PreActBlock(\n  (bn1): BatchNorm2d(232, eps=1e-05, momentum=0.1, affine=True,\
  \ track_running_stats=True)\n  (conv1): Conv2d(232, 232, kernel_size=(3, 3), stride=(1,\
  \ 1), padding=(1, 1), bias=False)\n  (bn2): BatchNorm2d(232, eps=1e-05, momentum=0.1,\
  \ affine=True, track_running_stats=True)\n  (conv2): Conv2d(232, 232, kernel_size=(3,\
  \ 3), stride=(1, 1), padding=(1, 1), bias=False)\n))"
: count: 5
  value: 57744.53523817139
? "(56, 56, PreActBlock(\n  (bn1): BatchNorm2d(240, eps=1e-05, momentum=0.1, affine=True,\
  \ track_running_stats=True)\n  (conv1): Conv2d(240, 240, kernel_size=(3, 3), stride=(1,\
  \ 1), padding=(1, 1), bias=False)\n  (bn2): BatchNorm2d(240, eps=1e-05, momentum=0.1,\
  \ affine=True, track_running_stats=True)\n  (conv2): Conv2d(240, 240, kernel_size=(3,\
  \ 3), stride=(1, 1), padding=(1, 1), bias=False)\n))"
: count: 5
  value: 61994.21065551149
? "(56, 56, PreActBlock(\n  (bn1): BatchNorm2d(256, eps=1e-05, momentum=0.1, affine=True,\
  \ track_running_stats=True)\n  (conv1): Conv2d(256, 256, kernel_size=(3, 3), stride=(1,\
  \ 1), padding=(1, 1), bias=False)\n  (bn2): BatchNorm2d(256, eps=1e-05, momentum=0.1,\
  \ affine=True, track_running_stats=True)\n  (conv2): Conv2d(256, 256, kernel_size=(3,\
  \ 3), stride=(1, 1), padding=(1, 1), bias=False)\n))"
: count: 5
  value: 65060.58389684449
? "(56, 56, PreActBlock(\n  (bn1): BatchNorm2d(272, eps=1e-05, momentum=0.1, affine=True,\
  \ track_running_stats=True)\n  (conv1): Conv2d(272, 272, kernel_size=(3, 3), stride=(1,\
  \ 1), padding=(1, 1), bias=False)\n  (bn2): BatchNorm2d(272, eps=1e-05, momentum=0.1,\
  \ affine=True, track_running_stats=True)\n  (conv2): Conv2d(272, 272, kernel_size=(3,\
  \ 3), stride=(1, 1), padding=(1, 1), bias=False)\n))"
: count: 5
  value: 73096.58556168822
? "(56, 56, PreActBlock(\n  (bn1): BatchNorm2d(280, eps=1e-05, momentum=0.1, affine=True,\
  \ track_running_stats=True)\n  (conv1): Conv2d(280, 280, kernel_size=(3, 3), stride=(1,\
  \ 1), padding=(1, 1), bias=False)\n  (bn2): BatchNorm2d(280, eps=1e-05, momentum=0.1,\
  \ affine=True, track_running_stats=True)\n  (conv2): Conv2d(280, 280, kernel_size=(3,\
  \ 3), stride=(1, 1), padding=(1, 1), bias=False)\n))"
: count: 5
  value: 70624.51233807374
? "(56, 56, PreActBlock(\n  (bn1): BatchNorm2d(296, eps=1e-05, momentum=0.1, affine=True,\
  \ track_running_stats=True)\n  (conv1): Conv2d(296, 296, kernel_size=(3, 3), stride=(1,\
  \ 1), padding=(1, 1), bias=False)\n  (bn2): BatchNorm2d(296, eps=1e-05, momentum=0.1,\
  \ affine=True, track_running_stats=True)\n  (conv2): Conv2d(296, 296, kernel_size=(3,\
  \ 3), stride=(1, 1), padding=(1, 1), bias=False)\n))"
: count: 5
  value: 79385.53639183959
? "(56, 56, PreActBlock(\n  (bn1): BatchNorm2d(304, eps=1e-05, momentum=0.1, affine=True,\
  \ track_running_stats=True)\n  (conv1): Conv2d(304, 304, kernel_size=(3, 3), stride=(1,\
  \ 1), padding=(1, 1), bias=False)\n  (bn2): BatchNorm2d(304, eps=1e-05, momentum=0.1,\
  \ affine=True, track_running_stats=True)\n  (conv2): Conv2d(304, 304, kernel_size=(3,\
  \ 3), stride=(1, 1), padding=(1, 1), bias=False)\n))"
: count: 5
  value: 82521.79089186403
? "(56, 56, PreActBlock(\n  (bn1): BatchNorm2d(320, eps=1e-05, momentum=0.1, affine=True,\
  \ track_running_stats=True)\n  (conv1): Conv2d(320, 320, kernel_size=(3, 3), stride=(1,\
  \ 1), padding=(1, 1), bias=False)\n  (bn2): BatchNorm2d(320, eps=1e-05, momentum=0.1,\
  \ affine=True, track_running_stats=True)\n  (conv2): Conv2d(320, 320, kernel_size=(3,\
  \ 3), stride=(1, 1), padding=(1, 1), bias=False)\n))"
: count: 5
  value: 85899.72290200196
? "(56, 56, PreActBlock(\n  (bn1): BatchNorm2d(336, eps=1e-05, momentum=0.1, affine=True,\
  \ track_running_stats=True)\n  (conv1): Conv2d(336, 336, kernel_size=(3, 3), stride=(1,\
  \ 1), padding=(1, 1), bias=False)\n  (bn2): BatchNorm2d(336, eps=1e-05, momentum=0.1,\
  \ affine=True, track_running_stats=True)\n  (conv2): Conv2d(336, 336, kernel_size=(3,\
  \ 3), stride=(1, 1), padding=(1, 1), bias=False)\n))"
: count: 5
  value: 95411.06850780029
? "(56, 56, PreActBlock(\n  (bn1): BatchNorm2d(344, eps=1e-05, momentum=0.1, affine=True,\
  \ track_running_stats=True)\n  (conv1): Conv2d(344, 344, kernel_size=(3, 3), stride=(1,\
  \ 1), padding=(1, 1), bias=False)\n  (bn2): BatchNorm2d(344, eps=1e-05, momentum=0.1,\
  \ affine=True, track_running_stats=True)\n  (conv2): Conv2d(344, 344, kernel_size=(3,\
  \ 3), stride=(1, 1), padding=(1, 1), bias=False)\n))"
: count: 5
  value: 97129.02876854858
? "(56, 56, PreActBlock(\n  (bn1): BatchNorm2d(360, eps=1e-05, momentum=0.1, affine=True,\
  \ track_running_stats=True)\n  (conv1): Conv2d(360, 360, kernel_size=(3, 3), stride=(1,\
  \ 1), padding=(1, 1), bias=False)\n  (bn2): BatchNorm2d(360, eps=1e-05, momentum=0.1,\
  \ affine=True, track_running_stats=True)\n  (conv2): Conv2d(360, 360, kernel_size=(3,\
  \ 3), stride=(1, 1), padding=(1, 1), bias=False)\n))"
: count: 5
  value: 108035.2487381775
? "(56, 56, PreActBlock(\n  (bn1): BatchNorm2d(368, eps=1e-05, momentum=0.1, affine=True,\
  \ track_running_stats=True)\n  (conv1): Conv2d(368, 368, kernel_size=(3, 3), stride=(1,\
  \ 1), padding=(1, 1), bias=False)\n  (bn2): BatchNorm2d(368, eps=1e-05, momentum=0.1,\
  \ affine=True, track_running_stats=True)\n  (conv2): Conv2d(368, 368, kernel_size=(3,\
  \ 3), stride=(1, 1), padding=(1, 1), bias=False)\n))"
: count: 5
  value: 110102.38553598023
? "(56, 56, PreActBlock(\n  (bn1): BatchNorm2d(384, eps=1e-05, momentum=0.1, affine=True,\
  \ track_running_stats=True)\n  (conv1): Conv2d(384, 384, kernel_size=(3, 3), stride=(1,\
  \ 1), padding=(1, 1), bias=False)\n  (bn2): BatchNorm2d(384, eps=1e-05, momentum=0.1,\
  \ affine=True, track_running_stats=True)\n  (conv2): Conv2d(384, 384, kernel_size=(3,\
  \ 3), stride=(1, 1), padding=(1, 1), bias=False)\n))"
: count: 5
  value: 113635.0033406067
